checkpoint_actor_final.pth (torch_old, 91477 bytes, 14 tensors)

fc1.weight f4 [128, 33]
00000000: 0649 883e 4c49 79be 2057 093e 8cf0 063f
00000010: 3f39 a73e 48c9 d13e e4d2 953e fd7e 0d3d
00000020: 9bff 43be 7dac bebc a768 9b3c 5835 b7bd
00000030: 9e31 8a3d 7421 2bbd aa9a f0bc ee6e 9cbd
00000040: 5259 c73d 3d3b c73e b220 db3d dda5 053d
00000050: b699 ed3c 8934 d7bb 53aa 653d 69d1 edbc
00000060: 326c 203d 20f5 a0bd 9e16 65bb d792 28be
00000070: 608e 593d 74a7 8f3c f9e7 c03d 0da0 0fbd
00000080: ab30 363c e72f debd 9eb5 0c3d c035 19bd
00000090: 4b0f 433e a088 b13e 1fe6 fdbe a9ae 253e
000000a0: aa51 24bd e22f ab3d 924d 9dbd 7627 663c
000000b0: 7c39 4b3d 7cfb 14bd e46a 75bd 8abd 7e3c
000000c0: f8dc 883d bfe9 8cbe 381f 63be 911f 893d
000000d0: 978c 393e cf53 dbbb b9d5 a43c 2e20 78bc
000000e0: 4adf 04bc 5de5 54bc 4c51 903c 0ee6 b43d
000000f0: 200f f43d cef6 90bd 2d5f af3d c426 d3bd
00000100: 3333 ae3d baf6 7c3f 4718 7ebc d864 613e
00000110: 7331 883d 0ab0 e1bd 1fb6 58bd bbb6 cc3e
00000120: 8974 ed3c 7291 90bd 0e57 10be 9ea5 e23c
00000130: 4054 0abd 4ae3 733c 383b 37bc 05e3 df3c
00000140: 0bae 01be 3040 3dbd e2e7 b7bd bfde e6bc
00000150: 3ae1 543e bf7e d4be 1475 0ebc 3ccd 7dbd
00000160: 231c 4ebc 65a0 d3bc d0f4 a6bb c86b cb3c
00000170: 734a 6e3c 524e 973d 430a 6a3d a4e3 89bd
00000180: 4077 5abb d4d3 1fbd 2895 8a3f 733f c3bc
00000190: eb64 a03c 90a4 42bc 75e1 35bc a0b2 12bd
000001a0: f190 0b3d dfce 3bbd 3587 5b3b c51d 123d
000001b0: ddd4 89bd edcc 4d3c 3ecf 80bd 0043 bfba
000001c0: 521e a6bc 6b22 c5bc 7e7c d0bc 42e0 a5bd
000001d0: a6d7 573e 506c acbe 150b 9fbe f236 0e3b
000001e0: c8b1 98bc a931 cc3c 1b91 c7bc d783 e3bc
000001f0: 7b47 553c 3d1c c23c 6c33 8e3d 478a 663d
00000200: b06c 7b3c 8d9c 66be 0031 0d3b a947 a7bf
00000210: 62a9 8abc 1a09 d4bd ca33 043e 71c0 71bd
00000220: 68f0 753e 4749 653d 6fa4 1e3c 4f7a 00be
00000230: 69b9 203e 008d b03d f23f 893b 1d62 613c
00000240: ef47 aa3d b670 80bc 6d19 723e 9fe1 2d3d
00000250: 0bb9 a23e 00f9 1c3d 6d4f 8abe 4c5c 5dbe
00000260: a216 21bc b6bc 60bd e849 d4bd f792 a63d
00000270: 2d83 d23d 0aa1 86bd a7f5 673e 0a7b 9fbd
00000280: 3bb2 633d 56f6 563d 2e00 1f3d 8bd2 9d3d
00000290: f31b d13e a79b ccbd 42d8 733c 5956 7ebb
000002a0: e949 1e3c b956 6cbd eab4 8fbe 8a6e 793d
000002b0: cca3 57bd 83b0 2b3e 3e74 03be 570d 763d
000002c0: 5461 b03c 133b 313c a55d 403d ca13 80bd
000002d0: 14db 09bd 2d3d 3b3f 44a3 b4bd 52a7 403e
000002e0: 6a1c f23d e347 8e3b a7df 92bd 31c1 863c
000002f0: 2f3b 02be 5bcd efbc d271 3ebd 766c 3abe
00000300: ec3a 153e 4ae3 143d adf7 5dbd ebdd b2bd
00000310: 86cd 6b3d c16e 243f 82fb da3d ae73 103d
00000320: 1bd1 2abd ad3f 743d 82a4 ecbc b7d4 983f
00000330: 2d22 0bbf d381 b6bc c31a 01be 0d8e 743c
00000340: bf22 173c d88d 79bd 0dea 8bbd 9c5c 6fbc
00000350: df01 9f3d 5d3d 8abd 1ea7 443d fded 153d
00000360: e893 a6be 34b7 8f3e 440b 0c3c a3e3 893c
00000370: f901 44bc 27bc 123e 2d17 463d 41c1 d8bd
00000380: 6803 0a3d 23dd 563d 42ab 2a3d bc56 dabc
00000390: ecc8 b73d 9066 283c 650d 1c3e 8acb 713d
000003a0: d2ac be3d b472 4bbc 862f b6be f08e f5bd
000003b0: 6af5 f73e 6e50 543e 3652 2c3d 860b 81be
000003c0: 41a1 f0bd d33c fdbc 453e ad38 bcd8 de3c
000003d0: 9b02 36be 1304 903d 27cc 64bd be6c 123e
000003e0: 8770 0b3e 9a0d b7be ddf2 a9be d48a 283d
000003f0: b4a7 c6bd cdf4 3e3c eb1a 8a3c f558 003d
0.26618212 -0.24344367 0.13412142 0.52710795 0.32660863 0.40973878 0.2926246 0.034544934
-0.19140474 -0.023275608 0.0189708 -0.089457214 0.06747745 -0.04177995 -0.029370625 -0.07638346
0.097338334 0.38912383 0.106995955 0.032628883 0.02900396 -0.006567542 0.056070637 -0.029030519
0.039165683 -0.07859254 -0.0034956108 -0.16462265 0.053114295 0.017535903 0.09419245 -0.035064746
0.011120002 -0.108489804 0.03435289 -0.037404776 0.19048803 0.3467455 -0.4958963 0.16179909
-0.040116943 0.08358742 -0.07680811 0.014047494 0.04961537 -0.036372647 -0.059916392 0.015548119
0.066827714 -0.27522084 -0.22179878 0.06695474 0.18120037 -0.0066933404 0.020121442 -0.015144391
-0.008109877 -0.012994138 0.01761689 0.08832942 0.11916947 -0.07078324 0.08563075 -0.10310128
0.08505859 0.98813975 -0.015508718 0.22011125 0.06650057 -0.11019905 -0.05290806 0.39983162
0.028986232 -0.070589915 -0.14095709 0.027666863 -0.033771753 0.014885733 -0.011183552 0.027329931
-0.12664048 -0.046203792 -0.08979775 -0.028182385 0.20789042 -0.4150295 -0.008694906 -0.061963305
-0.0125799505 -0.025833318 -0.005095102 0.024831668 0.014544117 0.07387985 0.057138693 -0.06732872
-0.0033335239 -0.039020374 1.0826769 -0.023833966 0.019579371 -0.011880055 -0.011101116 -0.03581488
0.034073774 -0.045851585 0.0033497338 0.03567292 -0.067300536 0.012561065 -0.06289528 -0.0014592111
-0.02027813 -0.024064263 -0.025449988 -0.080994144 0.21078357 -0.33676386 -0.31063142 0.002170023
-0.01863946 0.024926024 -0.024361184 -0.027772827 0.013017531 0.023695106 0.06943402 0.056284215
0.015345737 -0.22520657 0.00215441 -1.3068744 -0.016926471 -0.103532985 0.12910381 -0.059021417
0.24017489 0.055978086 0.009682759 -0.12546657 0.15695728 0.086206436 0.004188531 0.013756302
0.083145015 -0.015678745 0.23642512 0.042451497 0.31781802 0.038323402 -0.27013722 -0.2161724
-0.009832056 -0.05486747 -0.10365659 0.081335 0.10278926 -0.065736845 0.22652303 -0.0778714
0.055589896 0.052481018 0.03881853 0.077061735 0.40841636 -0.09990626 0.014883103 -0.0038808791
0.009661176 -0.057699893 -0.28067714 0.060896434 -0.052646443 0.16766553 -0.12837312 0.060071316
0.021530785 0.010817307 0.046964306 -0.062537745 -0.033656195 0.7314022 -0.08820203 0.18813828
0.11821826 0.0043420657 -0.071715645 0.016449543 -0.12717889 -0.029272726 -0.046495266 -0.18205437
0.14573258 0.036349572 -0.05419128 -0.08733734 0.05756905 0.642315 0.106925026 0.03526657
-0.041703325 0.05963104 -0.028887037 1.1939915 -0.54349023 -0.022278702 -0.12607865 0.014926446
0.009224593 -0.06092629 -0.06831751 -0.014609482 0.07764029 -0.06749985 0.048010938 0.036603916
-0.3253472 0.2806946 0.008547608 0.016832178 -0.011963361 0.14329587 0.048361946 -0.10583735
0.033694655 0.052456986 0.04166723 -0.026652686 0.0897387 0.010278359 0.15239485 0.059032
0.093103066 -0.012417484 -0.35583133 -0.11990154 0.48429424 0.20733806 0.04207059 -0.25204104
-0.11749507 -0.030912792 8.2608814e-05 0.027202956 -0.17774431 0.07032027 -0.055858757 0.14299294
0.13617145 -0.35752565 -0.33193102 0.04114802 -0.096999556 0.011655045 0.016858539 0.031334836

fc1.bias f4 [128]
00000000: c2a3 003e 3f40 4cbe b45c 4bbd 834d b8bd
00000010: d7f1 8d3d 29a3 adbd fad8 38bd f8d3 7ebe
00000020: 3b43 32be b0d9 e03d 7901 09be 7b54 6fbe
00000030: f4a2 99be cdda 7cbe 6f8b e0bd c153 a53e
00000040: a298 83bd 7975 58be 861a 8fbe 3064 6fbc
00000050: 2326 89be 4bb1 32be 1621 8dbd 5b40 87be
00000060: baaa 38be 415d 6237 c89a 9cbe e43b b53b
00000070: 3974 bbbe de6c a2be 27e3 b4be cc4c 3cbe
00000080: 8842 5a3c 6c01 cabe 35c9 b1bd 2162 7abe
00000090: 549a 87be d604 86be 72dc 1c3d e4f1 84bd
000000a0: e1ed 8c3c d5bd 333e 6a4c c1be 1d24 3ebe
000000b0: e7a5 17bd 66b4 e1bd 9440 e33d 2ba9 97be
000000c0: 1275 32be dfaf f33d 5824 2d3e e379 32be
000000d0: 4dba 863c 015e 34be 3a03 76bd 287a 7d3e
000000e0: 6bf5 32be b83b bc3e 25ac 8dbe 3e5c 1ebe
000000f0: e843 67be ae73 f5bd c648 a3be bdc9 7dbe
00000100: da42 c8bd cec3 093d e0c6 80bd 7e88 393e
00000110: 658c c9bd 3a6a 893c 4553 3dbe 1e6e 4dbe
00000120: 6972 8cbd 5394 06bf b73c 903c 6ef4 82be
00000130: 295c 9d3c 35c1 bbbe 05e2 95be 882d ddbd
00000140: 74e6 4bbd 6844 2dbe ccf5 6d3d e208 03bf
00000150: d26f 09be 2b56 a03d 32ad f03d 80c7 94bd
00000160: 20c5 c7bd 711e 61bb 5d36 bc3d 1100 15be
00000170: 8d8e a3be b24a dbbd 7e45 afbe b71f f0bd
00000180: 0041 09bd 2ad2 20be c89f 83be ab2e 8d3e
00000190: c7cf 86be 6a2a 303d 8f76 803e 17cd 18be
000001a0: 5050 a53d 1869 8abe 7801 723d 6861 f9be
000001b0: b69a 8cba 6a21 3c3e a182 e2bc bf71 76be
000001c0: c73c fdbc e350 86be 7a5d 78be d19b 0cbe
000001d0: fb3e acbd 27e6 083e 2d4d 81bd 3c67 d43d
000001e0: 41ef 35bd 0798 62be d75b fabd 5d89 fd3c
000001f0: 2464 463e 667b d0bd 0877 1cbe 2c42 81bd
0.12562469 -0.19946383 -0.049648955 -0.08999159 0.06930893 -0.08478386 -0.0451288 -0.24885547
-0.17408459 0.109790206 -0.13379468 -0.2337207 -0.30007136 -0.24692841 -0.10964095 0.32290462
-0.06425597 -0.21138562 -0.27949923 -0.014611289 -0.26786909 -0.17450444 -0.06891076 -0.26416287
-0.18033877 1.3492362e-05 -0.3058684 0.005530821 -0.36612108 -0.31723684 -0.35329553 -0.1838867
0.013321526 -0.3945421 -0.08680955 -0.24451496 -0.2648493 -0.26175565 0.03829617 -0.064914495
0.017203273 0.17552884 -0.37753612 -0.18568464 -0.03702345 -0.110207364 0.11096302 -0.29621252
-0.17427471 0.11898779 0.16908395 -0.17429309 0.016446257 -0.17613985 -0.06006167 0.2475363
-0.17476432 0.36764312 -0.27670398 -0.15464875 -0.22584498 -0.11984955 -0.3189146 -0.24783988
-0.09778376 0.033634 -0.062879324 0.18118474 -0.09841231 0.016774286 -0.18488796 -0.20061538
-0.068577595 -0.52570075 0.017607076 -0.2557711 0.019208984 -0.36670843 -0.29274002 -0.107997
-0.049780324 -0.16920626 0.05809574 -0.5118543 -0.13421562 0.07828935 0.117517844 -0.07264614
-0.097543955 -0.003435042 0.091900565 -0.14550807 -0.31944695 -0.107076064 -0.34232706 -0.11724799
-0.033509254 -0.15705171 -0.2570784 0.27574667 -0.26330397 0.0430092 0.25090453 -0.14921986
0.08071959 -0.27033305 0.059083432 -0.48707128 -0.001072726 0.18372121 -0.02765018 -0.24066828
-0.03091277 -0.26233587 -0.24254408 -0.13731314 -0.0841045 0.13369046 -0.06313548 0.10371253
-0.044417623 -0.22128306 -0.12224548 0.030949289 0.19374138 -0.101797864 -0.15279782 -0.063114494

fc2.weight f4 [128, 128]
00000000: 704f dabd 8dd1 5f3e 2824 a1bd f2e1 7cbd
00000010: 13ac bdbd 81c4 62bd b758 3a3e 048f 863d
00000020: fbdc c8be fca4 bfbe af6f 89be 1216 923e
00000030: 30b9 7cbd e646 5a3d adf6 0abe ec50 e53d
00000040: b56b cdbe b56d 843c 9dca 9bbe 0197 2fbe
00000050: bf8d 073e 1878 8a3d b0ba 9dbe e032 ccbd
00000060: b157 0f3d cad1 813e 9b88 153e e259 093e
00000070: 50cb d4bd db1f 533d d837 95be 7a05 2c3e
00000080: 1bca 28be 44f2 b23d fcb7 aabe 9d8c f7bd
00000090: c205 8f3d fb5f d53c e135 e8bd ba5e 80be
000000a0: e915 98bd 4d57 9cbe 6243 5c3e eea3 7b3e
000000b0: 4bcf 1dbe 1f6b 01be b0df 66be e077 49bd
000000c0: 1761 54be ee33 303c 74ec 68bd 1b62 b0bd
000000d0: 877a 8b3d 482a 43be 69df 6dbe f625 bcbe
000000e0: 1ea7 92be a6af 50bd 145c b23d 3c44 46be
000000f0: 6c84 493d c514 b63e 759f be3d ef80 7dbe
00000100: f361 0d3e bc23 c6be 6afe 47bd 7552 b83d
00000110: bc5b 94bc a854 603d 2575 eebe 28a8 f13e
00000120: 8370 4b3e 218a bc3d 631f 03be d0f8 02be
00000130: 8b01 d2bd 4477 35be 0238 1e3e 4293 b63d
00000140: d68d b6bc 4b32 e3be ea17 d7bd 63ed 1dbe
00000150: 91f9 223f 7515 263e da3a 04be 7345 00be
00000160: 29ea 04bd 73e9 97bc 216c cfbe facc a9bd
00000170: fc37 00bf d90b 4dbe e7df 54bd b34a 03be
00000180: ae34 06bd 2079 323e ef83 e9be 89f2 e63d
00000190: 5909 8a3e 1bf9 48bf 9ab9 9cbd 0e6e 02be
000001a0: 3980 7fbe b690 38be eb16 bc3e 892a 50be
000001b0: 032c 3ebd 6a14 d33c 67b2 fcb9 b9d4 01bf
000001c0: 23dc c5bd 43bf 9f3d 74f2 4ebe 9ba2 b8bd
000001d0: fbd3 51be 6a53 72bd cb1d 88be d931 05be
000001e0: ed6d 0dbf 0c2d edbe ed5d 94be 0a09 51be
000001f0: f1f5 91bd 6553 d8be 8d50 84be 58ec aabd
00000200: 496c 8bbd b440 1f3c d9c8 193d e230 9f3e
00000210: c1f0 a6bd e1f7 6f3d 3f9c b03b c3f3 253d
00000220: 37ee 863e 8c71 d2bc 81c9 203d c4df babc
00000230: 6aa6 b2bb 70e2 b5be cb1f 693e d669 2bbd
00000240: 40b0 8d3e 449d 71bd dfff c93d 0b7c 1d3c
00000250: c839 8d3e 5bfa c13d 6d58 50be 8d66 9bbd
00000260: 28f5 2bbe 8329 563e bc6b 61be 6a76 f4bd
00000270: 4f58 e5bd 90d7 813e e927 c73d 3a0f e53c
00000280: 9867 b33c 6b82 96be 8791 2b3e 0b07 703e
00000290: 40d6 cf3e f8be 923d 24af c43e 4c3d 063e
000002a0: bbb4 373e 30b2 a13e 1dd7 b13c 98e9 323e
000002b0: 3157 723d efd2 38be 296a 0ebf b193 b2be
000002c0: 7d67 183d 32f6 cebb 76fa ac3d ffa8 613e
000002d0: 84d1 c0bd 8369 a9bd 52e8 983e 8eb7 b5be
000002e0: 21b8 40be 51f4 82be 7da8 933d d227 293e
000002f0: 6059 623d 1353 0cbd b6d2 8d3d 525d 56bd
00000300: 00af 573d 73a4 bd3c 0851 25be 92e5 1cbc
00000310: 3540 e73d 5157 90be 3f49 9d3c 7067 013e
00000320: e5f1 6b3e 0cd8 36be aa13 12bd ea32 823e
00000330: c505 083e 2009 1dbe 0e14 2abe fd97 60be
00000340: 99c2 fd3d aa83 983e 1c83 9c3d 944d 9d3d
00000350: dff3 c1bc 1019 883c c036 b4bc aa27 1fbe
00000360: 955d 87be df1b c53d d589 b03d 53c8 97be
00000370: 9e1f 7cbe 404f d7be b9c2 f9bd 7036 97be
00000380: 5dd5 85bd b766 833d 3f80 5dbe 0648 083d
00000390: 9ff4 393e eeaa c8bd 7bbd 14be fb8f f93d
000003a0: bd05 03be 517b b6bd 9084 f2bd a2b9 c93d
000003b0: c04a ff3c 31a1 4dbd 60e7 66bd 8331 373e
000003c0: 4721 91bd a5d8 923e 5308 583d 7565 9a3e
000003d0: 7c22 0a3d 60d0 013e 5cdf 2f3e 0990 ae3e
000003e0: ae38 a2be aa38 893e 28bd babe 53ee a1bc
000003f0: e9f7 1cbc e9b3 0bbe 50bf 55be 1b51 973d
-0.10659683 0.21857281 -0.078682244 -0.061738916 -0.09261336 -0.055363182 0.18197905 0.06570247
-0.39231095 -0.3743056 -0.2684302 0.28532463 -0.061700046 0.05329027 -0.13570662 0.11197075
-0.40121236 0.016165594 -0.3042802 -0.17147447 0.13237666 0.06761187 -0.30806494 -0.09970641
0.03499574 0.2535537 0.14602892 0.13413194 -0.10390341 0.05154405 -0.29144168 0.16798964
-0.16483347 0.08737615 -0.33343494 -0.12087367 0.0698352 0.026046744 -0.113384016 -0.2507227
-0.07426054 -0.30535355 0.2151008 0.24574253 -0.15411107 -0.1263852 -0.22546268 -0.049186587
-0.20740162 0.0107545685 -0.056866124 -0.08612462 0.068104796 -0.19059098 -0.23229755 -0.36747712
-0.28643125 -0.05094876 0.08708969 -0.19361967 0.049198553 0.3556272 0.09307758 -0.24756216
0.13806896 -0.38699138 -0.048826613 0.090001024 -0.018110149 0.054768234 -0.4657375 0.47198606
0.19867139 0.092060335 -0.12804942 -0.12790227 -0.102542005 -0.17721277 0.15451053 0.08914806
-0.02228443 -0.44374308 -0.10502608 -0.15422587 0.6366206 0.16219123 -0.12913075 -0.12526493
-0.032449875 -0.018543934 -0.40512183 -0.08291049 -0.50085425 -0.20024051 -0.051971342 -0.12821464
-0.032765083 0.17429018 -0.4560847 0.11276729 0.26960257 -0.78505105 -0.07652588 -0.12737295
-0.24951257 -0.18023953 0.36736235 -0.20328726 -0.04642869 0.02576657 -0.00048198106 -0.50715214
-0.09661128 0.07800152 -0.20209676 -0.090153895 -0.2049102 -0.05916158 -0.2658523 -0.13007297
-0.5524586 -0.4632343 -0.2897791 -0.20413604 -0.07126988 -0.42251125 -0.25842705 -0.0834586
-0.06807763 0.009720016 0.03754506 0.31091982 -0.08151389 0.058586005 0.0053897197 0.040515672
0.26353619 -0.025688909 0.03925467 -0.022811778 -0.005451967 -0.3552432 0.22766034 -0.04184898
0.2767353 -0.05898787 0.09863257 0.009612094 0.27583146 0.0947158 -0.20346232 -0.075879194
-0.16792738 0.20914273 -0.22013754 -0.11936648 -0.11198484 0.25359774 0.09724409 0.027961362
0.021899983 -0.29396376 0.16754733 0.23440187 0.40593147 0.07165331 0.38414872 0.1310932
0.17940037 0.3158126 0.02170902 0.17471921 0.059165183 -0.18049215 -0.5563074 -0.34878305
0.03720807 -0.00631597 0.08446209 0.22037123 -0.09414962 -0.08272078 0.29864746 -0.35491604
-0.1882024 -0.25577024 0.07209871 0.16519096 0.055261016 -0.034258913 0.069249555 -0.05233509
0.052657127 0.023149705 -0.16144192 -0.009576218 0.112915434 -0.28191617 0.019199966 0.12637115
0.23041494 -0.17855853 -0.035663284 0.2542947 0.13283451 -0.15335512 -0.16609213 -0.21932979
0.12390632 0.29787952 0.07642195 0.076808125 -0.023675857 0.016613513 -0.021998763 -0.15542474
-0.26438585 0.096244566 0.086200394 -0.29645023 -0.24621436 -0.4205265 -0.121953435 -0.2953372
-0.065348364 0.06416076 -0.21630953 0.033271812 0.18159722 -0.09798227 -0.14525406 0.12185665
-0.12795158 -0.089102395 -0.118416905 0.0984986 0.031163573 -0.050202552 -0.056373 0.17889981
-0.07086425 0.28680912 0.052742314 0.3015553 0.033724293 0.12677145 0.17175049 0.34094265
-0.31683868 0.26801044 -0.3647244 -0.019766962 -0.009580591 -0.13642849 -0.20873761 0.073885165

fc2.bias f4 [128]
00000000: 0609 933b ed27 2abe 56e9 0dbe 671b 33bd
00000010: 304c babc 5583 51be 36c1 c0bd 5943 3abd
00000020: 6a3e 30be cf97 9ebe 55c3 7cbd 0806 2fbe
00000030: 6396 9bbe d034 1dbe 6be6 da3d c3fd 1d3e
00000040: 8d03 01be 01ba 0dbe 20cf 693e 88c0 53be
00000050: 8e61 97be 6de0 c53c 477e 78bd 3cc9 39be
00000060: 746b 4cbe 5583 12be 97bb 37ba 8cdd 24bd
00000070: 9374 99be 9627 1ebd 9640 4cbe acac efbd
00000080: 3931 04be b079 dabd 7fb8 02be ade6 37bc
00000090: f82d e23c d6a7 0d3e 58b0 8ebe baa3 06be
000000a0: 5a45 1e3e 7504 79bd b56c 1cbd 9ca3 7cbe
000000b0: 8bbf ee3d 4e03 313e 49e4 8d3d 7fa0 12bd
000000c0: 7e91 33be 524c d8bd 94f2 efbc 1cfb 5ebe
000000d0: 9b4e 42be 8aef 22bc 2a87 f0bd 30d6 56be
000000e0: a5d4 c5be b2d9 00be 3a0a 09be 5a2e 79be
000000f0: 7758 9c3d 275e c0bd 2e66 68be 23cd 59bd
00000100: 7367 08be b952 51bd 5c90 e03c 13ca 7a3d
00000110: 5e8f 7fbe eafa 3a3e 94e7 2cbe 48a0 333c
00000120: 0269 bc3c 9cba 4cbd ab80 2fbd 9daf 08bd
00000130: 7207 453c 7686 4cbe 18af 06bd 318e 86bd
00000140: c896 6b3e 5a07 2f3e fb60 44bd 54e4 a8bd
00000150: 84a5 80bd 9dae 20be 26e4 543c 3fb5 54be
00000160: ecd8 1abe 0092 1abe 2938 e23d f2bd 86be
00000170: 943f 46be 993f bc3a a292 a4be 41cd 083d
00000180: 166b f93d 7ec9 4fbd 7208 f8ba 0b6f 2fbe
00000190: 092a a2be 571b 443e 0bd8 73be 69a7 86be
000001a0: ba5c 56bd f15c 15be f6bf e1be ee7a 00be
000001b0: 12f1 7fbe 771b 853a d823 9abd 2657 a83d
000001c0: c359 cabd 3003 ff3d 5362 b1bd e8c1 9bbd
000001d0: df71 1d3d d4f4 1abe 5b43 c4bd a712 c73d
000001e0: 6054 2b3d 3507 ecbd 981d c03d 9794 7ebe
000001f0: 378e 90bc feee 563e 25b6 b23d 7a2f f2bd
0.0044871597 -0.16616793 -0.13858542 -0.043727305 -0.022741407 -0.20460255 -0.09411852 -0.045474384
-0.17211309 -0.30975196 -0.06170972 -0.17092144 -0.30388173 -0.15352178 0.1068848 0.15428834
-0.12599011 -0.13840486 0.22832918 -0.20678914 -0.29566616 0.024154866 -0.060667302 -0.18143171
-0.19962865 -0.14307912 -0.0007008849 -0.040250346 -0.29971752 -0.03861197 -0.19946513 -0.117028564
-0.12909402 -0.10667741 -0.12765692 -0.011224431 0.02760981 0.13833556 -0.27868915 -0.13148394
0.15456143 -0.060795266 -0.03818961 -0.24671787 0.11657628 0.17286417 0.069283076 -0.035797592
-0.1753597 -0.10561432 -0.029290475 -0.21775478 -0.18975298 -0.009944806 -0.117445305 -0.20980144
-0.38638797 -0.12583044 -0.13382807 -0.24334088 0.07634061 -0.09392958 -0.22695228 -0.05317415
-0.13320713 -0.05110428 0.027412586 0.06122787 -0.24957034 0.18259779 -0.16885215 0.010963507
0.02299929 -0.049982652 -0.042847317 -0.033370603 0.012025701 -0.19973168 -0.032881826 -0.065700896
0.23006737 0.17092648 -0.04794405 -0.08246675 -0.062815696 -0.1569161 0.012993848 -0.20772265
-0.15121812 -0.15094757 0.11045868 -0.26316792 -0.1936019 0.0014362215 -0.32143122 0.03339887
0.12178628 -0.050729267 -0.0018923415 -0.17132203 -0.31672695 0.19151054 -0.23812883 -0.262996
-0.052334525 -0.14586236 -0.44091767 -0.12546894 -0.24994305 0.001015528 -0.07526368 0.08219747
-0.09880402 0.1245178 -0.08661332 -0.07605344 0.038438674 -0.15132457 -0.095831595 0.097203545
0.041828513 -0.11524812 0.093806446 -0.2486137 -0.017645938 0.20989606 0.087261476 -0.11825462

fc3.weight f4 [4, 128]
00000000: a4ee 4dbf 95ed 50bd 7f2c b43e 8928 2cbc
00000010: 29d1 25bf 0c9b ecbe 8203 05bf a49a 583e
00000020: 277f 063f 65c9 1e3f 94db b5be 6c0e f33e
00000030: 34e5 13be 1770 693f b507 433f 208a aa3d
00000040: f4fd 0bbe 6531 8cbe 6663 c03e 1588 953e
00000050: 5cee 75be e5ed 71be de42 0bbe 6f42 c13e
00000060: 72cb 34be 1c8b 423d 7f1c f2bd c5a6 163e
00000070: 531e 77bd eb00 67bf 8861 32bf 09fc d3bd
00000080: ebe1 b2be 5fae 4bbe 00f7 00bf 1fc0 99bd
00000090: 1673 783e 1e20 c23c 1239 2ebe c12c 18bd
000000a0: d405 a23c 1e3a 033e c3ba 943e bc74 f1be
000000b0: c438 0fbf e3cf b4be 1516 9d3e dc7f f33d
000000c0: 5cab b23d 700a ba3e f303 0cbd 4f4b 8abe
000000d0: 178c 2fbf a852 f93e 399e 213f e216 fd3c
000000e0: 6a69 48bd 729a 3abe 0d06 8dbf d3d6 8dbf
000000f0: 53e2 28be 5110 d33e 8335 273e 635d 2a3e
00000100: 5928 023f 9b96 11bf c2cc 23bf 3360 263e
00000110: 9836 3fbc b6c0 89bd 48c0 1e3e f454 f23e
00000120: 7e82 b63e 7066 c63e f163 d4be c9d2 dcbe
00000130: a1d3 eb3e 1771 14be 7b32 a03d 1b6a 0abf
00000140: 2685 0c3d 07b2 bc3e 26fd 3dbf 14fa aa3c
00000150: 00dd a53d 449c 313f 790c 0abf 702b 313f
00000160: c0d7 1a3e 35f2 8c3e 80b6 343e 0c68 79be
00000170: 407b 713d 82da c3be 9f9f 82be a2f4 7cbd
00000180: 1121 a4be 6bd0 863e 499f cabe 7f77 423f
00000190: fba3 71be 642d 893e bcdb b8be ff2e 67bd
000001a0: cda5 8d3d 9f53 53bd 85a8 c13e ced2 cb3e
000001b0: 9501 e3bd 72bb 1cbd 47cb 4e3f 7745 b33d
000001c0: 336f 513f 174a f9bd 983e a1bd 1230 33be
000001d0: 4961 cf3e c47f 4a3c 8a49 afbc 880d b13e
000001e0: 6f91 993e 1b36 47bf b429 663e 38b9 93be
000001f0: 6eab 1bbf d32f 933e 1c5c 3f3e 3736 b03d
00000200: 8ecb 99bd 824e 813e 5e52 1e3e fb42 083e
00000210: 45bb 9d3d 8954 55bd d806 903e 5f8a 8a3e
00000220: 9e04 8e3e 5d35 493e 6747 833e d75c c93e
00000230: d633 2f3e 4992 b6bd a18a 1e3e a932 00bf
00000240: 9270 43bf a2f5 923d 927c 96be f637 273f
00000250: 5a75 2cbf f933 403d 0ae7 063e 3c15 debb
00000260: 8dac 3d3f 9d73 e4bb c1ea 183e e99f 0abf
00000270: 75be 1b3f c81c c13d b68e 73be 6424 503e
00000280: b615 07be 825f 793f 17f3 b0be 0425 cbbe
00000290: 84f1 533e c084 043e 9947 043e 0621 60bf
000002a0: 7cc5 e4be 2f4d 27bf 2117 bfbe a2f7 013e
000002b0: f51a 86be 2adf c73e aeba a93e f7f8 043f
000002c0: f42b 843f 92cf acbc 6a55 b2be a2b8 4a3f
000002d0: 9394 d2bd 6ad6 e83e 6680 463f a4c7 9cbe
000002e0: 6e53 7ebd 32b5 de3e aacb c3bd cfe4 333e
000002f0: 515a f5be eb94 6dbe 648d 23bf b071 683e
00000300: 3038 cf3b 86d3 c63c 4c1e 843e 4274 0cbf
00000310: 5aad f83d 2285 e93e 6cb6 0f3f 9fcc 143e
00000320: e29a 0abd 1337 03be b498 173f da66 c73d
00000330: 9aec cfbe c4ac 3a3f 02be b4ba 5531 00bf
00000340: a202 a83e c3d1 7c3e 064f bfbe 877e 8f3e
00000350: 66e2 16bf cdc3 8fbc 8cff e9be 4e55 5c3e
00000360: 15ad dbbe ec02 e8be a482 febe 85dc a63e
00000370: 4972 febe 78e8 dfbd 7189 813e 32e1 fdbb
00000380: 5190 793e e81b 32bf bd4e 98be 6194 f83e
00000390: a8fb 9f3e d6ac a33e 7601 ef3e 770f a1be
000003a0: 04b7 933d 38ea 43bf 23bb 013f 10a7 343f
000003b0: 561a b03e 5d21 53bf dafd 68be e726 b9be
000003c0: dd40 b73e 8ad6 ff3e 1f9c e83e 9cd9 8dbe
000003d0: 29a2 9e3e f1c9 7e3e 8acc 80be f6c7 c53d
000003e0: 4117 ad3d ab33 adbe 0e05 4cbf 0160 cdbe
000003f0: 3fea 013c 1e78 41bf 9763 33bf d98e 253f
-0.8044226 -0.051007826 0.35190198 -0.010507711 -0.6477228 -0.4621204 -0.5195848 0.2115274
0.5253777 0.62026054 -0.35519087 0.4747194 -0.14442903 0.9118666 0.76183635 0.083271265
-0.13671094 -0.27381435 0.37575835 0.29205385 -0.24016708 -0.23625906 -0.13599727 0.37745997
-0.17655733 0.047495946 -0.118218414 0.14712055 -0.060331654 -0.90235776 -0.6968007 -0.10350806
-0.34937987 -0.19890736 -0.5037689 -0.07507347 0.24262652 0.023696955 -0.17013958 -0.037152056
0.01977817 0.12815139 0.29048738 -0.47159374 -0.5594599 -0.35314855 0.3068091 0.118896216
0.087240905 0.36336088 -0.034183454 -0.2701058 -0.68573135 0.48695874 0.63132054 0.0308947
-0.048928656 -0.18222979 -1.1017472 -1.1081184 -0.16492586 0.41223386 0.16329007 0.16637187
0.50842816 -0.5687043 -0.6398431 0.16247635 -0.011670731 -0.0672621 0.15503037 0.4733044
0.35646433 0.3875003 -0.414825 -0.43129566 0.46059898 -0.14496265 0.078221284 -0.54068154
0.034306668 0.36854574 -0.742144 0.0208712 0.08098793 0.6937907 -0.5392528 0.69206905
0.15121365 0.2752854 0.17647743 -0.24356097 0.05895543 -0.38252646 -0.25512406 -0.061756738
-0.32056478 0.26330885 -0.3957465 0.75963587 -0.2359771 0.26792443 -0.36105144 -0.056441303
0.069163896 -0.05159342 0.37823883 0.3980927 -0.11084286 -0.0382647 0.80778927 0.08753484
0.818103 -0.12172335 -0.07873267 -0.17498806 0.4050391 0.012359563 -0.02139737 0.34580636
0.2999377 -0.77816933 0.22476846 -0.28852248 -0.60808456 0.28747424 0.1868748 0.08604091
-0.07509528 0.2525521 0.15461108 0.13306801 0.077017345 -0.052082572 0.2813022 0.27058694
0.27737898 0.19649263 0.25640413 0.39328644 0.17109618 -0.089146204 0.1548257 -0.500773
-0.76343644 0.07175757 -0.29391915 0.65319765 -0.67366564 0.046924565 0.13174072 -0.0067774337
0.74091417 -0.00697179 0.14933302 -0.54150254 0.6083749 0.09429318 -0.23784909 0.20326382
-0.13191876 0.9741136 -0.34560463 -0.39676678 0.206976 0.12941265 0.12917937 -0.8755039
-0.4468192 -0.6535215 -0.37322333 0.1269212 -0.26192442 0.39037448 0.33150238 0.5194239
1.0325913 -0.021095071 -0.3483079 0.7918798 -0.102822445 0.45476085 0.7753967 -0.30621064
-0.062091284 0.43497616 -0.0956033 0.17567752 -0.47920468 -0.23201339 -0.6388762 0.22699618
0.0063238367 0.024270784 0.25804365 -0.54864895 0.12142439 0.45609385 0.5613773 0.14531182
-0.033839114 -0.12813978 0.5921738 0.09736414 -0.406102 0.7291987 -0.0013789537 -0.50075275
0.3281451 0.24689393 -0.37364978 0.2802622 -0.58939207 -0.01754942 -0.4570278 0.21516916
-0.4290549 -0.4531473 -0.49709046 0.32590118 -0.49696568 -0.10933012 0.25300172 -0.0077477926
0.24371459 -0.6957383 -0.29747573 0.48550704 0.31246686 0.319678 0.46680802 -0.3145711
0.07212642 -0.76529264 0.5067617 0.7056742 0.34395093 -0.82472783 -0.22753087 -0.36162493
0.35791674 0.49968368 0.4543161 -0.27705085 0.30983093 0.24881722 -0.2515605 0.0965728
0.08451701 -0.33828482 -0.7969521 -0.40112308 0.007929384 -0.7557391 -0.7007384 0.64671093

fc3.bias f4 [4]
00000000: 0b27 273d 688c c4bd 70f1 923d 33fc fb3c
0.04080872 -0.09597093 0.07174957 0.030759906

bn1.weight f4 [128]
00000000: 33b5 943f 9e3e b33f 289b 8d3f 540a e03f
00000010: 3537 633f eccc 563f 1485 893f f548 3b3f
00000020: 5b57 933f 1636 9a3f 0863 363f b1bf 863f
00000030: 3599 5c3f dd4d 4e3f 1334 793f 8059 ac3f
00000040: 569d 743f 12ad 443f 4517 5e3f 76f8 5c3f
00000050: df60 813f 83aa 943f 8942 173f 2b84 243f
00000060: fb33 203f 65de 3b3f c455 7e3f 0627 4e3f
00000070: 0a19 223f a49f 4a3f 2cd5 233f 673f 073f
00000080: 2a09 833f 0731 543f c3d3 263f ca94 863f
00000090: f6ee b23f 340e 673f 6725 8b3f 91a3 463f
000000a0: f738 663f 6cc8 2e3f 6431 c73f ba23 183f
000000b0: 1804 873f 592d 323f 48b8 a63f a949 2c3f
000000c0: a120 703f 4f1b 0d3f 1b1b 8c3f ef33 763f
000000d0: e028 493f 4958 653f 4422 c63f 0890 373f
000000e0: 6a38 803f 91d5 293f 81be 593f e57c 643f
000000f0: f8c6 823f 678a 4a3f f851 1a3f e70e 833f
00000100: 0790 7c3f 8e0c 783f 9248 9a3f 4b38 943f
00000110: c0f7 0f3f 0799 b03f 6fae 2b3f 8438 923f
00000120: bc1f 9b3f 724d 593f 31d5 673f cdf9 2c3f
00000130: 9cf9 513f 1864 8a3f f4b9 093f 5ec9 2c3f
00000140: 8f58 4e3f d3af 583f dc32 153f 0fb6 2a3f
00000150: 878e 663f b00e 813f ea13 2d3f b209 933f
00000160: d81c 833f 918b 253f 0f7e a53f b594 353f
00000170: 2bf7 2b3f 6eee 7f3f de9b 363f 5634 713f
00000180: 0b60 993f bcc6 633f e0c7 4e3f 7c39 823f
00000190: db5c 753f 673e 673f d94a 2c3f 17fd b33f
000001a0: 5167 7c3f e257 463f a9dd 413f ef46 853f
000001b0: 96e3 f93e 9d18 753f 6d41 193f ca52 623f
000001c0: ed71 4e3f 515d 213f e39d 233f 6860 723f
000001d0: 13ea 753f 6a38 2b3f 377e 273f ada3 6a3f
000001e0: 14c7 5f3f e9e5 263f 4494 763f 72a1 403f
000001f0: f7a1 a23f 5c23 5b3f 326e 7c3f 1bf2 3f3f
1.1617798 1.4003484 1.1062975 1.7503152 0.88756114 0.83906436 1.0743737 0.731582
1.1511034 1.2047756 0.7124486 1.052725 0.86171275 0.8058756 0.97345084 1.3464813
0.95552576 0.76826584 0.86754256 0.8631662 1.0107688 1.1614536 0.590859 0.6426417
0.62579316 0.7338622 0.9934962 0.80528295 0.63319457 0.7914984 0.6399715 0.5283112
1.0237172 0.8288731 0.6516687 1.0514157 1.3979175 0.9025605 1.0870789 0.7759333
0.8993067 0.6827457 1.5561948 0.59429514 1.0548124 0.69600445 1.3024988 0.67299896
0.9379979 0.55119795 1.0945772 0.96172994 0.78577995 0.8958784 1.5479207 0.7170415
1.0017216 0.663415 0.8505631 0.89253074 1.021697 0.79117435 0.60281324 1.0238923
0.9865727 0.96894157 1.2053397 1.1579679 0.5623741 1.37967 0.6706304 1.1423497
1.211906 0.848838 0.9055968 0.67568666 0.820215 1.0811796 0.53799367 0.6749476
0.8060388 0.84643286 0.5828073 0.6668405 0.9006123 1.0082607 0.6760851 1.1487334
1.0243177 0.64666086 1.2929095 0.70930034 0.67174023 0.9997319 0.71331584 0.94220483
1.1982435 0.8897512 0.80773735 1.0173793 0.9584481 0.90329593 0.6730171 1.4061612
0.9859515 0.7747785 0.7572885 1.0412272 0.48806447 0.9574068 0.59865457 0.88407576
0.80642587 0.63033015 0.6391279 0.94678354 0.96060294 0.66882956 0.65426964 0.91656
0.87413144 0.65194565 0.96319985 0.75246346 1.2705678 0.8560083 0.98605645 0.749788

bn1.bias f4 [128]
00000000: d9f5 6abd 370a 703e a984 363e bb50 ca3c
00000010: 1731 38bd a591 083c 4b97 923d 0f99 7b3b
00000020: e0e3 2bbe 7e37 3abd 7236 523e e611 0e3d
00000030: 71c6 113e 04e1 f2bd 9792 ae3e 3649 02bd
00000040: 4442 d33d 0bf4 093e c497 543d 3530 18be
00000050: 75f0 ae3d ebfb 5b3e 0223 633e 8bc8 19be
00000060: 8baa ad3d c94d c5bc 8a42 993d c623 49be
00000070: d9bd 17be bda5 b93e 39d1 abbd e927 943e
00000080: 3d86 17be 46cc 943d 813d 1fbc 4db9 49bd
00000090: eafd 2e3e 8329 1ebd 782f edbe fea2 163d
000000a0: bdc7 0d3d 7fd9 24be 12bf 8e3e 9202 063d
000000b0: a69b 06bd 38bf e23a a9ca 0b3e c9e2 903d
000000c0: 83ed 833c 64c2 b83d 4413 ecbc 82df c03d
000000d0: 1b61 c93c 0828 113e f86b a03e f1af 963d
000000e0: 5f87 6c3e 2d96 5e3e 2900 0b3e b156 91bc
000000f0: f83e 333e 843f dbbd 989b 8fbd ce95 aa3e
00000100: 2eb2 9e3d 4e91 cc3d c460 cdbd e5e1 a2be
00000110: f62d 36be c121 813e 4be0 16bd 45a6 33bd
00000120: c19e e03d c259 443e a4a1 adbd 3e8a 853e
00000130: a933 543e 95db 263e 733c 1b3e db96 a0bd
00000140: 468d eabd 02de 8a3e 7213 69be 7c10 ea3c
00000150: d829 083e 3974 4e3d c70f cebc a097 c33d
00000160: 9536 bc3d 864b e4bb 0665 713e 194f 7c3e
00000170: 7105 9b3b b9b4 f139 0d1c 4e3e 8f42 973d
00000180: 233a e43e 4abd 883c 3d33 053e 5d16 1e3b
00000190: 0141 ef3d 9fef 273d ebd0 d53d 360f e5bd
000001a0: 02b0 5c3e 1720 a6bd aa82 d33c 80c5 b63e
000001b0: 0315 0a3e c142 653e 4127 81be 4541 9e3e
000001c0: 371f 1b3e 7357 9abc 3047 d43d 998f 9b3e
000001d0: 418b 25bd 67c4 5b3e f432 84bd afdb 6c3e
000001e0: b81e 323e 4df1 043e 23eb 893d bd18 da3d
000001f0: e296 923d e0d4 0f3e 7e42 25be 8c33 df3c
-0.057363365 0.23441397 0.17824043 0.024696698 -0.04496869 0.008335506 0.07157763 0.003839079
-0.16786146 -0.045463078 0.20528582 0.034685038 0.14235856 -0.118593246 0.34096214 -0.0318081
0.103153735 0.13472001 0.051902547 -0.1486214 0.08541957 0.21482818 0.22181323 -0.15017907
0.08479794 -0.024084942 0.074833944 -0.19642553 -0.14818515 0.3625926 -0.083895154 0.289367
-0.14797302 0.072655246 -0.0097192535 -0.049248982 0.17089048 -0.038613807 -0.46325278 0.036776535
0.034614313 -0.16098593 0.2788015 0.032717295 -0.03286328 0.0017299419 0.13651527 0.07074506
0.016104465 0.09021452 -0.02881778 0.09417631 0.024582436 0.14175427 0.31332374 0.07357777
0.23098515 0.21736975 0.1357428 -0.017741533 0.1750449 -0.10705474 -0.07012099 0.33317417
0.07748829 0.09988652 -0.10028222 -0.3181297 -0.1779097 0.25221065 -0.036834996 -0.04385974
0.1096778 0.19174865 -0.08478096 0.26082033 0.20722832 0.16294701 0.15159778 -0.078412734
-0.11452727 0.27122504 -0.22761324 0.028572313 0.13297212 0.050403807 -0.025154008 0.095504045
0.09190098 -0.006967011 0.23573694 0.24639548 0.0047308733 0.0004610175 0.20127888 0.07385742
0.44575605 0.016691823 0.13007827 0.0024122216 0.116823204 0.041000005 0.104402386 -0.11184542
0.21551517 -0.081115894 0.025819141 0.35697556 0.13484578 0.22388746 -0.2522526 0.30909172
0.15148626 -0.018840527 0.103651404 0.30382994 -0.040416006 0.2146164 -0.06455031 0.23130678
0.17394531 0.12982674 0.06734302 0.1064925 0.07157685 0.14046049 -0.16138646 0.02724626

bn1.running_mean f4 [128]
00000000: 0f79 d13f 96e3 823d 0571 1c3e 5854 903e
00000010: 97a2 0f3f 83c4 b03e ec7a 4e3e 100c 603e
00000020: eafb 033f ce75 a63e 39ab 033e 88af a33e
00000030: b1f3 ff3d 5311 083e 4cde 2b3e 2114 983f
00000040: 6086 ae3e b13e 343e 884e df3c 84de 373f
00000050: c4e5 153f 7dcc c23d 4979 863e bdb1 443d
00000060: 2ad2 c43d 8f62 b53e 1b3e fb3d 2956 c43e
00000070: 94c3 353e 341e a73e a66b a13d 99c8 3d3e
00000080: 4ea2 633e e42a 323e d382 563f deea c13d
00000090: 261b 2c3f 5452 113e 00f0 e93d 85a1 603e
000000a0: 5b42 863e 09c6 0e3f 1814 933d 4eb4 113c
000000b0: a7ef a83e 27ea eb3d 705b 933e cae8 c13d
000000c0: 7700 5b3e 3d49 b33e a145 e03e aa92 883e
000000d0: f60f 3d3f 70f4 083e 68e8 9b3e 8290 893f
000000e0: 48d5 cf3e c801 b73f 6be3 d83e 1e07 a83e
000000f0: ed9b 843e 30d3 953d 0bff 653d 811a 663e
00000100: 63c1 b63d f74a a53d 3cc2 663e 7e95 dc3e
00000110: e108 ff3d 351b e53e 1462 933e b714 ab3d
00000120: c9bf 2c3e 25f7 9f3d 2a80 413f 70eb a73e
00000130: ccc3 263e 90b2 483e 5379 863c 94fa 533d
00000140: d4c9 9c3e ec2f ab3d 164e 323f d8d3 b93d
00000150: f5b6 d93d dc47 0c3e fa04 403f 668a ff3e
00000160: b450 1a3e 41ab 063e 7b84 c53e b6dd c53e
00000170: 7edc 193c cbea 5f3e 0e4f 723c cd37 483e
00000180: 5858 ae3e f9bc ed3d 8e38 3f3e b184 8a3f
00000190: cc73 183e 3160 db3d 2d51 cc3f 4710 423e
000001a0: bb0b 1e3f d63b 153e bde4 b73e 021b c43d
000001b0: 99df bf3e 793a 693f f7de 373e 794b 923e
000001c0: 4c71 f83d ad82 ed3e 8dc8 1a3e 691f 0f3e
000001d0: ca59 d43d 3fc9 303f 34ae 833e 8e0f d63e
000001e0: 8bf0 053f 1809 053e 0b45 193f 217b 713d
000001f0: e1ac 073f 6f56 b93e 9e17 8e3e 3a3d b03e
1.6365069 0.06391065 0.15277489 0.2818935 0.5610747 0.34524927 0.20164078 0.21879601
0.51556265 0.32511753 0.12858285 0.31969857 0.12497652 0.13287859 0.16784018 1.1881143
0.34086895 0.1760204 0.027259126 0.71823907 0.5855372 0.09511659 0.26264408 0.048021067
0.09610398 0.35426757 0.12267705 0.38346985 0.17750388 0.3264023 0.078818604 0.18533553
0.22229883 0.17399174 0.8379337 0.094686255 0.67228925 0.14191562 0.114227295 0.21936615
0.262225 0.5577093 0.07181567 0.008893086 0.3299534 0.115192704 0.287807 0.09468229
0.21386896 0.35016814 0.43803123 0.26674396 0.7385248 0.13374496 0.3045075 1.0747225
0.40592408 1.4297419 0.42361006 0.3281793 0.25900212 0.073156714 0.05615143 0.22471048
0.08923604 0.08070939 0.22535032 0.43082803 0.124528654 0.4474732 0.28785765 0.083535604
0.16870035 0.07810811 0.7558619 0.32796812 0.16285628 0.19599366 0.016415274 0.05175264
0.30622733 0.0835875 0.696504 0.09073609 0.106305994 0.13699287 0.75007594 0.49910277
0.15069848 0.13151266 0.38577637 0.38645715 0.009390948 0.2186691 0.014789356 0.19552536
0.34051776 0.11608309 0.18673918 1.0821744 0.14887923 0.107117064 1.5962273 0.18951522
0.6173665 0.14573607 0.359167 0.09575464 0.3747528 0.9110485 0.17956148 0.28573206
0.12130985 0.4638876 0.15115567 0.13976826 0.103686884 0.6905708 0.25718844 0.41808742
0.52320164 0.1299175 0.59870976 0.058955316 0.5299817 0.36198756 0.27752393 0.34421712

bn1.running_var f4 [128]
00000000: 6472 be3e 7cc6 033d d222 9c3d db2a 293e
00000010: 851a 1d3f 3808 933e 3717 163e 5f44 1c3e
00000020: 4552 163f 162a 383e a2b6 933d f0c6 953e
00000030: 079d 963d 27cb c13d d98d a93d bc10 9c3e
00000040: d699 ad3e 8a52 cf3d 5355 803c 4e68 363f
00000050: 2bb8 1c3f fc02 0c3d 04a3 3d3e f931 da3c
00000060: fc26 813d b03f 863e 6897 ab3d 7c57 c23e
00000070: 311f 0b3e 074c 753e 50fd 363d 96e6 d53d
00000080: d636 663e 3cb4 0e3e c0ea d33e 5d3b 1d3d
00000090: 5d93 263f 022b ea3d 69f9 913d 8b73 153e
000000a0: 4608 723e ca67 8c3e 63a1 183d 0db5 e43b
000000b0: 75f0 883e 7095 a03d c8ad fc3d 1d88 273d
000000c0: 1a5c c83d 3b9a 933e 3d00 2f3e 703d 273e
000000d0: 0c52 093f 7d70 793d 7ec2 163e 2c53 983f
000000e0: e773 ac3e 502a 553e 3957 cd3e 7cf7 a23e
000000f0: 8b97 4a3e 732e 6d3d f674 463d dd24 3e3e
00000100: 73f0 9f3d f516 8b3d df08 533e 5a63 893e
00000110: a911 a43d e6e9 523e 0203 543e c16f 483d
00000120: 6965 d83d 6f89 463d da4f ad3e 07b8 913e
00000130: d3c5 cb3d 679b 083e ad32 513c 49cb 013d
00000140: 4f36 3e3e adee 393d 66bf 2e3f f671 563d
00000150: 4ffc 463d 96f2 d63d d784 4f3f 4194 cb3e
00000160: 1288 b23d 5b39 ad3d f5a3 af3e ebdd a83e
00000170: 6728 8b3b d429 673e 3d60 ee3b 3d3a e83d
00000180: afda 293e 10ec a53d 3cca 9d3d 1851 503f
00000190: ea12 dc3d 9b1a 8e3d ac9a ea3e b29b f63d
000001a0: 9001 ec3e c5bc b63d fbfa e93e b5d9 383d
000001b0: ee8d 973e c714 db3e 7634 df3d 0fcc f23d
000001c0: 4617 973d 0ae5 f23e fddf 883d 5819 bd3d
000001d0: ef04 473d 2566 963e 1087 533e ff04 813e
000001e0: 9061 943e a721 c03d dca6 123f 4502 223d
000001f0: 00e2 c73e db9d 6a3e d374 4a3e e61a 893e
0.37196648 0.03217171 0.07623829 0.16520254 0.6136859 0.28717208 0.14657293 0.15260457
0.58719283 0.17984805 0.07212569 0.2925334 0.07354169 0.09462576 0.082790084 0.30481517
0.3390643 0.10123165 0.015665686 0.71252906 0.6121852 0.034182534 0.18519217 0.026635157
0.06306264 0.26220465 0.08378488 0.3795737 0.13586117 0.23954783 0.04467517 0.104443714
0.22481856 0.13935941 0.41390038 0.03838669 0.6506861 0.11433984 0.07127649 0.14594857
0.23635969 0.27422935 0.037263285 0.0069795907 0.26745954 0.07841003 0.12337834 0.040901292
0.09783192 0.28828606 0.17089935 0.1633203 0.5364082 0.060898293 0.1472263 1.1900382
0.33682176 0.20816922 0.40105608 0.3182944 0.19784372 0.057905626 0.048451386 0.1856875
0.07809534 0.06791488 0.20608853 0.26833612 0.08011181 0.20597038 0.20704272 0.0489347
0.105662175 0.04847091 0.33849984 0.28460714 0.09949841 0.13340531 0.01276843 0.03168801
0.18575405 0.045393635 0.682608 0.052354775 0.048580464 0.10495488 0.8106207 0.39761546
0.087173596 0.08458205 0.34304777 0.3298181 0.0042467597 0.2257455 0.007274656 0.11339233
0.16587327 0.08101666 0.07704589 0.8137374 0.10745795 0.06938668 0.4582113 0.12041415
0.46094942 0.08922724 0.45699295 0.045129497 0.2960047 0.4278929 0.10898678 0.11855327
0.07377486 0.47440368 0.066833474 0.092333496 0.04858869 0.29374805 0.20656991 0.25199124
0.28980684 0.09381419 0.5728586 0.039552946 0.39039612 0.2291178 0.19771127 0.26778334

bn2.weight f4 [128]
00000000: 42eb a53e fa62 ee3e db10 573f d874 563f
00000010: 668c 763f 5e5b ed3e b25d dd3e d8d3 7e3f
00000020: 1189 3d3f e49d 2e3f f82f e73d 58fc e53d
00000030: 05f7 013f 6dbe 153f 8966 0e3f 0867 823d
00000040: c462 423e b16e 0c3f d49e 5c3e e6cb 123f
00000050: 66e6 4b3f e0f3 993d 5095 643d 36d9 313f
00000060: 0696 4a3f d778 333f 103e 7e3f 8080 133d
00000070: e458 303f 859e 6f3f 0801 df3d c05b a73d
00000080: 0ea7 2b3f 407b 793c 409e c03c c0e1 b23d
00000090: 10ad 063d edae 583f 6755 283f a04f 483d
000000a0: 0cd0 a73e ba51 2c3f 500a fe3d 9092 6d3d
000000b0: 742f 483f 044e b53e 0c46 eb3e a4a2 773e
000000c0: d2b5 883e 2893 7f3f 04f6 163e cb7d 133f
000000d0: a0dd 7b3f 035a 323f de98 903e 7024 123f
000000e0: 820c 5c3f 3bc3 263f 8867 1b3e 9ef8 003f
000000f0: 09b5 233f dd74 203f ddb6 153f ce9a 393f
00000100: 28bf 163e fc5c 123e c1d9 6b3f ef3c 763f
00000110: 6bd5 763f 3818 703e 28cf 9d3d e450 ab3e
00000120: 44bb 6f3f 36fb c43e 2aef 783f b046 473e
00000130: 18fb d93e 232d 1c3f 3c9d 923e cc1f 533f
00000140: 5ab5 633f 5276 003f 2e88 f93e 1ead 513f
00000150: 6dd3 6b3f 307e 323d 5eaa 5f3f d458 413e
00000160: a458 3d3e 409b 443e f9d9 533f a0b5 b93c
00000170: 3848 1e3f 292a 233f b08f 0a3f 9897 3e3f
00000180: 7a05 ea3e 3039 5a3d da04 833e 8dd1 5a3f
00000190: 80b1 b53c 3ecb bd3e 4f3a 7b3f bcc9 453e
000001a0: 3434 f93e db9a 1d3f 8484 583f 4abd 273f
000001b0: a63d b13e 1731 053f 7d29 153f 4ecb 603f
000001c0: 081e 3e3e da2b 3c3f 1925 6b3f 1ace ae3e
000001d0: 9b26 183f 6267 d53e 8437 8c3e dcd1 773e
000001e0: 6c42 2a3e f00e 893e 063d d73e 20fb 6e3e
000001f0: 34fc 733e ca90 ea3e 7d23 1d3f 9556 633f
0.3240605 0.46559888 0.84010094 0.8377204 0.9630798 0.4635877 0.43235546 0.99542
0.7403727 0.6820967 0.11288446 0.112297714 0.50767547 0.5849369 0.55625206 0.06367308
0.18982989 0.548564 0.21544963 0.57342374 0.79648435 0.075172186 0.055806458 0.6947206
0.7913517 0.7010626 0.9931345 0.03601122 0.68885636 0.93601257 0.108888686 0.08171797
0.6705178 0.015227139 0.02351296 0.08734465 0.03287989 0.84641916 0.65755314 0.04890406
0.32775915 0.67312205 0.12404311 0.0580011 0.7819741 0.35411084 0.4595188 0.24183136
0.26701218 0.9983392 0.14742285 0.5761382 0.9838505 0.69668597 0.28241628 0.5708685
0.85956585 0.6514165 0.15176213 0.5037936 0.6394811 0.6267832 0.5848215 0.7250184
0.14721358 0.14293283 0.9212914 0.9618673 0.964194 0.23446739 0.077055275 0.33460152
0.9364512 0.3847291 0.97239935 0.19460559 0.42574382 0.61006373 0.28635585 0.82470393
0.88948596 0.5018054 0.4873671 0.8190478 0.92119485 0.043577373 0.87369335 0.18881541
0.18490845 0.19199848 0.82754475 0.022669613 0.6182895 0.63736206 0.541255 0.74450064
0.45707303 0.053277194 0.2558964 0.85476 0.022179365 0.37069124 0.98135847 0.19315237
0.4867264 0.61564416 0.845772 0.6552321 0.34617347 0.5202803 0.5826643 0.8781022
0.18566144 0.7350441 0.9185348 0.34141618 0.5943391 0.41680437 0.27386105 0.24201149
0.166269 0.2676921 0.42038745 0.23337984 0.23826677 0.4581359 0.61382276 0.8880399

bn2.bias f4 [128]
00000000: 0000 0000 0000 0000 0000 0000 0000 0000
00000010: 0000 0000 0000 0000 0000 0000 0000 0000
00000020: 0000 0000 0000 0000 0000 0000 0000 0000
00000030: 0000 0000 0000 0000 0000 0000 0000 0000
00000040: 0000 0000 0000 0000 0000 0000 0000 0000
00000050: 0000 0000 0000 0000 0000 0000 0000 0000
00000060: 0000 0000 0000 0000 0000 0000 0000 0000
00000070: 0000 0000 0000 0000 0000 0000 0000 0000
00000080: 0000 0000 0000 0000 0000 0000 0000 0000
00000090: 0000 0000 0000 0000 0000 0000 0000 0000
000000a0: 0000 0000 0000 0000 0000 0000 0000 0000
000000b0: 0000 0000 0000 0000 0000 0000 0000 0000
000000c0: 0000 0000 0000 0000 0000 0000 0000 0000
000000d0: 0000 0000 0000 0000 0000 0000 0000 0000
000000e0: 0000 0000 0000 0000 0000 0000 0000 0000
000000f0: 0000 0000 0000 0000 0000 0000 0000 0000
00000100: 0000 0000 0000 0000 0000 0000 0000 0000
00000110: 0000 0000 0000 0000 0000 0000 0000 0000
00000120: 0000 0000 0000 0000 0000 0000 0000 0000
00000130: 0000 0000 0000 0000 0000 0000 0000 0000
00000140: 0000 0000 0000 0000 0000 0000 0000 0000
00000150: 0000 0000 0000 0000 0000 0000 0000 0000
00000160: 0000 0000 0000 0000 0000 0000 0000 0000
00000170: 0000 0000 0000 0000 0000 0000 0000 0000
00000180: 0000 0000 0000 0000 0000 0000 0000 0000
00000190: 0000 0000 0000 0000 0000 0000 0000 0000
000001a0: 0000 0000 0000 0000 0000 0000 0000 0000
000001b0: 0000 0000 0000 0000 0000 0000 0000 0000
000001c0: 0000 0000 0000 0000 0000 0000 0000 0000
000001d0: 0000 0000 0000 0000 0000 0000 0000 0000
000001e0: 0000 0000 0000 0000 0000 0000 0000 0000
000001f0: 0000 0000 0000 0000 0000 0000 0000 0000
0.0 0.0 0.0 0.0 0.0 0.0 0.0 0.0
0.0 0.0 0.0 0.0 0.0 0.0 0.0 0.0
0.0 0.0 0.0 0.0 0.0 0.0 0.0 0.0
0.0 0.0 0.0 0.0 0.0 0.0 0.0 0.0
0.0 0.0 0.0 0.0 0.0 0.0 0.0 0.0
0.0 0.0 0.0 0.0 0.0 0.0 0.0 0.0
0.0 0.0 0.0 0.0 0.0 0.0 0.0 0.0
0.0 0.0 0.0 0.0 0.0 0.0 0.0 0.0
0.0 0.0 0.0 0.0 0.0 0.0 0.0 0.0
0.0 0.0 0.0 0.0 0.0 0.0 0.0 0.0
0.0 0.0 0.0 0.0 0.0 0.0 0.0 0.0
0.0 0.0 0.0 0.0 0.0 0.0 0.0 0.0
0.0 0.0 0.0 0.0 0.0 0.0 0.0 0.0
0.0 0.0 0.0 0.0 0.0 0.0 0.0 0.0
0.0 0.0 0.0 0.0 0.0 0.0 0.0 0.0
0.0 0.0 0.0 0.0 0.0 0.0 0.0 0.0

bn2.running_mean f4 [128]
00000000: 0000 0000 0000 0000 0000 0000 0000 0000
00000010: 0000 0000 0000 0000 0000 0000 0000 0000
00000020: 0000 0000 0000 0000 0000 0000 0000 0000
00000030: 0000 0000 0000 0000 0000 0000 0000 0000
00000040: 0000 0000 0000 0000 0000 0000 0000 0000
00000050: 0000 0000 0000 0000 0000 0000 0000 0000
00000060: 0000 0000 0000 0000 0000 0000 0000 0000
00000070: 0000 0000 0000 0000 0000 0000 0000 0000
00000080: 0000 0000 0000 0000 0000 0000 0000 0000
00000090: 0000 0000 0000 0000 0000 0000 0000 0000
000000a0: 0000 0000 0000 0000 0000 0000 0000 0000
000000b0: 0000 0000 0000 0000 0000 0000 0000 0000
000000c0: 0000 0000 0000 0000 0000 0000 0000 0000
000000d0: 0000 0000 0000 0000 0000 0000 0000 0000
000000e0: 0000 0000 0000 0000 0000 0000 0000 0000
000000f0: 0000 0000 0000 0000 0000 0000 0000 0000
00000100: 0000 0000 0000 0000 0000 0000 0000 0000
00000110: 0000 0000 0000 0000 0000 0000 0000 0000
00000120: 0000 0000 0000 0000 0000 0000 0000 0000
00000130: 0000 0000 0000 0000 0000 0000 0000 0000
00000140: 0000 0000 0000 0000 0000 0000 0000 0000
00000150: 0000 0000 0000 0000 0000 0000 0000 0000
00000160: 0000 0000 0000 0000 0000 0000 0000 0000
00000170: 0000 0000 0000 0000 0000 0000 0000 0000
00000180: 0000 0000 0000 0000 0000 0000 0000 0000
00000190: 0000 0000 0000 0000 0000 0000 0000 0000
000001a0: 0000 0000 0000 0000 0000 0000 0000 0000
000001b0: 0000 0000 0000 0000 0000 0000 0000 0000
000001c0: 0000 0000 0000 0000 0000 0000 0000 0000
000001d0: 0000 0000 0000 0000 0000 0000 0000 0000
000001e0: 0000 0000 0000 0000 0000 0000 0000 0000
000001f0: 0000 0000 0000 0000 0000 0000 0000 0000
0.0 0.0 0.0 0.0 0.0 0.0 0.0 0.0
0.0 0.0 0.0 0.0 0.0 0.0 0.0 0.0
0.0 0.0 0.0 0.0 0.0 0.0 0.0 0.0
0.0 0.0 0.0 0.0 0.0 0.0 0.0 0.0
0.0 0.0 0.0 0.0 0.0 0.0 0.0 0.0
0.0 0.0 0.0 0.0 0.0 0.0 0.0 0.0
0.0 0.0 0.0 0.0 0.0 0.0 0.0 0.0
0.0 0.0 0.0 0.0 0.0 0.0 0.0 0.0
0.0 0.0 0.0 0.0 0.0 0.0 0.0 0.0
0.0 0.0 0.0 0.0 0.0 0.0 0.0 0.0
0.0 0.0 0.0 0.0 0.0 0.0 0.0 0.0
0.0 0.0 0.0 0.0 0.0 0.0 0.0 0.0
0.0 0.0 0.0 0.0 0.0 0.0 0.0 0.0
0.0 0.0 0.0 0.0 0.0 0.0 0.0 0.0
0.0 0.0 0.0 0.0 0.0 0.0 0.0 0.0
0.0 0.0 0.0 0.0 0.0 0.0 0.0 0.0

bn2.running_var f4 [128]
00000000: 0000 803f 0000 803f 0000 803f 0000 803f
00000010: 0000 803f 0000 803f 0000 803f 0000 803f
00000020: 0000 803f 0000 803f 0000 803f 0000 803f
00000030: 0000 803f 0000 803f 0000 803f 0000 803f
00000040: 0000 803f 0000 803f 0000 803f 0000 803f
00000050: 0000 803f 0000 803f 0000 803f 0000 803f
00000060: 0000 803f 0000 803f 0000 803f 0000 803f
00000070: 0000 803f 0000 803f 0000 803f 0000 803f
00000080: 0000 803f 0000 803f 0000 803f 0000 803f
00000090: 0000 803f 0000 803f 0000 803f 0000 803f
000000a0: 0000 803f 0000 803f 0000 803f 0000 803f
000000b0: 0000 803f 0000 803f 0000 803f 0000 803f
000000c0: 0000 803f 0000 803f 0000 803f 0000 803f
000000d0: 0000 803f 0000 803f 0000 803f 0000 803f
000000e0: 0000 803f 0000 803f 0000 803f 0000 803f
000000f0: 0000 803f 0000 803f 0000 803f 0000 803f
00000100: 0000 803f 0000 803f 0000 803f 0000 803f
00000110: 0000 803f 0000 803f 0000 803f 0000 803f
00000120: 0000 803f 0000 803f 0000 803f 0000 803f
00000130: 0000 803f 0000 803f 0000 803f 0000 803f
00000140: 0000 803f 0000 803f 0000 803f 0000 803f
00000150: 0000 803f 0000 803f 0000 803f 0000 803f
00000160: 0000 803f 0000 803f 0000 803f 0000 803f
00000170: 0000 803f 0000 803f 0000 803f 0000 803f
00000180: 0000 803f 0000 803f 0000 803f 0000 803f
00000190: 0000 803f 0000 803f 0000 803f 0000 803f
000001a0: 0000 803f 0000 803f 0000 803f 0000 803f
000001b0: 0000 803f 0000 803f 0000 803f 0000 803f
000001c0: 0000 803f 0000 803f 0000 803f 0000 803f
000001d0: 0000 803f 0000 803f 0000 803f 0000 803f
000001e0: 0000 803f 0000 803f 0000 803f 0000 803f
000001f0: 0000 803f 0000 803f 0000 803f 0000 803f
1.0 1.0 1.0 1.0 1.0 1.0 1.0 1.0
1.0 1.0 1.0 1.0 1.0 1.0 1.0 1.0
1.0 1.0 1.0 1.0 1.0 1.0 1.0 1.0
1.0 1.0 1.0 1.0 1.0 1.0 1.0 1.0
1.0 1.0 1.0 1.0 1.0 1.0 1.0 1.0
1.0 1.0 1.0 1.0 1.0 1.0 1.0 1.0
1.0 1.0 1.0 1.0 1.0 1.0 1.0 1.0
1.0 1.0 1.0 1.0 1.0 1.0 1.0 1.0
1.0 1.0 1.0 1.0 1.0 1.0 1.0 1.0
1.0 1.0 1.0 1.0 1.0 1.0 1.0 1.0
1.0 1.0 1.0 1.0 1.0 1.0 1.0 1.0
1.0 1.0 1.0 1.0 1.0 1.0 1.0 1.0
1.0 1.0 1.0 1.0 1.0 1.0 1.0 1.0
1.0 1.0 1.0 1.0 1.0 1.0 1.0 1.0
1.0 1.0 1.0 1.0 1.0 1.0 1.0 1.0
1.0 1.0 1.0 1.0 1.0 1.0 1.0 1.0
