checkpoint_critic.pth (torch_old, 91983 bytes, 13 tensors)

fcs1.weight f4 [128, 33]
-0.06816066 -0.22717355 0.09418547 -0.38043568 -0.02456265 -0.094561756 0.1422673 -0.070433564
0.1821333 -0.031351842 0.032129157 0.006522223 0.01330469 0.013506196 0.14327961 0.029002687
0.18808058 0.24347574 0.11741702 0.50333196 0.07555841 -0.05917191 0.017578151 -0.01299226
-0.048370775 -0.11966631 0.03705044 -0.0835423 -0.06271408 0.03464417 0.048234485 -0.06569369
0.065363884 0.036698874 -0.01624004 0.050802436 0.004676203 -0.18642649 0.023866393 -0.061865613
0.0016908386 0.01803375 -0.008443222 -0.0035700654 0.0012839577 0.0053916587 0.0059671006 0.0025012577
-0.019071288 0.048645735 0.025766712 0.14878987 0.061983027 -0.0042863847 0.002435526 0.0019624503
0.0046649454 -0.00012964997 0.005714988 0.0027146372 0.09559349 0.08039394 0.034916304 -0.011387587
0.042836316 -1.1912133 0.2056168 0.11854834 -0.055788003 -0.085896336 -0.13484274 -0.12174693
-0.07210347 0.03383903 -0.027134644 -0.021559304 0.017011473 0.01870018 0.013650298 -0.25810057
-0.10053339 0.06061665 0.035101827 -0.16663952 0.019470459 -0.020750623 -0.009479673 -0.0005635939
-0.006797507 -0.02460211 -0.048493836 0.00093407405 0.14478946 0.0022360235 -0.013450206 0.04856404
0.014508525 0.0849245 -0.030314237 0.04103758 -0.028046686 -0.18937157 0.105861194 -0.059367098
-0.16626827 -0.33655187 -0.09023553 0.08153732 -0.20717624 0.005907352 -0.002752025 -0.06345032
-0.07858696 0.0506155 0.1354615 0.01108405 -0.032107715 -0.04455628 -0.08962651 0.026565373
-0.010250785 -0.01743205 -0.035339016 0.0520272 0.108815975 0.10867691 0.19509816 0.07292939
0.0046528876 -0.110990636 0.059851326 0.5990483 -0.011964724 -0.09616437 -0.093094446 0.11754751
0.2661189 -0.14458326 -0.4605174 0.042567134 0.13255022 -0.14301437 0.049426515 -0.012578194
0.060047645 0.06265436 0.061223548 0.029037533 0.306368 -0.03998864 -0.30824912 0.10430636
-0.01733906 0.0064751343 -0.011474465 0.114236705 -0.017604057 0.018169161 0.038027495 0.29977003
0.18179557 -0.06728158 -0.2753329 0.08646735 0.06465135 -0.0507525 -0.010131235 0.012869477
0.7052464 -0.09869573 0.3066876 0.037650943 0.057682827 0.18153009 -0.0692516 -0.06410226
0.0011778122 -0.014954527 0.09635603 0.009296947 0.017590927 -0.10517531 0.035308365 0.27875125
-0.23114395 -0.00037116284 0.003181139 0.03693993 0.08093864 0.035547573 0.025254065 -0.03862859
0.14429386 -0.01084082 -0.045375295 -0.047160234 -0.016725384 -0.4927316 -0.09191997 0.042415313
0.008388136 -0.33176902 0.07103229 -0.090702645 0.23469867 -0.026325427 -0.017301781 0.012046372
-0.058193583 0.032860987 0.0025196823 0.044912472 -0.03390243 0.009666 -0.33789816 0.15240128
0.54772997 -0.29261714 0.016086604 -0.029941391 -0.02727142 -0.007612836 0.0059156967 0.016926654
-0.08935492 0.15966736 0.16830093 0.08814252 -0.03407163 0.05411326 -0.20069252 -0.08125508
0.10972325 0.115815885 -0.10165786 0.14147398 -0.5913633 0.068987936 -0.013883543 -0.09259401
-0.022439623 -0.01495618 0.015209422 0.018848212 0.04153588 -0.055484228 -0.10685275 -0.29616946
0.52008826 0.04875314 0.15195261 0.0046874676 0.0023290322 -0.013374976 0.010130898 0.008749735
00000000: d197 8bbd 2fa0 68be 50e4 c03d 77c8 c2be
00000010: 9c37 c9bc 98a9 c1bd 85ae 113e 793f 90bd
00000020: 2781 3a3e ca6a 00bd dd99 033d 5fb8 d53b
00000030: eafb 593c 1849 5d3c e4b7 123e 0b97 ed3c
00000040: 3298 403e b451 793e 5678 f03d 5dda 003f
00000050: 5ebe 9a3d 3f5e 72bd 0e00 903c 7ddd 54bc
00000060: 6f20 46bd 9c13 f5bd 34c2 173d 3a18 abbd
00000070: 3d70 80bd 0ce7 0d3d 8691 453d 6a8a 86bd
00000080: 80dd 853d 8f51 163d d509 85bc 3716 503d
00000090: d53a 993b 96e6 3ebe 7483 c33c cc66 7dbd
000000a0: 219f dd3a 84bb 933c 7155 0abc c2f7 69bb
000000b0: 794a a83a 83ac b03b ab87 c33b 24ec 233b
000000c0: 643b 9cbc c040 473d b614 d33c 5f5c 183e
000000d0: eae1 7d3d cd74 8cbb 599d 1f3b 749c 003b
000000e0: 66dc 983b a6f2 07b9 cb44 bb3b 0ee8 313b
000000f0: 85c6 c33d 94a5 a43d 6604 0f3d 0093 3abc
00000100: 2275 2f3d ad79 98bf 368d 523e 79c9 f23d
00000110: f681 64bd 6bea afbd 3714 0abe 7456 f9bd
00000120: fcaa 93bd cb9a 0a3d 7949 debc 239d b0bc
00000130: a55b 8b3c 1f31 993c 80a5 5f3c c225 84be
00000140: 73e4 cdbd 2a49 783d efc6 0f3d 8da3 2abe
00000150: 8380 9f3c 36fd a9bc a150 1bbc 25be 13ba
00000160: 9fbd debb 5d8a c9bc 79a1 46bd a6dc 743a
00000170: b043 143e 408a 123b 415e 5cbc 16eb 463d
00000180: 2ab5 6d3c e5ec ad3d 9055 f8bc 0617 283d
00000190: 2ac2 e5bc 9fea 41be c1cd d83d ea2a 73bd
000001a0: 3b42 2abe 8750 acbe 68cd b8bd 0afd a63d
000001b0: 0226 54be 7692 c13b 515b 34bb 3ef2 81bd
000001c0: 33f2 a0bd 3352 4f3d 6bb6 0a3e e099 353c
000001d0: 6183 03bd a580 36bd 1b8e b7bd a09f d93c
000001e0: e9f2 27bc a9cd 8ebc a5bf 10bd 791a 553d
000001f0: e9da de3d 0092 de3d d0c7 473e 015c 953d
00000200: 4077 983b 0f4f e3bd aa26 753d 3b5b 193f
00000210: b107 44bc d3f1 c4bd 4da8 bebd c0bc f03d
00000220: bd40 883e a20d 14be f0c8 ebbe e05a 2e3d
00000230: 3fbb 073e 5c72 12be 7573 4a3d c514 4ebc
00000240: 85f4 753d ee50 803d 8bc5 7a3d 1fe0 ed3c
00000250: 44dc 9c3e 21cb 23bd d4d2 9dbe 939e d53d
00000260: a50a 8ebc 5d2d d43b 65ff 3bbc eff4 e93d
00000270: 6236 90bc 7ed7 943c b8c2 1b3d 757b 993e
00000280: 9e28 3a3e edca 89bd 6ff8 8cbe cb15 b13d
00000290: ed67 843d dae1 4fbd 7bfd 25bc 80da 523c
000002a0: 078b 343f fd20 cabd 2806 9d3e e037 1a3d
000002b0: d444 6c3d 06e3 393e c8d3 8dbd 0c48 83bd
000002c0: d260 9a3a d503 75bc 4f56 c53d 3952 183c
000002d0: d91a 903c 2766 d7bd 819f 103d 7cb8 8e3e
000002e0: 00b1 6cbe a298 c2b9 a87a 503b 534e 173d
000002f0: 28c3 a53d 559a 113d 9de1 ce3c 0339 1ebd
00000300: c5c1 133e b29d 31bc 72db 39bd 172b 41bd
00000310: ac03 89bc 5147 fcbe 8a40 bcbd aebb 2d3d
00000320: 646e 093c a1dd a9be 6179 913d 4fc2 b9bd
00000330: d954 703e 6ca8 d7bc 77bc 8dbc 255e 453c
00000340: 655c 6ebd 3e99 063d 4121 253b 24f6 373d
00000350: 46dd 0abd 245e 1e3c fd00 adbe 150f 1c3e
00000360: 0838 0c3f ead1 95be 0ec8 833c a647 f5bc
00000370: 5068 dfbc 1975 f9bb 76d8 c13b c4a9 8a3c
00000380: b6ff b6bd d77f 233e 1457 2c3e 1184 b43d
00000390: b28e 0bbd dea5 5d3d 5782 4dbe 1069 a6bd
000003a0: 95b6 e03d e130 ed3d ff31 d0bd 8ede 103e
000003b0: 9663 17bf 8c49 8d3d cd77 63bc eea1 bdbd
000003c0: 4dd3 b7bc c40a 75bc f130 793c 9167 9a3c
000003d0: 8721 2a3d 6e43 63bd 9dd5 dabd 86a3 97be
000003e0: 8124 053f 5fb1 473d 7799 1b3e 5499 993b
000003f0: ada2 183b b722 5bbc 11fc 253c 0c5b 0f3c

fcs1.bias f4 [128]
-0.0008853019 -0.16630699 -0.092002206 -0.07872615 -0.26942715 -0.11902119 -0.16488905 -0.28501114
-0.18161747 -0.23398417 -0.018378602 0.040481173 -0.15838541 -0.29211888 -0.11989322 0.20308402
0.20711562 -0.1940058 -0.20656662 -0.14307438 -0.09276796 0.014622684 -0.34332103 0.13232766
-0.14509359 0.044422276 -0.09380803 -0.031600602 0.011694583 0.032059085 -0.030225636 -0.1383447
-0.1523706 -0.19896983 -0.18109024 -0.12570414 -0.11019651 -0.21384317 -0.12655404 -0.060412157
0.18668598 -0.021538885 -0.35612413 -0.06433899 -0.035683468 0.030359514 -0.024020154 -0.0101501085
-0.049759142 0.006954131 -0.032364 -0.13793251 0.022183778 -0.13626346 0.027160922 -0.12703054
-0.047792725 0.013052198 -0.07983786 -0.26710168 -0.09053051 0.08838504 -0.058797646 -0.29409218
-0.07885684 -0.045464046 -0.1425828 0.038304213 -0.07100217 -0.024577875 -0.070878215 0.18128727
0.048696656 0.019865792 -0.17551653 0.025407387 -0.14381234 -0.12428751 -0.12928589 0.10112074
-0.06695457 -0.083756015 -0.045874346 -0.10660775 -0.0095055625 0.07805218 0.077529445 -0.20499973
0.11810017 -0.04669579 -0.03534243 -0.057343386 -0.24229343 0.12983254 -0.109859206 -0.083524235
-0.4419633 -0.061904527 -0.32111314 -0.12842745 -0.32941982 -0.014226448 -0.07452879 -0.1866273
-0.1730391 0.04574913 0.0069628786 0.065724745 0.19477072 -0.08939134 0.025195772 -0.33730885
-0.037830092 -0.20009114 -0.15339431 -0.12889718 -0.12674911 -0.085787565 -0.06109284 -0.17874035
0.034905598 -0.054636516 -0.17643395 -0.16879444 -0.0812822 -0.14867055 -0.25813508 0.010506128
00000000: 9b13 68ba 614c 2abe a76b bcbd 2d3b a1bd
00000010: 5bf2 89be 62c1 f3bd add8 28be fbec 91be
00000020: eef9 39be 8c99 6fbe b98e 96bc 96cf 253d
00000030: c92f 22be 9b90 95be 948a f5bd 42f5 4f3e
00000040: 1e16 543e 75a9 46be 3386 53be 1782 12be
00000050: 21fd bdbd fb93 6f3c c6c7 afbe e780 073e
00000060: 6a93 14be 22f4 353d 6d1e c0bd a26f 01bd
00000070: a39a 3f3c 6350 033d c19b f7bc 3caa 0dbe
00000080: 0a07 1cbe bfbe 4bbe b86f 39be 96b8 00be
00000090: b5ae e1bd b4f9 5abe 6297 01be bd72 77bd
000000a0: 9c2a 3f3e 5172 b0bc e755 b6be 29c4 83bd
000000b0: d428 12bd 84b4 f83c eac5 c4bc a44c 26bc
000000c0: 3ed0 4bbd 7bdf e33b 1d90 04bd 2e3e 0dbe
000000d0: c1ba b53c a688 0bbe 9580 de3c 4b14 02be
000000e0: 4ec2 43bd e3d8 553c 0882 a3bd 8dc1 88be
000000f0: 0f68 b9bd 3703 b53d cdd5 70bd 4093 96be
00000100: b27f a1bd 8238 3abd 3a01 12be e1e4 1c3d
00000110: 9669 91bd 8a57 c9bc 9928 91bd 5fa3 393e
00000120: 2576 473d 96bd a23c 9bba 33be 2723 d03c
00000130: 8b43 13be 738a febd 8563 04be 6418 cf3d
00000140: 7a1f 89bd 4688 abbd bde6 3bbd 2a55 dabd
00000150: 38bd 1bbc d2d9 9f3d c2c7 9e3d 73eb 51be
00000160: 80de f13d 1644 3fbd 39c3 10bd e6e0 6abd
00000170: c51b 78be d2f2 043e ddfd e0bd c10e abbd
00000180: 0349 e2be 9a8f 7dbd f168 a4be 7c82 03be
00000190: b7a9 a8be 0c16 69bc 8da2 98bd 3a1b 3fbe
000001a0: 2931 31be 7163 3b3d dc28 e43b b29a 863d
000001b0: fa71 473e cf12 b7bd 5d67 ce3c bfb3 acbe
000001c0: baf3 1abd b1e4 4cbe 6613 1dbe 9ffd 03be
000001d0: 85ca 01be 64b1 afbd 7c3c 7abd b607 37be
000001e0: 2cf9 0e3d 8aca 5fbd 1aab 34be 73d8 2cbe
000001f0: 4877 a6bd 183d 18be 482a 84be e521 2c3c

fc2.weight f4 [128, 132]
0.13591208 -0.22822085 -0.10068976 -0.021033159 -0.058902737 0.0020982095 -0.019595891 0.056091137
-0.0023699875 0.03363724 0.015356176 -0.0256271 -0.11993753 0.1034644 -0.036020234 -0.25414634
-0.1605129 -0.044286933 -0.10445622 0.13926165 -0.012318824 0.09189233 -0.38451698 -0.13548484
0.3472072 -0.18146293 -0.06486493 -0.14682071 0.05063303 0.053697273 -0.3458106 -0.05398183
0.12715624 -0.07763673 -0.090617135 -0.111976236 -0.37671864 -0.109942794 -0.05111032 -0.10311386
0.0022349125 0.12781426 -0.06520663 -5.232529e-05 0.007863689 -0.14403325 -0.028162694 0.074386895
-0.09423594 0.06484252 -0.036292218 -0.13558003 -0.068460055 -0.012810965 -0.038952194 0.10848369
-0.08984355 0.032170407 0.05210328 0.024505218 0.0091368435 0.1528781 0.16081198 -0.16737916
0.18287367 -0.02573292 -0.011475258 -0.05454652 0.087047264 -0.060614683 0.039592993 -0.17572437
-0.053110596 -0.12529446 0.115683444 0.08245582 -0.059404157 -0.18687046 0.084050626 0.07463198
-0.08200033 0.044614837 0.12744255 0.08663578 0.013029729 0.04287327 -0.029577944 -0.06515165
-0.17362975 -0.021215001 -0.025742473 0.006167493 -0.12225066 0.10213032 0.025178004 -0.06604673
0.027919844 -0.14825286 -0.35766783 0.005976569 0.020193206 0.12664686 0.05129578 -0.51657677
0.10539401 -0.1716771 0.10607717 -0.01849924 -0.08326017 -0.083178654 -0.13316998 -0.0925415
-0.2958256 -0.012599656 0.084700465 -0.022711487 0.01299256 -0.000109728164 -0.04815125 0.015889043
-0.09448747 0.10926642 -0.005767556 0.049177498 -0.004924497 -0.043669436 0.0030676678 -0.09593777
0.0119357705 0.0022053355 -0.014379249 0.015588336 0.06350893 0.017848346 -0.06834292 -0.31681326
-0.094389506 0.07540705 0.10255908 0.034983348 0.038250066 -0.1286192 0.02250455 -0.040056333
0.11223757 -0.06351114 -0.0018770898 -0.02049927 -0.015168793 -0.1129749 0.041384935 -0.1313096
0.0557073 -0.17475846 -0.008656403 0.02879675 -0.010564724 -0.16095361 -0.23631354 -0.053276572
-0.05709138 -0.06276782 -0.09051581 -0.11315692 0.06897539 0.017325226 -0.045128662 0.06371165
-0.2071408 -0.107816935 -0.18487914 0.031957008 -0.004145958 0.1069618 -0.027792875 0.20444503
-0.013366568 -0.066509895 -0.11832118 0.013863088 0.01506031 -0.24980554 -0.07586893 0.0501462
-0.03782837 -0.15706638 0.17401586 -0.037086684 0.04535299 0.08423331 -0.13935594 -0.062341753
-0.062888056 -0.14125505 0.15165414 0.033134885 0.056811787 -0.049513984 0.23177609 -0.10934609
-0.010111979 0.063014925 0.088675015 0.030207675 -0.011646669 -0.15675022 -0.051407013 -0.041231062
-0.034146022 -0.0355793 0.04429203 -0.06829687 -0.03523851 -0.008545237 -0.113989376 0.00034968153
-0.11663219 -0.16845785 -0.049984112 -0.037788376 -0.08464079 -0.036016338 -0.013027349 -0.02625657
0.12625508 -0.12640001 0.055246834 -0.18833669 -0.15896961 0.03501556 -0.053013064 -0.231475
-0.19832447 0.06951218 -0.094947055 -0.209505 0.08580472 0.04005024 0.054065954 -0.027470434
0.034458976 0.055236664 -0.050349858 -0.19515091 0.05605848 -0.044222977 0.015849872 -0.064706825
0.059258364 0.053007886 -0.036732506 0.011944753 -0.20606788 0.1671661 -0.1311642 -0.15424798
00000000: 892c 0b3e bab2 69be 6f36 cebd bb4d acbc
00000010: ff43 71bd 1d82 093b 9087 a0bc d2bf 653d
00000020: cb51 1bbb 34c7 093d 7898 7b3c edef d1bc
00000030: cfa1 f5bd 25e5 d33d f489 13bd 781f 82be
00000040: 7e5d 24be 3766 35bd 25ed d5bd 9b9a 0e3e
00000050: e5d4 49bc 0c32 bc3d 69df c4be 8abc 0abe
00000060: 24c5 b13e 6bd1 39be e8d7 84bd 2b58 16be
00000070: 9464 4f3d acf1 5b3d 160e b1be 0d1c 5dbd
00000080: 3f35 023e 0200 9fbd 7a95 b9bd cc53 e5bd
00000090: 44e1 c0be b029 e1bd 0e59 51bd 5c2d d3bd
000000a0: 9c77 123b bee1 023e 0e8b 85bd da77 5bb8
000000b0: b4d6 003c 747d 13be 73b5 e6bc 2858 983d
000000c0: c6fe c0bd 28cc 843d 26a7 14bd 7ed5 0abe
000000d0: c934 8cbd 15e5 51bc 568c 1fbd b22c de3d
000000e0: e5ff b7bd 1ec5 033d 406a 553d 2bbf c83c
000000f0: b3b2 153c 148c 1c3e e5ab 243e 7165 2bbe
00000100: 3c43 3b3e d8cd d2bc b802 3cbc 2c6c 5fbd
00000110: d645 b23d 1a47 78bd 432c 223d 17f1 33be
00000120: 7f8a 59bd 314d 00be 71eb ec3d 99de a83d
00000130: c651 73bd f85a 3fbe bc22 ac3d a7d8 983d
00000140: caef a7bd 0cbe 363d 4d80 023e 1a6e b13d
00000150: a57a 553c e29b 2f3d 724d f2bc 3a6e 85bd
00000160: ffcb 31be 15cb adbc e1e1 d2bc ae18 ca3b
00000170: 8e5e fabd b429 d13d 1a42 ce3c 8243 87bd
00000180: 28b8 e43c 99cf 17be 3d20 b7be 18d7 c33b
00000190: 396c a53c b7af 013e 861b 523d 603e 04bf
000001a0: d1d8 d73d 1fcc 2fbe fd3e d93d b88b 97bc
000001b0: 4f84 aabd 9259 aabd b65d 08be 6686 bdbd
000001c0: 7476 97be ca6e 4ebc 7077 ad3d 710d babc
000001d0: bfde 543c dc1d e6b8 3f3a 45bd bd29 823c
000001e0: a682 c1bd 13c7 df3d c4fd bcbb 586e 493d
000001f0: ad5d a1bb b9de 32bd ed0a 493b 067b c4bd
00000200: 408e 433c 6487 103b f196 6bbc 3866 7f3c
00000210: f810 823d b236 923c 5ff7 8bbd 5935 a2be
00000220: 494f c1bd 036f 9a3d 7f0a d23d b34a 0f3d
00000230: 1aac 1c3d c0b4 03be 765b b83c 1c12 24bd
00000240: d0dc e53d 2112 82bd af08 f6ba 16ee a7bc
00000250: 8786 78bc 625f e7bd 4083 293d 0676 06be
00000260: 562d 643d e2f3 32be 96d3 0dbc 29e7 eb3c
00000270: aa17 2dbc 06d1 24be 2dfc 71be 8938 5abd
00000280: a7d8 69bd 6a8c 80bd 5a60 b9bd d1be e7bd
00000290: f842 8d3d a2ed 8d3c d5d8 38bd 417b 823d
000002a0: b81c 54be 20cf dcbd f550 3dbe 5ae5 023d
000002b0: d1da 87bb ca0e db3d e2ad e3bc 0a5a 513e
000002c0: 73ff 5abc 5736 88bd 6052 f2bd 0122 633c
000002d0: 85bf 763c 06cd 7fbe 2b61 9bbd 1a66 4d3d
000002e0: ecf1 1abd 02d6 20be 3731 323e 35e8 17bd
000002f0: 0fc4 393d 8382 ac3d 53b3 0ebe 115a 7fbd
00000300: 74cb 80bd 2aa5 10be 394b 1b3e 72b8 073d
00000310: 7ab3 683d 2dcf 4abd b656 6d3e d8f0 dfbd
00000320: b7ac 25bc f80d 813d 3f9b b53d 1676 f73c
00000330: acd1 3ebc 2183 20be 2990 52bd e7e1 28bd
00000340: b3dc 0bbd 9abb 11bd 8f6b 353d 3bdf 8bbd
00000350: 4256 10bd 5201 0cbc 4373 e9bd 7655 b739
00000360: dcdc eebd 3780 2cbe 24bc 4cbd fcc7 1abd
00000370: 2758 adbd de85 13bd a970 55bc 0518 d7bc
00000380: 0349 013e 016f 01be 814a 623d 55db 40be
00000390: eec8 22be 7a6c 0f3d 3a24 59bd c807 6dbe
000003a0: 9215 4bbe 675c 8e3d 9a73 c2bd 7b88 56be
000003b0: 63ba af3d b80b 243d 4374 5d3d ad09 e1bc
000003c0: db24 0d3d d73f 623d a73b 4ebd a4d5 47be
000003d0: 949d 653d 2723 35bd 97d7 813c 0385 84bd
000003e0: e6b8 723d cc1e 593d d374 16bd edb3 433c
000003f0: 7503 53be 972d 2b3e e84f 06be 2ff3 1dbe

fc2.bias f4 [128]
-0.048984725 -0.06785025 -0.13870218 0.24767977 -0.098591365 -0.1334548 -0.2586408 -0.22862181
-0.17184645 -0.10357518 0.12631553 -0.05432167 -0.0004325915 0.10732844 -0.20687261 0.017817548
-0.008322737 -0.1275615 -0.16341916 0.010096265 0.27583694 -0.25730014 -0.2482423 -0.1050911
0.1715314 -0.29268065 -0.22851376 0.31789717 0.06346427 -0.16621004 -0.34846595 0.10784062
-0.0011303888 0.28212565 -0.052650735 0.27174 -0.13884072 -0.21895209 -0.08879223 -0.21869066
-0.22645149 -0.13099827 0.055674 -0.106094375 -0.118825845 0.11756576 -0.20291907 -0.2930202
0.08515161 -0.1764998 -0.25512266 -0.15053442 0.07317712 -0.15895422 -0.028166797 -0.036805686
-0.013975417 -0.34776402 0.3018896 -0.017784972 -0.1955752 -0.12660943 0.04046068 -0.20092532
0.07549084 -0.059687242 0.24272011 -0.30482754 -0.23800571 -0.18999785 -0.1928765 -0.15155348
-0.2014815 0.24326639 -0.19932164 -0.1279629 0.30029315 0.04762497 0.032124307 -0.16311786
0.1796921 -0.25645018 -0.11070382 0.21606876 -0.18596144 -0.26278877 -0.21018043 -0.08686164
0.029650973 0.0830428 -0.06504113 -0.039181147 -0.121118315 0.0659204 0.20581108 0.13120377
-0.03196337 0.037589695 0.085116826 -0.22056852 0.14932996 0.17383966 0.1259453 -0.0380309
-0.055631377 -0.23050769 -0.18139571 -0.042569455 0.3037371 -0.05711257 -0.03813068 -0.25121772
-0.27281496 -0.090608284 0.066419184 -0.08584311 -0.15873612 -0.24621949 -0.02205799 0.15959382
0.012140879 -0.07352296 0.16525204 -0.23142013 -0.18318367 -0.33763596 -0.18486919 -0.19296424
00000000: 35a4 48bd 12f5 8abd f207 0ebe c49f 7d3e
00000010: 45ea c9bd 60a8 08be 916c 84be d61b 6abe
00000020: 84f8 2fbe 391f d4bd dc58 013e 6680 5ebd
00000030: 73cd e2b9 03cf db3d 6ad6 53be 1bf6 913c
00000040: 175c 08bc 7b9f 02be 5a57 27be ce6a 253c
00000050: 803a 8d3e d8bc 83be 3b33 7ebe 013a d7bd
00000060: eda5 2f3e 3dda 95be 83ff 69be 6bc3 a23e
00000070: 8ef9 813d f732 2abe 216a b2be 8bdb dc3d
00000080: 8e29 94ba c672 903e 4ca8 57bd 8121 8b3e
00000090: 432c 0ebe fa34 60be b3d8 b5bd 72f0 5fbe
000000a0: e6e2 67be 6924 06be 6c0a 643d 0248 d9bd
000000b0: f75a f3bd 51c6 f03d 04ca 4fbe be06 96be
000000c0: f863 ae3d 5dbc 34be 709f 82be b225 1abe
000000d0: e3dd 953d e5c4 22be 0ebe e6bc 8fc1 16bd
000000e0: 26f9 64bc 200e b2be 4691 9a3e cab1 91bc
000000f0: dd44 48be e7a5 01be 19ba 253d 5ebf 4dbe
00000100: f19a 9a3d 9c7a 74bd 9f8b 783e 5b12 9cbe
00000110: c5b7 73be cc8e 42be 6b81 45be d630 1bbe
00000120: 2b51 4ebe d31a 793e f91a 4cbe b508 03be
00000130: 06c0 993e 6712 433d c794 033d 5e08 27be
00000140: 3501 383e 704d 83be afb8 e2bd 2141 5d3e
00000150: ad6c 3ebe 408c 86be 8a39 57be 84e4 b1bd
00000160: 99e6 f23c 5812 aa3d 4934 85bd 697c 20bd
00000170: e10c f8bd 4601 873d 24c0 523e 485a 063e
00000180: 06ec 02bd a7f7 193d bb51 ae3d b7dc 61be
00000190: f4e9 183e 0603 323e cef7 003e 4ac6 1bbd
000001a0: badd 63bd 350a 6cbe ccbf 39be 4f5d 2ebd
000001b0: 6e83 9b3e dfee 69bd ea2e 1cbd 9c9f 80be
000001c0: 67ae 8bbe d690 b9bd c806 883d 83ce afbd
000001d0: b98b 22be f620 7cbe f5b2 b4bc 906c 233e
000001e0: 8aea 463c 3593 96bd d537 293e 66f9 6cbe
000001f0: 8094 3bbe 9fde acbe 594e 3dbe 6b98 45be

fc3.weight f4 [1, 128]
0.12098593 -0.06867295 -0.09163883 0.10364041 0.16026446 -0.13654521 -0.14427963 -0.18930359
0.19854371 0.16424668 0.10434014 -0.093890384 0.071271926 0.06714996 -0.18765414 0.08761636
0.15076077 0.07485899 -0.1754028 0.09499576 0.1255142 -0.15907513 0.18806665 -0.10902375
0.07733969 -0.1767074 -0.13728382 0.06439291 0.08308223 -0.17290027 -0.2159237 0.122767486
0.122200936 0.09878224 0.09663727 0.08036806 -0.13355292 -0.21996106 0.1733215 -0.13070463
-0.15696579 0.1833471 0.10581704 -0.12133958 0.1543531 0.17163493 -0.1527619 -0.18490334
0.15544099 -0.12083321 -0.10274321 -0.08543537 0.13784516 -0.07441587 0.11792431 -0.05672325
0.11781725 -0.2770503 0.101047896 0.12806205 -0.11416891 0.15295082 0.073629394 -0.13108954
0.111524 0.13083214 0.07156926 -0.091116875 -0.18572523 -0.12061859 -0.111982636 -0.07732158
-0.09338213 0.11026504 -0.0971358 -0.10561229 0.10745132 0.08400701 0.09565409 -0.11263671
0.11270747 -0.2569156 -0.14122719 0.086146556 -0.121424034 -0.12234062 -0.26161858 -0.059366517
0.07622905 0.11715689 -0.1099233 0.082500756 0.15975718 0.12800838 0.0874206 0.095813766
0.16891661 0.068889104 0.103397496 -0.32922414 0.09822208 0.076352954 0.09800654 0.114111446
0.08107086 -0.09013512 -0.060620073 0.11372371 0.07226762 -0.07076603 0.15037046 0.18997498
-0.13246946 -0.120095454 0.0840536 -0.10943927 -0.09260527 -0.12891759 0.102142885 0.08300905
0.0981514 0.12135698 0.09509875 -0.17762284 -0.14355144 -0.10274755 -0.06916131 -0.121085964
00000000: 79c7 f73d 67a4 8cbd 24ad bbbd 6c41 d43d
00000010: 5e1c 243e 82d2 0bbe 0abe 13be cdd8 41be
00000020: 0b4f 4b3e 4830 283e 49b0 d53d 9a49 c0bd
00000030: 04f7 913d eb85 893d 6828 40be 3570 b33d
00000040: 0861 1a3e ac4f 993d cb9c 33be 238d c23d
00000050: cb86 003e 97e4 22be 8b94 403e d847 dfbd
00000060: 4564 9e3d c9f2 34be 2194 0cbe 6ee0 833d
00000070: 0427 aa3d c50c 31be 1a1b 5dbe 856d fb3d
00000080: 7c44 fa3d 584e ca3d c3e9 c53d 0298 a43d
00000090: 19c2 08be 793d 61be 317b 313e 6fd7 05be
000000a0: a4bb 20be 58bf 3b3e 9bb6 d83d e380 f8bd
000000b0: bd0e 1e3e 11c1 2f3e 9e6d 1cbe 4d57 3dbe
000000c0: ec2b 1f3e 6777 f7bd 086b d2bd bdf8 aebd
000000d0: 4827 0d3e 5967 98bd 4d82 f13d a356 68bd
000000e0: 2c4a f13d 89d9 8dbe 33f2 ce3d b322 033e
000000f0: 64d1 e9bd 249f 1c3e 02cb 963d 563c 06be
00000100: b266 e43d dcf8 053e e792 923d 7c9b babd
00000110: c12e 3ebe e106 f7bd 2757 e5bd c75a 9ebd
00000120: 213f bfbd a3d2 e13d 22ef c6bd 424b d8bd
00000130: 700f dc3d de0b ac3d 4be6 c33d 13ae e6bd
00000140: 2dd3 e63d 718a 83be dc9d 10be 9b6d b03d
00000150: 2aad f8bd b88d fabd dff2 85be 4e2a 73bd
00000160: fa1d 9c3d f4ef ef3d 781f e1bd 28f6 a83d
00000170: 6397 233e a114 033e 9209 b33d 023a c43d
00000180: 7af8 2c3e bb15 8d3d 11c2 d33d 1190 a8be
00000190: a828 c93d f05e 9c3d a7b7 c83d 43b3 e93d
000001a0: 7b08 a63d c398 b8bd c14c 78bd fae7 e83d
000001b0: 0c01 943d c8ed 90bd b7fa 193e cd88 423e
000001c0: 13a6 07be 9bf4 f5bd 4b24 ac3d b221 e0bd
000001d0: d5a7 bdbd f902 04be 4a30 d13d a600 aa3d
000001e0: 9a03 c93d 028a f83d 22c3 c23d c3e2 35be
000001f0: 26ff 12be 4f6d d2bd 72a4 8dbd ebfb f7bd

bn1.weight f4 [128]
0.47341308 1.033608 0.5480932 0.31507197 0.5463793 0.5846613 0.84387535 0.68420285
0.45023724 0.41547275 0.8715458 0.6755224 0.64790124 0.31540582 0.3457837 0.6666554
0.598754 0.5306082 0.39075887 0.3756807 0.4712806 0.37697586 0.52851856 0.59948736
0.26307514 0.28808928 0.62337106 0.60416466 0.5146541 0.7293252 0.39988172 0.49267647
0.70707303 0.35522088 0.32664403 0.9000489 0.2793179 0.61539704 0.19504328 0.21940556
0.7590661 0.61289096 0.37082526 0.3806033 0.59488493 0.23489472 0.33738148 0.5534184
0.39506 0.43152303 0.30014315 0.55243844 0.73882437 0.43165463 0.44202432 0.8533868
0.66627187 0.40332538 0.3956561 0.8612174 0.57351357 0.29666284 0.8088475 0.4433956
0.6179003 0.59128606 0.5721755 0.3049898 0.36162406 0.7522226 1.0691946 0.6863441
0.3726614 0.28669077 0.5359972 0.6797441 0.46212846 0.7688277 0.39697015 0.5908329
0.4907087 0.4053995 0.66174823 0.5343255 0.5294107 0.37384513 0.62149006 0.860169
0.33484802 0.6331166 0.45527813 0.41067982 0.69318134 0.7096653 0.28899148 0.7000893
0.7791083 0.37851003 0.5747926 0.39814743 0.45958957 0.6565274 0.71918005 0.34767005
0.86267513 0.72419626 0.31832382 0.43301475 0.80008775 0.56883645 0.64862645 0.45016834
0.5658054 0.77954346 0.74410933 0.41420624 0.7509078 0.79587245 0.4691772 0.44403613
0.4154656 0.4233942 0.38996878 0.41094148 0.8301294 0.47409946 0.2826094 0.26629928
00000000: 3363 f23e 444d 843f d64f 0c3f 1d51 a13e
00000010: 84df 0b3f 5dac 153f 3708 583f eb27 2f3f
00000020: 7f85 e63e d8b8 d43e a01d 5f3f 09ef 2c3f
00000030: dbdc 253f df7c a13e 900a b13e eea9 2a3f
00000040: f147 193f f0d5 073f 8c11 c83e 3959 c03e
00000050: b14b f13e fb02 c13e fe4c 073f 0178 193f
00000060: c9b1 863e 7080 933e 3f95 1f3f 89aa 1a3f
00000070: 5fc0 033f 0eb5 3a3f 4cbd cc3e 1740 fc3e
00000080: bd02 353f 83df b53e e33d a73e 9b69 663f
00000090: c102 8f3e a98a 1d3f 6db9 473e daab 603e
000000a0: 2852 423f 6ce6 1c3f cfdc bd3e 70de c23e
000000b0: 614a 183f 3e88 703e 44bd ac3e d4ac 0d3f
000000c0: 4e45 ca3e 96f0 dc3e 5dac 993e 9b6c 0d3f
000000d0: 9823 3d3f d601 dd3e 0351 e23e 8f77 5a3f
000000e0: cb90 2a3f aa80 ce3e 7093 ca3e be78 5c3f
000000f0: c9d1 123f 31e4 973e a110 4f3f c004 e33e
00000100: b72e 1e3f 865e 173f 187a 123f a027 9c3e
00000110: ca26 b93e a991 403f 5edb 883f 3fb4 2f3f
00000120: 7acd be3e 22c9 923e 1d37 093f b603 2e3f
00000130: 1a9c ec3e e4d1 443f ac3f cb3e d340 173f
00000140: 2c3e fb3e 8690 cf3e 5568 293f 8ec9 083f
00000150: 7687 073f a168 bf3e f919 1f3f 0934 5c3f
00000160: 3371 ab3e ee13 223f 371a e93e a044 d23e
00000170: 5574 313f a0ac 353f b1f6 933e 0d39 333f
00000180: a473 473f 11cc c13e 9c25 133f fbd9 cb3e
00000190: 534f eb3e 2e12 283f 2f1c 383f cf01 b23e
000001a0: 47d8 5c3f ed64 393f 57fb a23e 1cb4 dd3e
000001b0: 8dd2 4c3f 449f 113f 620c 263f 777c e63e
000001c0: 9fd8 103f 2990 473f f37d 3e3f d712 d43e
000001d0: 7e3b 403f 4cbe 4b3f fe37 f03e b458 e33e
000001e0: e8b7 d43e 20c7 d83e fda9 c73e ec66 d23e
000001f0: 5c83 543f 2abd f23e 2eb2 903e 6158 883e

bn1.bias f4 [128]
0.07484047 0.07678766 -0.0055705924 0.13349362 0.044696867 0.17812237 0.12258754 0.0011017299
0.0330778 0.08576205 0.02996336 0.09960802 0.15932135 -0.17247018 -0.18672445 0.1415598
0.035342388 -0.08623381 -0.09906003 0.023672013 -0.062122628 -0.17494486 0.24968164 0.18360974
0.033933416 0.30772346 0.12385264 0.1482255 0.13254483 0.1068479 0.055054765 0.16846108
-0.16423593 0.07639374 -0.0825598 0.020144217 -0.104593635 0.045376647 -0.20174901 0.14135413
0.060251866 -0.10038934 0.015926309 0.030823346 0.022095485 0.1338629 0.07437362 0.34912604
0.090622835 -0.113218896 0.09928458 0.20521319 0.10971976 0.14024521 0.0066166054 0.15091757
0.15359624 -0.013066818 -0.064802535 0.005730764 -0.027496424 0.15083566 -0.0094139 -0.050338846
0.010084668 -0.10881614 0.20651883 0.1576332 -0.088075906 0.13953982 0.27495047 0.0385638
0.20884588 0.14933942 0.13037738 -0.10405812 0.13070959 0.098009825 0.0120035345 0.049793974
-0.16365333 -0.045053415 0.11215105 -0.03035092 0.18528312 -0.008177918 0.0704292 0.12655064
0.10666922 0.0047404673 -0.067158274 0.12676637 0.052510433 -0.0734341 -0.086854555 0.21499638
0.12650089 -0.08310584 -0.05195087 -0.060732882 0.14702201 0.13076662 0.11743027 0.10469583
-0.0530969 0.021918798 -0.054795705 -0.019276666 0.036348034 -0.03699445 0.014069423 0.15148306
0.1910117 -0.068947986 0.0211508 0.034956723 0.033117007 0.19836852 0.12761295 0.01178421
0.20289548 -0.052095983 -0.025943242 0.0914703 0.056859896 0.09332359 -0.039281957 -0.08797233
00000000: f645 993d d942 9d3d 8489 b6bb 8db2 083e
00000010: 1014 373d b665 363e 2d0f fb3d ec67 903a
00000020: 967c 073d 03a4 af3d b875 f53c 4aff cb3d
00000030: 2325 233e 069c 30be b234 3fbe 0df5 103e
00000040: 2ec3 103d 5a9b b0bd fcdf cabd cfeb c13c
00000050: 4c74 7ebd bf24 33be 8bac 7f3e 3104 3c3e
00000060: c4fd 0a3d ee8d 9d3e 74a6 fd3d 6dc8 173e
00000070: d5b9 073e 12d3 da3d 1b81 613d 1081 2c3e
00000080: 772d 28be 5274 9c3d 1d15 a9bd 7c05 a53c
00000090: 3035 d6bd dddc 393d 4b97 4ebe 23bf 103e
000000a0: a9ca 763d ed98 cdbd e477 823c 3e81 fc3c
000000b0: 9701 b53c 5b13 093e 3251 983d a6c0 b23e
000000c0: 7798 b93d 4fdf e7bd b755 cb3d 6823 523e
000000d0: c1b4 e03d 719c 0f3e 1cd0 d83b 238a 1a3e
000000e0: 5548 1d3e 3516 56bc 31b7 84bd 22c9 bb3b
000000f0: 2e40 e1bc aa74 1a3e c23c 1abc 1b30 4ebd
00000100: 2a3a 253c ffda debd ac79 533e 996a 213e
00000110: 2461 b4bd 87e3 0e3e 4fc6 8c3e 13f5 1d3d
00000120: b2db 553e 6fec 183e a681 053e 6c1c d5bd
00000130: bcd8 053e 60b9 c83d 79aa 443c c4f4 4b3d
00000140: bd94 27be ee89 38bd 73af e53d 7ea2 f8bc
00000150: dcba 3d3e adfc 05bc 2f3d 903d 7e96 013e
00000160: 6475 da3d ec55 9b3b 478a 89bd 0bcf 013e
00000170: 2e15 573d 9e64 96bd cde0 b1bd 0328 5c3e
00000180: 7389 013e 6533 aabd 6fca 54bd 0bc3 78bd
00000190: f08c 163e afe7 053e 487f f03d c46a d63d
000001a0: 237c 59bd 0d8f b33c 7671 60bd 19ea 9dbc
000001b0: ade1 143d 7e87 17bd 7083 663c 601e 1b3e
000001c0: 9298 433e 9a34 8dbd 7144 ad3c c82e 0f3d
000001d0: b3a5 073d 1e21 4b3e f8ac 023e 8f12 413c
000001e0: d5c3 4f3e 9962 55bd ec86 d4bc c854 bb3d
000001f0: ece5 683d 7020 bf3d 1ee6 20bd d62a b4bd

bn1.running_mean f4 [128]
0.2230159 0.2260605 0.078150675 0.17439377 0.22586496 0.40630686 0.34988925 0.044961676
0.08232955 0.10109002 0.19462249 0.35555944 0.17248225 0.1965257 0.20554687 0.47380796
0.29993704 0.13193278 0.12341164 0.0663659 0.33823603 0.12057134 0.17576607 0.22851993
0.07062307 0.39611545 0.50444615 0.40033394 0.17848967 0.32015762 0.23769328 0.14677465
0.1321721 0.12043607 0.25331733 0.11048136 0.15087444 0.11455931 0.11536854 0.5056644
0.3314163 0.37641183 0.14038858 0.45151037 0.21942194 0.1672952 0.33310136 0.3151629
0.3059083 0.19172645 0.06430205 0.17270315 0.14508478 0.3013075 0.123468325 0.085059814
0.2838177 0.48850843 0.43207678 0.10465536 0.46142685 0.30696514 0.37888002 0.13240786
0.15222016 0.10790859 0.30444372 0.18864149 0.18809727 0.4014222 0.206482 0.33807972
0.22098891 0.11747615 0.06080762 0.14487375 0.116549745 0.51021165 0.25317568 0.35456765
0.3657751 0.044465356 0.19444078 0.29811442 0.25181246 0.20475107 0.14805147 0.42853296
0.37533954 0.2949774 0.3882142 0.16767687 0.107244246 0.14690733 0.16875593 0.42662558
0.09542663 0.12549734 0.08329959 0.112726495 0.24927321 0.16149409 0.20895384 0.16898604
0.16217071 0.39124236 0.22511154 0.5199765 0.6409816 0.04961054 0.18102422 0.0814072
0.20951661 0.1712336 0.10379112 0.30849984 0.26196063 0.24946187 0.14216995 0.20016788
0.3774307 0.07360022 0.06259029 0.12781823 0.16979283 0.087899745 0.030882733 0.22349492
00000000: 485e 643e 677c 673e 760d a03d 4894 323e
00000010: 2549 673e 7407 d03e af24 b33e bc29 383d
00000020: 659c a83d 4908 cf3d 1e4b 473e e30b b63e
00000030: 309f 303e 083e 493e e17a 523e f596 f23e
00000040: 5991 993e 6319 073e 3ebf fc3d d8ea 873d
00000050: 462d ad3e 1bee f63d 05fc 333e 2101 6a3e
00000060: d4a2 903d a5cf ca3e 6223 013f 92f8 cc3e
00000070: ffc5 363e b3eb a33e de65 733e 184c 163e
00000080: 1f58 073e 30a7 f63d cfb2 813e 0d44 e23d
00000090: d47e 1a3e 129e ea3d 5746 ec3d 3973 013f
000000a0: 66af a93e 0db9 c03e 06c2 0f3e 5e2c e73e
000000b0: 25b0 603e 6f4f 2b3e 438c aa3e 085d a13e
000000c0: 03a0 9c3e f053 443e cbb0 833d 18d9 303e
000000d0: 1b91 143e fa44 9a3e f6dc fc3d d733 ae3d
000000e0: 8e50 913e c71d fa3e 2b39 dd3e 8d55 d63d
000000f0: 2440 ec3e 892a 9d3e 90fc c13e ed95 073e
00000100: 9adf 1b3e 2eff dc3d 0ce0 9b3e 3c2b 413e
00000110: 929c 403e 3687 cd3e 0470 533e c918 ad3e
00000120: eb4a 623e 5697 f03d 6911 793d c959 143e
00000130: a2b1 ee3d 3b9d 023f 3ea0 813e e489 b53e
00000140: e046 bb3e 4e21 363d 7c1b 473e 74a2 983e
00000150: 90ed 803e 44aa 513e ce9a 173e ac68 db3e
00000160: 812c c03e 4707 973e 03c4 c63e 7cb3 2b3e
00000170: dfa2 db3d e06e 163e 5bce 2c3e ab6e da3e
00000180: 096f c33d 6082 003e fa98 aa3d 26dd e63d
00000190: 7a41 7f3e b55e 253e fff7 553e ad0a 2d3e
000001a0: 1410 263e eb50 c83e a483 663e 2e1d 053f
000001b0: 5f17 243f 6c34 4b3d 6a5e 393e d1b8 a63d
000001c0: 868b 563e dc57 2f3e 7090 d43d b1f3 9d3e
000001d0: b41f 863e ef72 7f3e 0095 113e cff8 4c3e
000001e0: 993e c13e b6bb 963d 572f 803d c8e2 023e
000001f0: 2cde 2d3e c804 b43d c9fd fc3c dadb 643e

bn1.running_var f4 [128]
0.14759617 0.13911407 0.044276565 0.084340245 0.17224586 0.17288454 0.27739146 0.019134674
0.05365953 0.049219098 0.11066469 0.3091719 0.08063968 0.15052609 0.124328814 0.2550802
0.33858603 0.07360704 0.07140389 0.024567602 0.16653635 0.084184155 0.09685155 0.1269058
0.041577764 0.23044007 0.46259305 0.2465005 0.18964541 0.11983341 0.1615742 0.0801803
0.08643553 0.0668255 0.255542 0.06293032 0.1296023 0.05862799 0.086456746 0.31692356
0.20163867 0.18468404 0.07579769 0.3121639 0.14358586 0.13947381 0.2599879 0.16138811
0.12134968 0.097727634 0.028998991 0.11242191 0.07819038 0.17795071 0.052987482 0.042739455
0.19109485 0.532752 0.2616708 0.05669257 0.39823365 0.18940057 0.25966915 0.05638919
0.122959256 0.059708793 0.28264713 0.14643618 0.10472467 0.2187017 0.13477664 0.2055992
0.113097616 0.11232178 0.025763376 0.099201724 0.055150434 0.39643538 0.21948054 0.17923845
0.27984455 0.030063236 0.102105014 0.25228104 0.15520082 0.12733626 0.10654464 0.43642053
0.21427009 0.17550646 0.3090138 0.07473881 0.059191708 0.061015334 0.07649382 0.22595663
0.047877893 0.07029036 0.033394437 0.06271769 0.17924394 0.07578741 0.14810869 0.102249116
0.10015978 0.2094112 0.25180623 0.53514725 0.3180838 0.026530186 0.12285122 0.043081407
0.15620779 0.13079578 0.043677554 0.1605188 0.21637146 0.17796077 0.07004322 0.13588856
0.18680146 0.049919244 0.039934494 0.076476045 0.1155944 0.046087984 0.017042864 0.09363316
00000000: 7323 173e eb73 0e3e 585b 353d 94ba ac3d
00000010: 3861 303e a508 313e 4106 8e3e 52c0 9c3c
00000020: 18ca 5b3d f799 493d 2ba4 e23d c74b 9e3e
00000030: 6b26 a53d 8323 1a3e 1ba0 fe3d df99 823e
00000040: 265b ad3e 4abf 963d 343c 923d ff41 c93c
00000050: 8188 2a3e be68 ac3d 1b5a c63d 98f3 013e
00000060: 724d 2a3d 7bf8 6b3e ffd8 ec3e a16a 7c3e
00000070: 6832 423e 386b f53d b573 253e 9235 a43d
00000080: 1c05 b13d cfdb 883d 67d6 823e 9de1 803d
00000090: 77b6 043e e723 703d 3c10 b13d ce43 a23e
000000a0: 5e7a 4e3e d01d 3d3e d23b 9b3d f2d3 9f3e
000000b0: 2c08 133e 39d2 0e3e 221d 853e ed42 253e
000000c0: 2e86 f83d 6d25 c83d 4b8f ed3c 753d e63d
000000d0: 4722 a03d b638 363e 6709 593d 910f 2f3d
000000e0: 5eae 433e 6f62 083f b7f9 853e 7836 683d
000000f0: 48e5 cb3e 39f2 413e 5bf3 843e 5af8 663d
00000100: 10d2 fb3d 3591 743d 20b7 903e 5ef3 153e
00000110: e379 d63d 57f3 5f3e e302 0a3e 9988 523e
00000120: b99f e73d f608 e63d b70d d33c 462a cb3d
00000130: 6ce5 613d 94f9 ca3e 82bf 603e 498a 373e
00000140: c947 8f3e 2d47 f63c 6f1c d13d fb2a 813e
00000150: f7ec 1e3e 7064 023e 1434 da3d 8372 df3e
00000160: 9e69 5b3e f7b7 333e 0f37 9e3e a910 993d
00000170: 0173 723d 37eb 793d cba8 9c3d 2d61 673e
00000180: 9c1b 443d 64f4 8f3d 9bc8 083d 2272 803d
00000190: b98b 373e 6e36 9b3d cea9 173e fc67 d13d
000001a0: 9220 cd3d e46f 563e bfec 803e 69ff 083f
000001b0: e1db a23e d555 d93c 6c99 fb3d 2176 303d
000001c0: eff4 1f3e 54ef 053e 3ce7 323d 0a5f 243e
000001d0: 7b90 5d3e 593b 363e d272 8f3d 5f26 0b3e
000001e0: e248 3f3e 1f78 4c3d 5a92 233d 799f 9c3d
000001f0: c2bc ec3d c1c6 3c3d 7a9d 8b3c bec2 bf3d

bn2.weight f4 [128]
0.4581359 0.61382276 0.8880399 0.69738203 0.036979854 0.69402796 0.0014553666 0.88406247
0.10608375 0.85597825 0.71488297 0.0827747 0.5380207 0.68973786 0.78389084 0.33258712
0.91388834 0.8147187 0.1354115 0.13530332 0.8496007 0.31547904 0.7918738 0.47990686
0.43437958 0.88071674 0.44410598 0.1408732 0.13729787 0.60403526 0.36500508 0.29825664
0.59919804 0.23661625 0.30164385 0.55160576 0.41516465 0.77521574 0.47558945 0.9850744
0.798391 0.567999 0.8876103 0.20555443 0.6199326 0.44299054 0.109727144 0.8817811
0.4027313 0.8462178 0.4341361 0.77568203 0.017331123 0.74470997 0.3946947 0.58082306
0.615039 0.32535136 0.5717019 0.5898495 0.25092518 0.0475955 0.622308 0.7760823
0.32085568 0.9844007 0.3147987 0.9811641 0.22315383 0.68372196 0.84836453 0.56488407
0.57545424 0.34431654 0.7795697 0.9550671 0.78885573 0.7084126 0.90825284 0.03386551
0.74255127 0.16197777 0.090046644 0.40883142 0.48602515 0.39163083 0.15964103 0.8024453
0.07488173 0.13719988 0.59419394 0.7336997 0.8525271 0.79044384 0.52490544 0.81062615
0.76152825 0.91124886 0.11913121 0.63752997 0.27926743 0.7511123 0.3232627 0.1334914
0.9507449 0.9866858 0.9004107 0.24647552 0.8201635 0.20178568 0.5786375 0.58888686
0.49103463 0.6890328 0.61525846 0.044427574 0.8126249 0.2680012 0.034987688 0.29594004
0.7759091 0.6834286 0.1357007 0.84175146 0.059114933 0.87510425 0.2058813 0.33817643
00000000: ca90 ea3e 7d23 1d3f 9556 633f a187 323f
00000010: 3078 173d d1ab 313f 00c2 be3a eb51 623f
00000020: 7042 d93d 6421 5b3f 9202 373f c885 a93d
00000030: b9bb 093f a992 303f 12ad 483f dc48 aa3e
00000040: 96f4 693f 6891 503f 50a9 0a3e f48c 0a3e
00000050: 6e7f 593f 7886 a13e 3eb8 4a3f 5ab6 f53e
00000060: 0067 de3e a776 613f dc61 e33e 1041 103e
00000070: d097 0c3e 0ea2 1a3f f2e1 ba3e 18b5 983e
00000080: 0b65 193f 884b 723e 1071 9a3e 0936 0d3f
00000090: 7690 d43e 8a74 463f 7680 f33e d62d 7c3f
000000a0: 5a63 4c3f 6268 113f 6e3a 633f dc7c 523e
000000b0: e7b3 1e3f a8cf e23e a0b8 e03d 68bc 613f
000000c0: cc32 ce3e bba1 583f 1647 de3e 1993 463f
000000d0: 00fa 8d3c 50a5 3e3f 6c15 ca3e d2b0 143f
000000e0: 3273 1d3f 7494 a63e 0e5b 123f 6000 173f
000000f0: 4479 803e 80f3 423d 944f 1f3f 54ad 463f
00000100: 3247 a43e af01 7c3f 4c2d a13e 922d 7b3f
00000110: 7082 643e 6708 2f3f 6b2e 593f 3e9c 103f
00000120: f850 133f 424a b03e e191 473f 477f 743f
00000130: 73f2 493f 875a 353f 4283 683f 90b6 0a3d
00000140: d717 3e3f 80dd 253e 606a b83d 5a52 d13e
00000150: 4ad8 f83e d683 c83e f078 233e 0e6d 4d3f
00000160: 985b 993d 207e 0c3e 181d 183f bed3 3b3f
00000170: 373f 5a3f 875a 4a3f 3460 063f 3285 4f3f
00000180: 84f3 423f 9b47 693f 10fb f33d 2a35 233f
00000190: 24fc 8e3e e548 403f b082 a53e f8b1 083e
000001a0: 0564 733f 7197 7c3f 5181 663f 1464 7c3e
000001b0: 3cf6 513f e8a0 4e3e 9621 143f 4ac1 163f
000001c0: e468 fb3e 7464 303f 9481 1d3f b0f9 353d
000001d0: 2f08 503f 7437 893e 404f 0f3d 7485 973e
000001e0: fba1 463f 2df5 2e3f 20f5 0a3e 067d 573f
000001f0: 8022 723d d506 603f 8cd2 523e 7625 ad3e

bn2.bias f4 [128]
0.0 0.0 0.0 0.0 0.0 0.0 0.0 0.0
0.0 0.0 0.0 0.0 0.0 0.0 0.0 0.0
0.0 0.0 0.0 0.0 0.0 0.0 0.0 0.0
0.0 0.0 0.0 0.0 0.0 0.0 0.0 0.0
0.0 0.0 0.0 0.0 0.0 0.0 0.0 0.0
0.0 0.0 0.0 0.0 0.0 0.0 0.0 0.0
0.0 0.0 0.0 0.0 0.0 0.0 0.0 0.0
0.0 0.0 0.0 0.0 0.0 0.0 0.0 0.0
0.0 0.0 0.0 0.0 0.0 0.0 0.0 0.0
0.0 0.0 0.0 0.0 0.0 0.0 0.0 0.0
0.0 0.0 0.0 0.0 0.0 0.0 0.0 0.0
0.0 0.0 0.0 0.0 0.0 0.0 0.0 0.0
0.0 0.0 0.0 0.0 0.0 0.0 0.0 0.0
0.0 0.0 0.0 0.0 0.0 0.0 0.0 0.0
0.0 0.0 0.0 0.0 0.0 0.0 0.0 0.0
0.0 0.0 0.0 0.0 0.0 0.0 0.0 0.0
00000000: 0000 0000 0000 0000 0000 0000 0000 0000
00000010: 0000 0000 0000 0000 0000 0000 0000 0000
00000020: 0000 0000 0000 0000 0000 0000 0000 0000
00000030: 0000 0000 0000 0000 0000 0000 0000 0000
00000040: 0000 0000 0000 0000 0000 0000 0000 0000
00000050: 0000 0000 0000 0000 0000 0000 0000 0000
00000060: 0000 0000 0000 0000 0000 0000 0000 0000
00000070: 0000 0000 0000 0000 0000 0000 0000 0000
00000080: 0000 0000 0000 0000 0000 0000 0000 0000
00000090: 0000 0000 0000 0000 0000 0000 0000 0000
000000a0: 0000 0000 0000 0000 0000 0000 0000 0000
000000b0: 0000 0000 0000 0000 0000 0000 0000 0000
000000c0: 0000 0000 0000 0000 0000 0000 0000 0000
000000d0: 0000 0000 0000 0000 0000 0000 0000 0000
000000e0: 0000 0000 0000 0000 0000 0000 0000 0000
000000f0: 0000 0000 0000 0000 0000 0000 0000 0000
00000100: 0000 0000 0000 0000 0000 0000 0000 0000
00000110: 0000 0000 0000 0000 0000 0000 0000 0000
00000120: 0000 0000 0000 0000 0000 0000 0000 0000
00000130: 0000 0000 0000 0000 0000 0000 0000 0000
00000140: 0000 0000 0000 0000 0000 0000 0000 0000
00000150: 0000 0000 0000 0000 0000 0000 0000 0000
00000160: 0000 0000 0000 0000 0000 0000 0000 0000
00000170: 0000 0000 0000 0000 0000 0000 0000 0000
00000180: 0000 0000 0000 0000 0000 0000 0000 0000
00000190: 0000 0000 0000 0000 0000 0000 0000 0000
000001a0: 0000 0000 0000 0000 0000 0000 0000 0000
000001b0: 0000 0000 0000 0000 0000 0000 0000 0000
000001c0: 0000 0000 0000 0000 0000 0000 0000 0000
000001d0: 0000 0000 0000 0000 0000 0000 0000 0000
000001e0: 0000 0000 0000 0000 0000 0000 0000 0000
000001f0: 0000 0000 0000 0000 0000 0000 0000 0000

bn2.running_mean f4 [128]
0.0 0.0 0.0 0.0 0.0 0.0 0.0 0.0
0.0 0.0 0.0 0.0 0.0 0.0 0.0 0.0
0.0 0.0 0.0 0.0 0.0 0.0 0.0 0.0
0.0 0.0 0.0 0.0 0.0 0.0 0.0 0.0
0.0 0.0 0.0 0.0 0.0 0.0 0.0 0.0
0.0 0.0 0.0 0.0 0.0 0.0 0.0 0.0
0.0 0.0 0.0 0.0 0.0 0.0 0.0 0.0
0.0 0.0 0.0 0.0 0.0 0.0 0.0 0.0
0.0 0.0 0.0 0.0 0.0 0.0 0.0 0.0
0.0 0.0 0.0 0.0 0.0 0.0 0.0 0.0
0.0 0.0 0.0 0.0 0.0 0.0 0.0 0.0
0.0 0.0 0.0 0.0 0.0 0.0 0.0 0.0
0.0 0.0 0.0 0.0 0.0 0.0 0.0 0.0
0.0 0.0 0.0 0.0 0.0 0.0 0.0 0.0
0.0 0.0 0.0 0.0 0.0 0.0 0.0 0.0
0.0 0.0 0.0 0.0 0.0 0.0 0.0 0.0
00000000: 0000 0000 0000 0000 0000 0000 0000 0000
00000010: 0000 0000 0000 0000 0000 0000 0000 0000
00000020: 0000 0000 0000 0000 0000 0000 0000 0000
00000030: 0000 0000 0000 0000 0000 0000 0000 0000
00000040: 0000 0000 0000 0000 0000 0000 0000 0000
00000050: 0000 0000 0000 0000 0000 0000 0000 0000
00000060: 0000 0000 0000 0000 0000 0000 0000 0000
00000070: 0000 0000 0000 0000 0000 0000 0000 0000
00000080: 0000 0000 0000 0000 0000 0000 0000 0000
00000090: 0000 0000 0000 0000 0000 0000 0000 0000
000000a0: 0000 0000 0000 0000 0000 0000 0000 0000
000000b0: 0000 0000 0000 0000 0000 0000 0000 0000
000000c0: 0000 0000 0000 0000 0000 0000 0000 0000
000000d0: 0000 0000 0000 0000 0000 0000 0000 0000
000000e0: 0000 0000 0000 0000 0000 0000 0000 0000
000000f0: 0000 0000 0000 0000 0000 0000 0000 0000
00000100: 0000 0000 0000 0000 0000 0000 0000 0000
00000110: 0000 0000 0000 0000 0000 0000 0000 0000
00000120: 0000 0000 0000 0000 0000 0000 0000 0000
00000130: 0000 0000 0000 0000 0000 0000 0000 0000
00000140: 0000 0000 0000 0000 0000 0000 0000 0000
00000150: 0000 0000 0000 0000 0000 0000 0000 0000
00000160: 0000 0000 0000 0000 0000 0000 0000 0000
00000170: 0000 0000 0000 0000 0000 0000 0000 0000
00000180: 0000 0000 0000 0000 0000 0000 0000 0000
00000190: 0000 0000 0000 0000 0000 0000 0000 0000
000001a0: 0000 0000 0000 0000 0000 0000 0000 0000
000001b0: 0000 0000 0000 0000 0000 0000 0000 0000
000001c0: 0000 0000 0000 0000 0000 0000 0000 0000
000001d0: 0000 0000 0000 0000 0000 0000 0000 0000
000001e0: 0000 0000 0000 0000 0000 0000 0000 0000
000001f0: 0000 0000 0000 0000 0000 0000 0000 0000

bn2.running_var f4 [128]
1.0 1.0 1.0 1.0 1.0 1.0 1.0 1.0
1.0 1.0 1.0 1.0 1.0 1.0 1.0 1.0
1.0 1.0 1.0 1.0 1.0 1.0 1.0 1.0
1.0 1.0 1.0 1.0 1.0 1.0 1.0 1.0
1.0 1.0 1.0 1.0 1.0 1.0 1.0 1.0
1.0 1.0 1.0 1.0 1.0 1.0 1.0 1.0
1.0 1.0 1.0 1.0 1.0 1.0 1.0 1.0
1.0 1.0 1.0 1.0 1.0 1.0 1.0 1.0
1.0 1.0 1.0 1.0 1.0 1.0 1.0 1.0
1.0 1.0 1.0 1.0 1.0 1.0 1.0 1.0
1.0 1.0 1.0 1.0 1.0 1.0 1.0 1.0
1.0 1.0 1.0 1.0 1.0 1.0 1.0 1.0
1.0 1.0 1.0 1.0 1.0 1.0 1.0 1.0
1.0 1.0 1.0 1.0 1.0 1.0 1.0 1.0
1.0 1.0 1.0 1.0 1.0 1.0 1.0 1.0
1.0 1.0 1.0 1.0 1.0 1.0 1.0 1.0
00000000: 0000 803f 0000 803f 0000 803f 0000 803f
00000010: 0000 803f 0000 803f 0000 803f 0000 803f
00000020: 0000 803f 0000 803f 0000 803f 0000 803f
00000030: 0000 803f 0000 803f 0000 803f 0000 803f
00000040: 0000 803f 0000 803f 0000 803f 0000 803f
00000050: 0000 803f 0000 803f 0000 803f 0000 803f
00000060: 0000 803f 0000 803f 0000 803f 0000 803f
00000070: 0000 803f 0000 803f 0000 803f 0000 803f
00000080: 0000 803f 0000 803f 0000 803f 0000 803f
00000090: 0000 803f 0000 803f 0000 803f 0000 803f
000000a0: 0000 803f 0000 803f 0000 803f 0000 803f
000000b0: 0000 803f 0000 803f 0000 803f 0000 803f
000000c0: 0000 803f 0000 803f 0000 803f 0000 803f
000000d0: 0000 803f 0000 803f 0000 803f 0000 803f
000000e0: 0000 803f 0000 803f 0000 803f 0000 803f
000000f0: 0000 803f 0000 803f 0000 803f 0000 803f
00000100: 0000 803f 0000 803f 0000 803f 0000 803f
00000110: 0000 803f 0000 803f 0000 803f 0000 803f
00000120: 0000 803f 0000 803f 0000 803f 0000 803f
00000130: 0000 803f 0000 803f 0000 803f 0000 803f
00000140: 0000 803f 0000 803f 0000 803f 0000 803f
00000150: 0000 803f 0000 803f 0000 803f 0000 803f
00000160: 0000 803f 0000 803f 0000 803f 0000 803f
00000170: 0000 803f 0000 803f 0000 803f 0000 803f
00000180: 0000 803f 0000 803f 0000 803f 0000 803f
00000190: 0000 803f 0000 803f 0000 803f 0000 803f
000001a0: 0000 803f 0000 803f 0000 803f 0000 803f
000001b0: 0000 803f 0000 803f 0000 803f 0000 803f
000001c0: 0000 803f 0000 803f 0000 803f 0000 803f
000001d0: 0000 803f 0000 803f 0000 803f 0000 803f
000001e0: 0000 803f 0000 803f 0000 803f 0000 803f
000001f0: 0000 803f 0000 803f 0000 803f 0000 803f
