checkpoint_actor.pth (torch_old, 91477 bytes, 14 tensors)

fc1.weight f4 [128, 33]
0.2181319 -0.2904866 0.02861507 0.4050754 0.20020732 0.30164844 0.16351552 -0.00010447028
-0.07609571 -0.15042055 0.0032858662 0.011312773 0.087672904 -0.062137667 -0.012646218 -0.09679848
0.005981899 0.1963627 0.29834047 0.06795771 -0.03729916 0.036772184 0.028434917 0.07021979
-0.04964669 -0.019214325 -0.015245441 -0.31490654 0.057777997 0.017535903 0.24448009 -0.035064746
0.009398607 -0.10225186 0.003977272 -0.15779208 0.1878136 0.43546766 -0.13838395 0.10534484
0.0007945257 0.013254056 -0.12077481 -0.029144034 0.00209256 0.019789929 -0.01181986 0.007527389
0.07015131 -0.32201287 -0.16775276 0.04973159 0.052917127 -0.010285888 0.0283592 0.0097773345
0.009510463 0.0022525939 0.053891122 0.0898404 0.058883328 -0.021015404 0.08563075 -0.042815827
0.08505859 0.8414947 -0.07064166 0.25008237 0.06007201 -0.1571705 -0.0677397 0.39179558
-0.082036406 -0.014051019 -0.00807783 0.10797693 -0.03521143 0.05076626 0.03424905 -0.025180561
-0.14420065 -0.03884512 -0.073326595 -0.094807915 0.10735723 -0.39094955 -0.0016030326 -0.042220544
-0.037273277 -0.0052287825 -0.043285444 0.00070786633 0.09742704 0.102937415 0.044972435 -0.06732872
-0.032391172 -0.039020374 0.73329467 0.035070315 0.059750527 -0.012679595 0.0056664944 -0.07874419
-0.23383613 0.06078539 -0.0047853896 0.074344866 -0.13130563 0.035006225 -0.00091883435 0.011744196
-0.020444065 -0.052986752 -0.02300454 0.008872191 0.14291614 -0.32786152 -0.23681067 0.0049633584
0.030322928 -0.036942225 -0.004979365 -0.016355526 -0.013883781 0.005244067 -0.009749125 0.0664518
0.015345737 -0.14602248 0.00215441 -1.1032816 0.018446006 -0.036821045 0.060189873 0.1624585
0.31572545 -0.294063 -0.18006484 0.014757693 0.23884177 0.1836115 0.053697698 -0.047072303
0.0065975687 0.045615762 0.23184735 -0.013242024 0.11481032 0.21166758 -0.030980226 -0.21482413
0.08423321 -0.06345611 -0.049433075 0.13559686 0.08945237 -0.09207371 0.16764905 -0.06140847
0.033899553 0.052481018 0.022355909 0.077061735 0.28103054 -0.056718428 0.10974106 -0.07476035
-0.049255554 -0.1349119 -0.41256723 -0.089450106 -0.115694195 0.13319959 -0.17298837 -0.032335285
-0.02397354 0.010129886 0.066836365 -0.03994732 0.05280743 0.41381693 -0.0035186794 -0.001830853
-0.038301058 -0.036522258 0.03594678 -0.017620698 -0.049359974 0.029590992 0.015067627 -0.19497518
0.20844683 0.044828836 -0.05419128 -0.15005177 0.05756905 0.5496081 0.0863366 0.030215697
-0.0020120281 -0.028166924 0.1802379 0.7689056 -0.3156945 -0.017696198 0.006355362 -0.10029304
0.04313957 -0.023708723 -0.049295396 -0.039918523 0.084618635 -0.105555296 0.22478661 0.0717138
-0.33481866 0.12757136 0.030903945 -0.13991843 -0.09627463 0.13457714 0.02707757 -0.06430309
0.08978285 0.06283487 0.09861285 -0.026652686 0.07936161 0.010278359 0.27722162 -0.045118753
0.028116617 -0.05858541 -0.20550139 -0.1331024 -0.024622431 0.24422143 0.06402359 0.07176374
0.011922315 -0.059723288 0.07008254 0.07419889 -0.17137419 0.035804678 -0.021116933 0.23776495
-0.21010149 -0.12886935 -0.20605046 0.06828527 -0.0842544 0.00016494573 -0.04989183 0.024960617
00000000: f85d 5f3e a9ba 94be 276a ea3c 0b66 cf3e
00000010: 2603 4d3e aa71 9a3e 9d70 273e 0e17 dbb8
00000020: 11d8 9bbd d807 1abe b057 573b 3659 393c
00000030: da8d b33d 1184 7ebd 1532 4fbc 483e c6bd
00000040: ce03 c43b 4e13 493e 15c0 983e 692d 8b3d
00000050: 01c7 18bd 6e9e 163d 58f0 e83c 65cf 8f3d
00000060: 545a 4bbd 5c67 9dbc 04c8 79bc 6e3b a1be
00000070: 9fa8 6c3d 74a7 8f3c fd58 7a3e 0da0 0fbd
00000080: 9dfc 193c 6c69 d1bd c753 823b 3f94 21be
00000090: 3552 403e 9ef5 de3e 86b4 0dbe 09bf d73d
000000a0: b847 503a 8a27 593c c958 f7bd 78bf eebc
000000b0: 5523 093b 7d1e a23c 16a8 41bc 51a8 f63b
000000c0: 7dab 8f3d dfde a4be 61c7 2bbe 5ab3 4b3d
000000d0: a1bf 583d 2486 28bc 8e51 e83c 1d31 203c
000000e0: c6d1 1b3c 41a0 133b f0bc 5c3d 3efe b73d
000000f0: a52f 713d 7f28 acbc 2d5f af3d a65f 2fbd
00000100: 3333 ae3d 326c 573f 93ac 90bd cc0a 803e
00000110: 110e 763d 4ef1 20be 1dbb 8abd 6e99 c83e
00000120: b402 a8bd 3f36 66bc e058 04bc 0223 dd3d
00000130: dc39 10bd 48f0 4f3d bb48 0c3d 7747 cebc
00000140: 56a9 13be 101c 1fbd 412c 96bd a72a c2bd
00000150: 1bde db3d 8a2a c8be d91c d2ba 73ef 2cbd
00000160: ddab 18bd 3556 abbb 144c 31bd 1b90 393a
00000170: d487 c73d dad0 d23d 0435 383d a4e3 89bd
00000180: 9bac 04bd d4d3 1fbd 33b9 3b3f e4a5 0f3d
00000190: f8bc 743d 13be 4fbc 00ae b93b a244 a1bd
000001a0: bd72 6fbe 1afa 783d c2ce 9cbb 1f42 983d
000001b0: fc74 06be b062 0f3d eedd 70ba ba6a 403c
000001c0: 507a a7bc a308 59bd 0474 bcbc ab5c 113c
000001d0: 9c58 123e 77dd a7be 7f7e 72be aba3 a23b
000001e0: ca67 f83c bb50 17bd f129 a3bb 06fc 85bc
000001f0: cc78 63bc 6cd6 ab3b cbba 1fbc e217 883d
00000200: b06c 7b3c eb86 15be 0031 0d3b 5538 8dbf
00000210: 141c 973c aad1 16bd a889 763d 855b 263e
00000220: c4a6 a13e 6d8f 96be eb62 38be 40ca 713c
00000230: f092 743e a704 3c3e 1ef2 5b3d e3ce 40bd
00000240: 6b30 d83b 98d7 3a3d 6469 6d3e 13f5 58bc
00000250: ac21 eb3d 63bf 583e 3eca fdbc dbfa 5bbe
00000260: 7682 ac3d 47f5 81bd 567a 4abd e7d9 0a3e
00000270: ce32 b73d 2491 bcbd 31ac 2b3e 7387 7bbd
00000280: 42da 0a3d 56f6 563d bd23 b73c 8bd2 9d3d
00000290: 3ce3 8f3e 9551 68bd ecbf e03d f41b 99bd
000002a0: 31c0 49bd 5826 0abe 033c d3be 9e31 b7bd
000002b0: 14f1 ecbd 7965 083e dd23 31be 0172 04bd
000002c0: 2864 c4bc d2f7 253c 81e1 883d cd9f 23bd
000002d0: 9b4c 583d d0df d33e a599 66bb 3cf9 efba
000002e0: 92e1 1cbd 5d98 15bd ee3c 133d 4859 90bc
000002f0: af2d 4abd cf68 f23c 35de 763c 93a7 47be
00000300: 1673 553e 719e 373d adf7 5dbd 2ca7 19be
00000310: 86cd 6b3d 1eb3 0c3f 3ed1 b03d e986 f73c
00000320: 3bdc 03bb 52be e6bc 4990 383e ffd6 443f
00000330: b6a2 a1be 9ef7 90bc a440 d03b 7066 cdbd
00000340: 1eb3 303d cc38 c2bc f8e9 49bd 9b81 23bd
00000350: 894c ad3d 602d d8bd 762e 663e afde 923d
00000360: 5a6d abbe 11a2 023e 452a fd3c c746 0fbe
00000370: a22b c5bd 97ce 093e c8d1 dd3c 57b1 83bd
00000380: 12e0 b73d 91af 803d 89f5 c93d bc56 dabc
00000390: 5788 a23d 9066 283c feef 8d3e 71ce 38bd
000003a0: d254 e63c 41f7 6fbd f56e 52be ff4b 08be
000003b0: fbb4 c9bc 2f15 7a3e cd1e 833d def8 923d
000003c0: d055 433c 68a0 74bd 6f87 8f3d 96f5 973d
000003d0: b77c 2fbe eda7 123d 6bfd acbc a878 733e
000003e0: d824 57be 54f6 03be e4fe 52be 26d9 8b3d
000003f0: 928d acbd 48f5 2c39 605b 4cbd 357a cc3c

fc1.bias f4 [128]
0.2759117 -0.13917954 -0.07870609 -0.010807827 0.052846402 -0.14749865 -0.05550716 -0.14408398
-0.0776208 0.052140493 -0.12996691 -0.2439086 -0.20469294 -0.23336326 -0.14659925 0.21368343
-0.04890961 -0.15130338 -0.17652546 -0.08164347 -0.25821534 -0.19470899 -0.046020463 -0.24616711
-0.14692956 -0.01337807 -0.29170424 -0.015169577 -0.26012108 -0.2677744 -0.3065802 -0.19169146
0.01104091 -0.2983072 0.1576812 -0.2414848 -0.19222584 -0.33543396 0.0031831223 -0.08779859
0.11991186 0.22256033 -0.36744872 -0.24020968 -0.12843022 -0.101033546 0.046588674 -0.3215785
-0.11828507 0.10504695 0.10582315 -0.15208617 -0.13516058 -0.26056582 -0.011244067 0.18357381
-0.12353535 0.22565864 -0.28845158 -0.14155912 -0.2753648 -0.07250407 -0.28747505 -0.22172832
-0.2286916 -0.032242607 -0.03544472 0.18204416 -0.05736574 0.03386622 -0.255082 -0.18686031
-0.040085312 -0.46871382 -0.056717843 -0.23541313 -0.06315801 -0.34716645 -0.24836643 -0.049625013
-0.10077731 -0.1344047 -0.021857545 -0.33658698 -0.18610252 0.12639421 0.11658704 -0.057142664
-0.078539796 0.014970859 0.01288286 -0.11962966 -0.33397245 -0.051885933 -0.30487168 0.0026654706
0.09826383 -0.11051753 -0.21261065 0.17854515 -0.23580687 0.0017858397 0.16939461 -0.16360094
0.024936242 -0.27412316 -0.0076538185 -0.49850968 -0.023775449 0.08019738 -0.05349322 -0.08855586
-0.07533418 -0.28974557 -0.22576042 -0.11921315 -0.08917434 0.11048203 -0.039687548 -0.049085964
-0.031116676 -0.19225496 -0.10989923 0.11538029 0.16021653 -0.10936932 -0.22688816 -0.0971559
00000000: 4c44 8d3e 1585 0ebe a930 a1bd 5013 31bc
00000010: 7875 583d e309 17be 7a5b 63bd c08a 13be
00000020: a7f7 9ebd 4591 553d 0c16 05be 2dc3 79be
00000030: 079b 51be c7f6 6ebe 1d1e 16be d4cf 5a3e
00000040: 7155 48bd 46ef 1abe 17c3 34be b134 a7bd
00000050: cd34 84be cb61 47be f47f 3cbd 3b13 7cbe
00000060: b474 16be b12f 5bbc 425a 95be d189 78bc
00000070: 972e 85be ba19 89be 14f8 9cbe c44a 44be
00000080: efe4 343c b9bb 98be 2e77 213e cb47 77be
00000090: dad6 44be 00be abbe ee9b 503b bfcf b3bd
000000a0: 5994 f53d dbe6 633e 3d22 bcbe 87f9 75be
000000b0: 3683 03be adea cebd c4d3 3e3d f0a5 a4be
000000c0: 713f f2bd db22 d73d cfb9 d83d 7abc 1bbe
000000d0: 8967 0abe e268 85be 0939 38bc c6fa 3b3e
000000e0: 1a00 fdbd 0f13 673e edaf 93be e0f4 10be
000000f0: 9dfc 8cbe 047d 94bd ee2f 93be c00c 63be
00000100: 212e 6abe d310 04bd 7c2e 11bd c969 3a3e
00000110: 57f8 6abd 4eb7 0a3d 1c9a 82be 4f58 3fbe
00000120: 7f30 24bd 42fb efbe f850 68bd 2410 71be
00000130: fd58 81bd cdbf b1be c553 7ebe 9943 4bbd
00000140: 5664 cebd 63a1 09be 980e b3bc 2155 acbe
00000150: a991 3ebe 7c6d 013e 30c5 ee3d 6d0e 6abd
00000160: 79d9 a0bd 5548 753c a212 533c 6500 f5bd
00000170: 70fe aabe 5886 54bd 2418 9cbe 2daf 2e3b
00000180: 8c3e c93d 0457 e2bd 9bb6 59be 8ad4 363e
00000190: 5b77 71be d612 ea3a c875 2d3e 0187 27be
000001a0: 1747 cc3c df59 8cbe e2cc fabb a93c ffbe
000001b0: bbc4 c2bc 863e a43d b51b 5bbd c65c b5bd
000001c0: ce48 9abd 8859 94be bd2d 67be 0626 f4bd
000001d0: 09a1 b6bd 6744 e23d 698f 22bd 5d0e 49bd
000001e0: 66e8 febc 7cde 44be d912 e1bd 804c ec3d
000001f0: cd0f 243e 06fd dfbd 5f55 68be acf9 c6bd

fc2.weight f4 [128, 128]
-0.09717507 0.08913468 -0.11111807 -0.027788987 -0.06850718 -0.00037108947 -0.11616165 -0.24306773
-0.36119178 -0.4103491 -0.20835619 0.24668832 -0.060232803 0.083911605 -0.3123094 0.06415732
-0.24338232 -0.04588047 -0.35789773 -0.11224415 0.03876478 0.034648173 -0.25180843 -0.020671168
-0.08925651 0.29865834 0.036009043 0.03336838 -0.03389909 0.17596056 -0.24666555 0.24973705
-0.19298871 -0.015243765 -0.17650068 -0.3596777 0.079282686 0.057738636 -0.068569124 0.12392647
0.00788723 -0.23753412 -0.08268764 0.12036345 -0.1343348 -0.041913066 -0.34756213 0.11274772
-0.15533847 0.065348946 -0.082943946 -0.08228137 0.19505997 -0.28483352 -0.1110547 -0.15022576
-0.38422513 0.029156722 0.037410926 -0.075004235 -0.12742698 0.13674304 0.2027908 -0.10457964
0.066119075 -0.41441718 -0.17691576 0.11050601 0.008440141 0.05004915 -0.19096677 0.20432684
-0.03341781 -0.0061115157 -0.05052227 -0.23495059 -0.19314209 -0.031695414 0.13959323 0.2455139
0.07569721 -0.06760776 -0.013739717 -0.05962484 0.5684073 0.08414118 0.050944485 -0.025414554
-0.06120484 -0.07743653 -0.3987274 0.041732717 -0.11892445 -0.13993442 -0.27254993 -0.06676389
-0.012385652 0.100198306 -0.2644259 0.20344941 0.4048256 -0.68198466 0.048482787 0.048143525
-0.17660291 0.089118086 0.382943 -0.06804017 -0.19661127 0.021811292 -0.045905337 -0.50047016
0.13382955 0.22098546 -0.22319984 -0.19549583 -0.08997841 -0.019518435 -0.2161041 -0.1489208
-0.52572304 -0.35942712 -0.31594905 -0.1340729 -0.058654826 -0.3333677 -0.24596365 -0.12409023
-0.06956448 -0.067509204 0.05323397 0.12956671 -0.059088904 0.12237616 0.19412735 0.019893318
0.25111732 0.046966586 0.18151335 0.035048243 -0.063544564 -0.24178766 0.19437349 -0.12556021
0.24520785 0.022133304 0.055306133 0.13465275 0.3503384 -0.03863738 -0.12918058 -0.043573763
-0.17044812 0.22168499 -0.15714708 -0.1849353 -0.06781762 0.34083626 0.16769014 0.14825347
0.129388 -0.1446369 0.07767184 0.19588079 0.29395792 0.051227648 0.2620593 0.0015749101
0.10455564 0.17816485 -0.026042195 0.00016067449 0.08086419 -0.043231964 -0.5452482 -0.16358896
-0.14372054 0.20440085 -0.021140765 0.26339704 -0.24992266 -0.07035011 0.21180701 -0.33363348
-0.12685592 -0.2163885 0.19802007 0.14492945 0.089851014 -0.05379424 -0.037909534 0.017458472
0.104973264 -0.11248413 -0.24021694 -0.18579061 0.30584404 -0.37275994 0.09351938 0.07642574
0.16468336 -0.18609363 0.067524746 0.30401745 0.22795098 0.039014097 -0.13403106 -0.25680318
0.19447352 0.36773747 0.029776143 -0.02458265 -0.026839089 -0.022476126 -0.08825734 -0.2120503
-0.14797144 0.004637947 0.047560696 -0.22445947 -0.12384756 -0.3792473 -0.052383684 -0.18577348
-0.07817502 0.21231468 -0.19728495 -0.0719396 0.16544329 -0.22322606 -0.13201383 -0.03167801
-0.005928982 -0.03604436 -0.0858378 0.14478463 -0.118990734 -0.11305992 -0.0018513399 0.018922826
-0.20712104 0.25259385 -0.031434197 0.40873206 -0.0011377283 0.1115025 0.10252884 0.3979073
-0.3095916 0.21747476 -0.30376366 -0.039510142 0.046673592 -0.10993674 -0.11599046 0.12756354
00000000: b903 c7bd 3e8c b63d df91 e3bd bba5 e3bc
00000010: 7e4d 8cbd c98e c2b9 29e6 edbd bfe6 78be
00000020: 21ee b8be 4719 d2be 535b 55be dd9b 7c3e
00000030: acb6 76bd d9d9 ab3d 05e7 9fbe ea64 833d
00000040: 3739 79be 29ed 3bbd 5f3e b7be 43e0 e5bd
00000050: d1c7 1e3d 3eeb 0d3d 09ed 80be 9556 a9bc
00000060: 1ecc b6bd bfe9 983e 387e 133d 48ad 083d
00000070: c6d9 0abd 012f 343e e595 7cbe 12bb 7f3e
00000080: d59e 45be fcc0 79bc 98bc 34be ad27 b8be
00000090: f65e a23d 597f 6c3d f86d 8cbd 29cd fd3d
000000a0: 7139 013c 253c 73be 2358 a9bd 1d81 f63d
000000b0: 108f 09be 09ad 2bbd aaf3 b1be 47e8 e63d
000000c0: 0c11 1fbe abd5 853d 84de a9bd 2383 a8bd
000000d0: cdbd 473e b3d5 91be a670 e3bd c8d4 19be
000000e0: 28b9 c4be 14da ee3c 333c 193d d29b 99bd
000000f0: 387c 02be 5e06 0c3e 64a8 4f3e da2d d6bd
00000100: 7069 873d 7d2e d4be 6829 35be fa50 e23d
00000110: 8448 0a3c 5600 4d3d cb8c 43be 0e3b 513e
00000120: 1de1 08bd 1c43 c8bb 71f0 4ebd e396 70be
00000130: 0ac7 45be 0dd3 01bd 87f1 0e3e ff67 7b3e
00000140: 2407 9b3d f075 8abd 8d1c 61bc 2d39 74bd
00000150: 2483 113f 3652 ac3d 2aab 503d 2f32 d0bc
00000160: edb1 7abd 0b97 9ebd ff25 ccbe edef 2a3d
00000170: a98e f3bd f84a 0fbe aa8b 8bbe 82bb 88bd
00000180: 31ed 4abc c534 cd3d d562 87be 0b55 503e
00000190: 4d45 cf3e 8c96 2ebf e395 463d 2532 453d
000001a0: 65d7 34be 8b83 b63d 1b11 c43e a558 8bbd
000001b0: 7754 49be 98ad b23c 3c07 3cbd d01e 00bf
000001c0: 9d0a 093e 034a 623e 808e 64be 0f30 48be
000001d0: 9a46 b8bd 20e5 9fbc 654a 5dbe b27e 18be
000001e0: c995 06bf d506 b8be 13c4 a1be 684a 09be
000001f0: 0b40 70bd 2caf aabe e5dd 7bbe 0523 febd
00000200: d277 8ebd 4442 8abd dd0b 5a3d 23ad 043e
00000210: 3507 72bd 5aa0 fa3d 52c9 463e 50f7 a23c
00000220: 7392 803e 0960 403d a3de 393e bf8e 0f3d
00000230: a723 82bd 2f97 77be d809 473e db92 00be
00000240: c417 7b3e e750 b53c af88 623d 69e2 093e
00000250: 8e5f b33e 3b42 1ebd ea47 04be 677a 32bd
00000260: f489 2ebe 6401 633e 2aeb 20be ae5f 3dbe
00000270: f7e3 8abd 1782 ae3e f7b6 2b3e c2cf 173e
00000280: 4a7e 043e b21b 14be 6a12 9f3d f994 483e
00000290: a781 963e 15d4 513d a32c 863e 376d ce3a
000002a0: 4421 d63d d970 363e 7156 d5bc bb7a 2839
000002b0: 209c a53d 0014 31bd 6395 0bbf dd83 27be
000002c0: 7a2b 13be 754e 513e 662f adbc fadb 863e
000002d0: baeb 7fbe b813 90bd f0e3 583e 02d2 aabe
000002e0: 85e6 01be f294 5dbe c6c5 4a3e 6368 143e
000002f0: cf03 b83d 5957 5cbd 0747 1bbd 1205 8f3c
00000300: 39fc d63d 145e e6bd 6efb 75be e53f 3ebe
00000310: 9797 9c3e 64da bebe 1787 bf3d 1985 9c3d
00000320: c1a2 283e 548f 3ebe 6a4a 8a3d 2da8 9b3e
00000330: fb6b 693e 3fcd 1f3d 703f 09be b57b 83be
00000340: 1124 473e 1648 bc3e 19ed f33c 8e61 c9bc
00000350: a6dd dbbc da1f b8bc 44c0 b4bd b723 59be
00000360: d385 17be ebf9 973b 01cf 423d b4d8 65be
00000370: caa3 fdbd b42c c2be 4690 56bd 673b 3ebe
00000380: 3a1a a0bd 0569 593e 1105 4abe 1255 93bd
00000390: f769 293e 5f95 64be a22e 07be cdc0 01bd
000003a0: e847 c2bb 40a3 13bd bacb afbd 6c42 143e
000003b0: 6ab1 f3bd f68b e7bd a9a8 f2ba 0b04 9b3c
000003c0: 8a17 54be fb53 813e 25c1 00bd 5445 d13e
000003d0: d41f 95ba 6c5b e43d a4fa d13d 81ba cb3e
000003e0: ca82 9ebe b4b1 5e3e e986 9bbe 63d5 21bd
000003f0: cf2c 3f3d 8326 e1bd 688c edbd 04a0 023e

fc2.bias f4 [128]
0.015561756 -0.10757981 -0.1696681 -0.06723506 -0.018265078 -0.21000662 -0.07095385 0.037355416
-0.17021821 -0.24223438 -0.121836245 -0.0347959 -0.32237992 -0.04657446 0.102667175 0.12896463
-0.06763751 -0.28354448 0.14188656 -0.10555017 -0.15828307 0.0034680632 -0.019418772 -0.04769455
-0.14025733 -0.07188952 0.07132282 0.017706335 -0.2539733 0.015820742 -0.17712724 -0.13987853
-0.096771136 -0.08725735 -0.09747175 0.015638158 0.0837919 0.08286114 -0.28006425 -0.14834501
0.1781872 -0.021235496 -0.042261824 -0.12117457 0.06535693 0.07793795 0.05273331 0.071849175
-0.13006184 0.054702684 0.026352048 -0.32814926 -0.22790962 -0.07352024 -0.07265101 -0.30682984
-0.19417712 0.008681534 -0.14753525 -0.22431177 0.08694651 -0.001209378 -0.1747238 -0.040876858
-0.07964037 0.046967003 0.04611481 0.21436638 -0.20840456 0.18216157 -0.23078495 0.050613955
0.07288568 -0.04098461 -0.06072516 -0.020484373 0.11523235 -0.17139404 -0.05651229 -0.08556363
0.21003671 0.10293123 -0.09411596 -0.0020659654 -0.07834262 -0.11112151 -0.044248153 -0.13044873
-0.16942212 -0.0007095991 0.05935741 -0.022208104 -0.17291439 -0.031909674 -0.25224087 0.012840235
0.107422754 0.06832888 -0.083985075 -0.22781861 -0.20570827 0.15729138 -0.24553731 -0.1947196
0.051279344 0.017090624 -0.4045933 -0.03458911 -0.104142204 -0.017914493 -0.058119267 0.06458215
0.03183749 0.06521875 -0.023322845 -0.0427303 0.045470018 -0.10892957 -0.12680292 0.06263708
0.03946283 -0.056071818 0.09283433 -0.04780218 -0.018936105 0.15346733 0.08558591 -0.028349312
00000000: bcf6 7e3c ce52 dcbd 79bd 2dbe 89b2 89bd
00000010: a5a0 95bc fa0b 57be 4150 91bd fe01 193d
00000020: af4d 2ebe 4a0c 78be 4885 f9bd 2586 0ebd
00000030: fb0e a5be dcc4 3ebd 2b43 d23d 4e0f 043e
00000040: 8985 8abd be2c 91be b64a 113e b02a d8bd
00000050: f514 22be 7248 633b 1e14 9fbc 5c5b 43bd
00000060: 9e9f 0fbe d03a 93bd b311 923d e00c 913c
00000070: ca08 82be 809a 813c d860 35be 513c 0fbe
00000080: f22f c6bd fbb3 b2bd 459f c7bd 981b 803c
00000090: 169b ab3d 1ab3 a93d 9564 8fbe c1e7 17be
000000a0: b576 363e 10f6 adbc bc1a 2dbd 5f2a f8bd
000000b0: dbd9 853d ef9d 9f3d e2fe 573d a925 933d
000000c0: ee2e 05be ec0f 603d 40e0 d73c 2e03 a8be
000000d0: 2461 69be c891 96bd 0dca 94bd cd18 9dbe
000000e0: 5ed6 46be fe3c 0e3c 7b13 17be fcb1 65be
000000f0: 0311 b23d fe83 9eba ccea 32be 7e6e 27bd
00000100: 7e1a a3bd 7960 403d e2e2 3c3d dc82 5b3e
00000110: 0168 55be 9088 3a3e e452 6cbe 9450 4f3d
00000120: 1645 953d 7adf 27bd f2ba 78bd d8ce a7bc
00000130: f0fe eb3d eb81 2fbe 6e79 67bd fc3b afbd
00000140: dd13 573e 9ccd d23d debf c0bd 2665 07bb
00000150: 1872 a0bd ad93 e3bd 8d3d 35bd 5a94 05be
00000160: fe7c 2dbe 6404 3aba c120 733d c5ed b5bc
00000170: 7810 31be b8b3 02bd b725 81be d95f 523c
00000180: 7600 dc3d 03f0 8b3d 5e00 acbd 4849 69be
00000190: 30a5 52be fe10 213e 226e 7bbe 9364 47be
000001a0: 4a0a 523d a301 8c3c da26 cfbe 50ad 0dbd
000001b0: 8248 d5bd 6ac1 92bc 780e 6ebd a543 843d
000001c0: 0768 023d 6891 853d 8d0f bfbc f805 2fbd
000001d0: c53e 3a3d 7716 dfbd a0d8 01be df47 803d
000001e0: c7a3 213d 90ab 65bd ed1f be3d 38cc 43bd
000001f0: e41f 9bbc 8a26 1d3e aa47 af3d d13c e8bc

fc3.weight f4 [4, 128]
-0.69547236 -0.1005751 0.39108726 0.0543458 -0.5923364 -0.3650397 -0.5292717 0.030168576
0.16221847 0.48007396 -0.22871254 0.4358271 -0.23995079 0.7237827 0.65938973 -0.07267645
0.08671081 -0.2040247 0.32137188 0.16220455 -0.20526801 -0.05029556 -0.113486126 0.3295757
-0.24027531 -0.010973052 -0.1887816 0.22274335 0.0856433 -0.77730834 -0.6658702 -0.11990973
-0.20916496 0.021080593 -0.52885276 -0.087971814 0.32467508 0.114849165 -0.019889826 -0.12772004
0.034924142 0.10650381 0.27321848 -0.459029 -0.46753436 -0.3458764 0.36229005 0.1745421
0.28088352 0.3360102 0.015818894 -0.2011433 -0.5820817 0.36978176 0.48201284 -0.10469592
-0.24112153 -0.22435139 -0.8878918 -0.7471408 -0.21703911 0.3693236 0.19205551 0.07469551
0.54567736 -0.47497055 -0.52055484 0.21965799 -0.010412983 0.02749241 -0.08386583 0.29492164
0.41530123 0.46173114 -0.38082948 -0.46215102 0.27823648 -0.02241709 0.18489945 -0.62413585
-0.022416823 0.31259504 -0.6635252 -0.008608932 0.2576734 0.4822102 -0.45204002 0.54640454
0.33788928 0.24249165 0.00045986546 -0.25367898 0.18339033 -0.35440415 -0.32453254 -0.11861521
-0.37027812 0.31153205 -0.3388587 0.71705484 -0.11083364 0.2527551 -0.3918993 0.19426902
0.0920948 0.111797854 0.07507666 0.40542823 -0.20406024 -0.036163874 0.79816496 0.13462044
0.56516373 -0.13200895 -0.16758117 -0.18167321 0.33700413 0.072667375 0.023236757 0.3797377
0.45212364 -0.7720104 0.17077933 -0.24922824 -0.5058107 0.2226697 0.16337076 -0.10160417
-0.009267125 0.20102575 0.2798797 0.16059463 0.20112996 -0.074829526 0.19632688 0.2597808
0.22297984 0.110215075 0.31288224 0.4502267 0.20716469 -0.14838125 0.26006186 -0.53787297
-0.7839222 0.10091835 -0.16452903 0.50052947 -0.7737654 0.060859803 0.27368242 0.069801055
0.6120855 0.11064714 -0.03915292 -0.48626933 0.5616366 0.11282729 -0.19593671 0.008711776
-0.15640227 0.831629 -0.37112075 -0.29817763 0.14995949 0.060933307 -0.11167772 -0.581845
-0.33373544 -0.4189181 -0.41122064 0.0602782 -0.2478021 0.3362667 0.2172878 0.44812542
0.9172765 -0.0053672586 -0.30392623 0.7058374 -0.01875962 0.46655244 0.57717973 -0.25312215
-0.23688883 0.41653016 -0.055959333 0.27618185 -0.3914055 -0.29483843 -0.4599911 0.21200278
0.10229897 -0.15045628 0.2809131 -0.5416897 0.1102959 0.41433468 0.5148011 -0.06611444
-0.007679448 -0.21293898 0.59025395 0.1271726 -0.46156377 0.77978784 0.03821963 -0.27234998
0.2816681 0.14311455 -0.29297778 0.21940556 -0.49777052 0.06249145 -0.16668129 0.24853267
-0.22553848 -0.45193523 -0.4481334 0.19887921 -0.36806655 0.030760977 0.13410537 -0.024064979
0.24792941 -0.607724 -0.3825885 0.37312755 0.27933338 0.30796635 0.4576251 -0.26643473
0.13867134 -0.6566987 0.43226367 0.47262794 0.102786206 -0.56918657 -0.19729547 -0.31016865
0.40254894 0.35143927 0.36878446 -0.23400658 0.18330377 0.2539831 -0.11802887 -0.012124958
-0.1290252 -0.12859781 -0.826919 -0.19335932 -0.009286594 -0.7088853 -0.70565397 0.48724702
00000000: 7a0a 32bf 51fa cdbd 973c c83e b499 5e3d
00000010: 5ca3 17bf 7ce6 babe 5a7e 07bf 1724 f73c
00000020: 991c 263e 41cc f53e 9f33 6abe bb24 df3e
00000030: a9b5 75be d349 393f c4cd 283f 64d7 94bd
00000040: 7095 b13d daeb 50be db8a a43e f318 263e
00000050: c731 52be b802 4ebd 6a6b e8bd 25be a83e
00000060: bb0a 76be 51c8 33bc f74f 41be d516 643e
00000070: c165 af3d aefd 46bf 7876 2abf 3c93 f5bd
00000080: 572f 56be 35b1 ac3c e562 07bf 912a b4bd
00000090: d03b a63e 0a36 eb3d fdef a2bc 0bc9 02be
000000a0: 9e0c 0f3d ab1e da3d 4be3 8b3e d905 ebbe
000000b0: aa60 efbe b616 b1be 157e b93e 2abb 323e
000000c0: f7cf 8f3e 8709 ac3e a096 813c 82f8 4dbe
000000d0: 4e03 15bf 0954 bd3e 63ca f63e d16a d6bd
000000e0: 90e8 76be 5fbc 65be e14c 63bf 9f44 3fbf
000000f0: 803f 5ebe fc17 bd3e 33aa 443e f6f9 983d
00000100: 83b1 0b3f 572f f3be 1543 05bf 06ee 603e
00000110: 379b 2abc c337 e13c d9c1 abbd f8ff 963e
00000120: 5da2 d43e 0668 ec3e 15fc c2be 0f9f ecbe
00000130: 0375 8e3e 0ca4 b7bc 4856 3d3e 5ec7 1fbf
00000140: 7ca3 b7bc 750c a03e cadc 29bf 7a0c 0dbc
00000150: c5ed 833e 41e4 f63e ca71 e7be 2be1 0b3f
00000160: d3ff ac3e bb4f 783e 191a f139 36e2 81be
00000170: adca 3b3e 7674 b5be 2129 a6be 88ec f2bd
00000180: 1895 bdbe 2181 9f3e e37e adbe e890 373f
00000190: bffc e2bd 1e69 813e 06a7 c8be 75ee 463e
000001a0: 339c bc3d 46f6 e43d cbc1 993d 4a94 cf3e
000001b0: 2bf5 50be 9220 14bd 8a54 4c3f f1d9 093e
000001c0: 92ae 103f 5b2d 07be 669a 2bbe 8b08 3abe
000001d0: ce8b ac3e a2d2 943d 035b be3c fb6c c23e
000001e0: c07c e73e 79a2 45bf c7e0 2e3e b035 7fbe
000001f0: cf7c 01bf 8703 643e aa4a 273e d915 d0bd
00000200: 24d5 17bc b2d9 4d3e 644c 8f3e eb72 243e
00000210: 03f5 4d3e 3940 99bd ea09 493e fd01 853e
00000220: d454 643e 71b8 e13d 1a32 a03e 1d84 e63e
00000230: fb22 543e 41f1 17be d426 853e 0bb2 09bf
00000240: 20af 48bf 48ae ce3d 4c7a 28be b322 003f
00000250: 7d15 46bf 2148 793d 1a20 8c3e dbf3 8e3d
00000260: a3b1 1c3f f89a e23d d05e 20bd 4bf8 f8be
00000270: 6bc7 0f3f ff11 e73d a2a3 48be d6bb 0e3c
00000280: eb27 20be a3e5 543f 8a03 bebe bdaa 98be
00000290: fb8e 193e 3495 793d 4ab7 e4bd cbf3 14bf
000002a0: 5fdf aabe 6f7c d6be 838b d2be 46e6 763d
000002b0: d5bf 7dbe 262b ac3e b180 5e3e b270 e53e
000002c0: a2d2 6a3f d4df afbb 389c 9bbe c3b1 343f
000002d0: c6ad 99bc f6df ee3e 0dc2 133f 3a99 81be
000002e0: fc92 72be 7143 d53e 9d35 65bd b567 8d3e
000002f0: 4d66 c8be 10f5 96be f483 ebbe 4217 593e
00000300: 1f82 d13d 3611 1abe d8d3 8f3e 2dac 0abf
00000310: d1e2 e13d ad23 d43e 01ca 033f 0267 87bd
00000320: e1a3 fbbb ad0c 5abe e21a 173f 8939 023e
00000330: 1652 ecbe 2da0 473f 308c 1c3d 7571 8bbe
00000340: cd36 903e 9f8c 123e 2f01 96be daab 603e
00000350: c7db febe 09f7 7f3d 80ae 2abe 597f 7e3e
00000360: 8ff3 66be 0e64 e7be be71 e5be fea6 4b3e
00000370: 3873 bcbe 72fe fb3c eb52 093e eb23 c5bc
00000380: 35e1 7d3e cd93 1bbf a4e2 c3be 930a bf3e
00000390: c904 8f3e c4ad 9d3e d64d ea3e 226a 88be
000003a0: dcff 0d3e 681d 28bf aa51 dd3e 4afc f13e
000003b0: 9381 d23d 36b6 11bf d307 4abe 6dce 9ebe
000003c0: e51a ce3e d9ef b33e 51d1 bc3e 6c9f 6fbe
000003d0: fcb3 3b3e 130a 823e 1fb9 f1bd c3a7 46bc
000003e0: 2f1f 04be 25af 03be f7b0 53bf fcff 45be
000003f0: cc26 18bc 8279 35bf bda5 34bf 7178 f93e

fc3.bias f4 [4]
0.056351364 -0.050346855 0.075512454 0.028540045
00000000: b0d0 663d 8138 4ebd 46a6 9a3d d0cc e93c

bn1.weight f4 [128]
1.1556953 1.2791953 1.0097582 1.6183009 0.8730238 0.81040454 1.0029114 0.82837015
1.2152171 1.0161084 0.6545009 1.0087776 0.78100246 0.8677107 1.0703195 1.3680993
0.95057267 0.5984792 0.8506361 0.94792664 1.1856546 1.2097133 0.61984044 0.74830663
0.63852006 0.7342741 0.95768636 0.852325 0.627496 0.8052404 0.5732281 0.62194186
0.95251656 0.7971557 0.5738548 1.1550583 1.3676744 0.91251606 1.1625545 0.6860424
0.8642825 0.6681402 1.5473819 0.64838135 1.1339258 0.7574102 1.2948579 0.6753307
0.9208635 0.62459725 1.2508264 1.1280426 0.7199118 0.956929 1.562428 0.75445247
1.0389335 0.66406834 0.9095803 0.91702443 1.0607914 0.5859649 0.68956333 0.96703076
0.95811576 0.9397666 1.361067 1.2020482 0.57140136 1.41514 0.52558863 0.9198352
1.18036 0.6605152 1.0262338 0.7500615 0.79732174 0.9580013 0.67990094 0.6205784
0.82417536 0.7243712 0.5370664 0.7417742 0.8098804 0.951269 0.6374146 1.1619642
1.0514101 0.53900486 1.3251873 0.7764401 0.6336755 1.2047648 0.6098236 0.85121256
1.1048471 0.640744 0.77712387 1.1820161 0.93939996 0.8042676 0.71037775 1.3526489
1.1059276 0.76301366 0.73598975 0.92444545 0.54121256 0.8549924 0.86159265 0.66989803
0.83670413 0.61763436 0.6646994 0.98114926 0.8582667 0.6887934 0.61704993 0.93307257
0.9344804 0.55034536 0.9363938 0.77092844 1.3281951 0.911561 1.0917836 0.83567387
00000000: d3ed 933f acbc a33f c23f 813f 7c24 cf3f
00000010: 7d7e 5f3f ac76 4f3f 675f 803f 1110 543f
00000020: 3c8c 9b3f d70f 823f 5f8d 273f a01f 813f
00000030: c7ef 473f 4a22 5e3f 3b00 893f e11d af3f
00000040: bb58 733f ef35 193f 4ac3 593f 52ab 723f
00000050: 88c3 973f e3d7 9a3f ddad 1e3f 0691 3f3f
00000060: 0d76 233f 63f9 3b3f ef2a 753f f931 5a3f
00000070: 94a3 203f 3c24 4e3f 14bf 123f 9537 1f3f
00000080: 20d8 733f 6512 4c3f 26e8 123f f3d8 933f
00000090: f40f af3f a79a 693f 96ce 943f 7aa0 2f3f
000000a0: 9e41 5d3f 3c0b 2b3f 9c10 c63f 52fc 253f
000000b0: 7b24 913f a3e5 413f e7bd a53f 79e2 2c3f
000000c0: b6bd 6b3f 9be5 1f3f 141b a03f b363 903f
000000d0: 244c 383f 4df9 743f a4fd c73f cc23 413f
000000e0: c6fb 843f 6200 2a3f 41da 683f 1dc2 6a3f
000000f0: 03c8 873f cc01 163f 3987 303f 548f 773f
00000100: 1347 753f 8b94 703f 7237 ae3f b7dc 993f
00000110: 5c47 123f 4f23 b53f fa8c 063f 527a 6b3f
00000120: 0916 973f 8617 293f a15b 833f 0804 403f
00000130: 471d 4c3f 933f 753f fd0d 2e3f 3ade 1e3f
00000140: 28fd 523f 6470 393f 2f7d 093f eae4 3d3f
00000150: 5254 4f3f 5d86 733f 9a2d 233f 3ebb 943f
00000160: 9b94 863f 39fc 093f bd9f a93f c7c4 463f
00000170: 8f38 223f bc35 9a3f 661d 1c3f 11e9 593f
00000180: a16b 8d3f cc07 243f 97f1 463f 4e4c 973f
00000190: 847c 703f 7be4 4d3f 51db 353f 9923 ad3f
000001a0: 098f 8d3f dd54 433f d369 3c3f 75a8 6c3f
000001b0: e88c 0a3f c8e0 5a3f 5691 5c3f 707e 2b3f
000001c0: 3e32 563f 491d 1e3f bd29 2a3f 992c 7b3f
000001d0: 5eb7 5b3f c454 303f fcf6 1d3f d8dd 6e3f
000001e0: 1c3a 6f3f 6fe3 0c3f 81b7 6f3f 915b 453f
000001f0: 4c02 aa3f 105c 693f 91bf 8b3f b9ee 553f

bn1.bias f4 [128]
-0.096469976 0.22091222 0.21935357 -0.014280996 -0.040287815 -0.08231183 0.09100663 0.034537792
-0.09218297 -0.008478402 0.19714606 0.030097159 0.050299942 -0.054204896 0.27252325 0.018257989
0.05052591 0.07471623 0.16169755 -0.13652742 -0.03496374 0.16776524 0.19792576 -0.22115104
0.09222976 -0.08463256 0.09118702 -0.15924712 -0.08679573 0.28631815 -0.071748 0.23731671
-0.16778718 0.07909727 0.008593044 -0.004606303 0.1283164 -0.012447134 -0.3932415 0.002929059
0.07975788 -0.15013492 0.19167173 0.033811715 0.004266963 -0.056130726 0.104281686 0.013921795
-0.015514754 0.07200427 -0.038252126 0.15447123 -0.012539084 0.044797525 0.09753813 0.06735015
0.17111331 0.18197885 0.21847063 0.044439282 0.12998424 -0.068251014 -0.10945956 0.31749368
0.020229828 0.14163697 -0.056013703 -0.23003545 -0.046498723 0.19567324 -0.060362566 -0.023939988
0.06848594 0.08544076 -0.07311183 0.15125617 0.1529868 0.061113827 0.15731889 -0.1510781
-0.1308497 0.20635784 -0.103246346 0.057425227 0.055902217 -0.027526906 0.033235837 0.021995993
0.07861637 -0.06316325 0.10895915 0.14904638 0.026950188 0.007421942 0.1744639 0.12830034
0.29794234 0.0015261711 0.10291731 -0.02753327 0.08548973 0.020142801 0.08915462 -0.04980463
0.121172905 -0.07152042 0.030915579 0.18476692 0.08074389 0.1050883 -0.08281671 0.19802497
0.07085401 -0.029962787 0.09457217 0.3260137 -0.07346765 0.12185231 -0.052923992 0.22907057
0.123243995 0.09862849 0.007399704 0.043963097 0.015704842 0.21338288 -0.14408022 -0.05406382
00000000: 0d92 c5bd d036 623e 399e 603e d7fa 69bc
00000010: d604 25bd 1b93 a8bd af61 ba3d 8077 0d3d
00000020: 6dca bcbd ffe8 0abc a8e0 493e 518e f63c
00000030: 5007 4e3d f405 5ebd 2b88 8b3e c791 953c
00000040: 42f4 4e3d d304 993d 0b94 253e d8cd 0bbe
00000050: 2336 0fbd a7ca 2b3e 0dad 4a3e 6b75 62be
00000060: f5e2 bc3d d653 adbd 43c0 ba3d ad11 23be
00000070: f6c1 b1bd 4b98 923e 9ef0 92bd 2703 733e
00000080: 67d0 2bbe c0fd a13d d7c9 0c3c 78f0 96bb
00000090: 6065 033e 10ef 4bbc f356 c9be 75f5 3f3b
000000a0: 1958 a33d f8bc 19be 9845 443e 277e 0a3d
000000b0: e1d1 8b3b 55e9 65bd a391 d53d 3e18 643c
000000c0: 9831 7ebc fa76 933d 43ae 1cbd b52d 1e3e
000000d0: bb70 4dbc 9c7d 373d 12c2 c73d e0ee 893d
000000e0: 5438 2f3e aa58 3a3e c4b6 5f3e f705 363d
000000f0: 971a 053e 30c7 8bbd 552c e0bd 888e a23e
00000100: 06b9 a53c 4809 113e a06e 65bd 6a8e 6bbe
00000110: 7275 3ebd 915e 483e bd3e 77bd cb1d c4bc
00000120: 5b42 8c3d 91fb ae3d a8bb 95bd e6e2 1a3e
00000130: 92a8 1c3e 7e52 7a3d 3418 213e 38b4 1abe
00000140: 77fd 05be 784f 533e d272 d3bd b736 6b3d
00000150: b9f9 643d 1b80 e1bc 4d22 083d f130 b43c
00000160: 9f01 a13d bc5b 81bd fa25 df3d 9d9f 183e
00000170: a4c6 dc3c c333 f33b aaa6 323e 2a61 033e
00000180: e68b 983e ce09 c83a 50c6 d23d 748d e1bc
00000190: 3d15 af3d 8402 a53c b396 b63d f1ff 4bbd
000001a0: 8029 f83d 4c79 92bd ab42 fd3c 8a33 3d3e
000001b0: 0d5d a53d 8938 d73d cf9b a9bd 0fc7 4a3e
000001c0: e81b 913d 8574 f5bc 0eaf c13d 45eb a63e
000001d0: 3576 96bd b48d f93d d4c6 58bd 7a91 6a3e
000001e0: 5967 fc3d bcfd c93d 3779 f23b a612 343d
000001f0: 71a7 803c 0b81 5a3e c489 13be 0672 5dbd

bn1.running_mean f4 [128]
1.8845035 0.1908603 0.09559365 0.24658069 0.47729343 0.23602787 0.18492046 0.3507792
0.44944867 0.24371512 0.16553038 0.2528522 0.24190791 0.101527855 0.09475858 0.48320118
0.20380777 0.19377351 0.16867584 0.36580506 0.46019918 0.08250533 0.3486743 0.117482975
0.17717598 0.15965992 0.22836275 0.2278506 0.4188609 0.40198642 0.2743534 0.29326537
0.18537474 0.18574089 1.1497611 0.07372782 0.55386966 0.2426154 0.1413199 0.19441749
0.18831477 0.75989616 0.065931134 0.02281658 0.4145663 0.38557366 0.16590546 0.06534949
0.48440245 0.4862938 0.33907223 0.49556544 0.21858059 0.110611364 0.23815891 0.75176996
0.4843774 1.0447768 0.6071298 0.56149435 0.31972456 0.38241258 0.15567698 0.1726877
0.062000353 0.14254385 0.13783824 0.3906709 0.18320352 0.44686136 0.11786688 0.09351894
0.24569342 0.08448325 0.35490352 0.35309398 0.18309157 0.17992066 0.028900253 0.07283984
0.13046409 0.12022822 0.38076133 0.5702401 0.12600039 0.118173294 0.9181352 0.7750742
0.3938186 0.24676828 0.21536085 0.517266 0.04224783 0.3452465 0.09206801 0.5943461
0.31235325 0.09737512 0.1513385 0.5345324 0.114613205 0.10546186 1.157145 0.27157944
0.73670226 0.20731778 0.4705951 0.18226571 0.3786725 0.3562768 0.08975346 0.74573094
0.20227562 0.5302633 0.45663407 0.26537406 0.22612897 0.6455844 0.34999302 0.20239945
0.4288254 0.11017845 0.47897068 0.15401748 0.6391088 0.3201386 0.33026335 0.31979877
00000000: 6937 f13f e270 433e 9bc6 c33d a67f 7c3e
00000010: ce5f f43e 4ab1 713e ca5b 3d3e 5599 b33e
00000020: 231e e63e 7590 793e cc80 293e d875 813e
00000030: b5b6 773e d6ed cf3d c910 c23d 2566 f73e
00000040: fcb2 503e 906c 463e 5cb9 2c3e cd4a bb3e
00000050: 3a9f eb3e 8ef8 a83d 7085 b23e ea9a f03d
00000060: 9f6d 353e e47d 233e edd7 693e ab51 693e
00000070: f074 d63e 2ad1 cd3e 0d78 8c3e e126 963e
00000080: e0d2 3d3e dc32 3e3e 5f2b 933f 9cfe 963d
00000090: 67ca 0d3f 2c70 783e 2ab6 103e 6115 473e
000000a0: 96d5 403e 8e88 423f e706 873d d6e9 ba3c
000000b0: 0942 d43e e969 c53e 1fe3 293e f4d5 853d
000000c0: 9903 f83e 80fb f83e e09a ad3e c1ba fd3e
000000d0: 97d3 5f3e 3688 e23d eedf 733e ff73 403f
000000e0: 5100 f83e 3fbb 853f dc6c 1b3f 18be 0f3f
000000f0: f0b2 a33e 95cb c33e c969 1f3e 0bd5 303e
00000100: 15f4 7d3d 04f7 113e 7825 0d3e 0406 c83e
00000110: b499 3b3e 03cb e43e 3164 f13d dc86 bf3d
00000120: 0e97 7b3e 8e05 ad3d eab5 b53e bcc8 b43e
00000130: 5b7c 3b3e 1f3d 383e 39c0 ec3c 0e2d 953d
00000140: 6198 053e 373a f63d 26f3 c23e 41fb 113f
00000150: 3f06 013e d704 f23d e90a 6b3f 436b 463f
00000160: 97a2 c93e d3b0 7c3e 8e87 5c3e 8b6b 043f
00000170: 100c 2d3d 26c4 b03e 278e bc3d 1127 183f
00000180: c4ec 9f3e 9b6c c73d 7bf8 1a3e 1ed7 083f
00000190: 54ba ea3d 63fc d73d 541d 943f 760c 8b3e
000001a0: 8598 3c3f 1d4b 543e d7f1 f03e dda3 3a3e
000001b0: 5de1 c13e ea69 b63e a9d0 b73d 39e8 3e3f
000001c0: 5721 4f3e 56bf 073f f1cb e93e 1cdf 873e
000001d0: 5a8e 673e 0545 253f 4932 b33e cd41 4f3e
000001e0: 018f db3e 3da5 e13d a53b f53e c2b6 1d3e
000001f0: a29c 233f 35e9 a33e 4718 a93e aabc a33e

bn1.running_var f4 [128]
0.3702823 0.08270222 0.046081193 0.13610654 0.5134119 0.17462419 0.1395812 0.29790837
0.5391054 0.11226529 0.10575415 0.2155548 0.16890173 0.05741867 0.054612916 0.21873267
0.16140561 0.0990093 0.13539018 0.22629023 0.43445837 0.033278294 0.25023833 0.07069734
0.14463969 0.079566486 0.18995966 0.20758383 0.47328794 0.32381362 0.16426888 0.18604816
0.20992585 0.16646281 0.4834109 0.048244666 0.5028128 0.1873014 0.09413124 0.16385542
0.14889552 0.47675756 0.031776942 0.023690447 0.38629544 0.42190945 0.065238826 0.02457615
0.305746 0.38561323 0.20982127 0.37102836 0.15581568 0.06492305 0.13392013 0.5101447
0.42409745 0.3227585 0.64280033 0.59259254 0.279041 0.35923952 0.10953757 0.14733233
0.04399181 0.1040843 0.11836899 0.28838012 0.15988003 0.23068482 0.07743939 0.0526651
0.15289962 0.054207813 0.17580006 0.32898173 0.16301687 0.109288625 0.018097797 0.041406646
0.087935165 0.08504298 0.26451862 0.65828747 0.08231417 0.07227382 0.9543902 0.7086553
0.29744706 0.1888492 0.18034813 0.49951416 0.026582645 0.47488984 0.045145158 0.5043393
0.17356929 0.08381737 0.08398014 0.3471959 0.06696314 0.06497125 0.34801653 0.14843413
0.6254277 0.17381367 0.538646 0.10568806 0.36932904 0.17632607 0.059694357 0.62175274
0.13553634 0.59107614 0.3391398 0.22390412 0.17797472 0.33605486 0.28393474 0.13717988
0.18354157 0.10523887 0.32850015 0.096167766 0.49330556 0.17497866 0.26962012 0.29621646
00000000: a495 bd3e c85f a93d a2bf 3c3d 835f 0b3e
00000010: f66e 033f afd0 323e 60ee 0e3e 7287 983e
00000020: d002 0a3f 58eb e53d a295 d83d 66ba 5c3e
00000030: 93f4 2c3e d72f 6b3d cbb1 5f3d 75fb 5f3e
00000040: 8347 253e 63c5 ca3d b9a3 0a3e a0b8 673e
00000050: 5471 de3e d24e 083d 3d1f 803e c4c9 903d
00000060: 6d1c 143e c1f3 a23d c984 423e db90 543e
00000070: cc52 f23e e6ca a53e 1a36 283e 6983 3e3e
00000080: cdf6 563e 3a75 2a3e a281 f73e 339c 453d
00000090: 57b8 003f f0cb 3f3e e1c7 c03d b7c9 273e
000000a0: 1178 183e 9119 f43e 8a28 023d 7812 c23c
000000b0: 84c8 c53e 8404 d83e ef9b 853d ec53 c93c
000000c0: bd8a 9c3e 196f c53e 63db 563e 6ef7 bd3e
000000d0: 258e 1f3e 60f6 843d 5c22 093e d898 023f
000000e0: 4d23 d93e 9a40 a53e 908e 243f 25b4 173f
000000f0: 76de 8e3e 3eee b73e 3c55 e03d 49de 163e
00000100: c230 343d 262a d53d 716b f23d 8fa6 933e
00000110: 97b7 233e a438 6c3e 8b98 9e3d 5cb7 573d
00000120: b891 1c3e 0309 5e3d ee04 343e 4b70 a83e
00000130: e5ed 263e b7d2 df3d d541 943c 049a 293d
00000140: 5a17 b43d 042b ae3d fc6e 873e 8785 283f
00000150: 5594 a83d 4c04 943d eb52 743f 6f6a 353f
00000160: fb4a 983e af61 413e 2ead 383e 52c0 ff3e
00000170: d9c3 d93c c324 f33e 21ea 383d 611c 013f
00000180: 26bc 313e 71a8 ab3d c8fd ab3d a9c3 b13e
00000190: f923 893d a60f 853d 392f b23e 1eff 173e
000001a0: 081c 203f 36fc 313e b4e4 093f fb72 d83d
000001b0: b218 bd3e d28e 343e 1282 743d 302b 1f3f
000001c0: 0aca 0a3e c450 173f bba3 ad3e 1f47 653e
000001d0: 013f 363e 620f ac3e e55f 913e e278 0c3e
000001e0: 52f2 3b3e 7a87 d73d 2c31 a83e 9bf3 c43d
000001f0: 8c92 fc3e 9b2d 333e a60b 8a3e afa9 973e

bn2.weight f4 [128]
0.3240605 0.46559888 0.84010094 0.8377204 0.9630798 0.4635877 0.43235546 0.99542
0.7403727 0.6820967 0.11288446 0.112297714 0.50767547 0.5849369 0.55625206 0.06367308
0.18982989 0.548564 0.21544963 0.57342374 0.79648435 0.075172186 0.055806458 0.6947206
0.7913517 0.7010626 0.9931345 0.03601122 0.68885636 0.93601257 0.108888686 0.08171797
0.6705178 0.015227139 0.02351296 0.08734465 0.03287989 0.84641916 0.65755314 0.04890406
0.32775915 0.67312205 0.12404311 0.0580011 0.7819741 0.35411084 0.4595188 0.24183136
0.26701218 0.9983392 0.14742285 0.5761382 0.9838505 0.69668597 0.28241628 0.5708685
0.85956585 0.6514165 0.15176213 0.5037936 0.6394811 0.6267832 0.5848215 0.7250184
0.14721358 0.14293283 0.9212914 0.9618673 0.964194 0.23446739 0.077055275 0.33460152
0.9364512 0.3847291 0.97239935 0.19460559 0.42574382 0.61006373 0.28635585 0.82470393
0.88948596 0.5018054 0.4873671 0.8190478 0.92119485 0.043577373 0.87369335 0.18881541
0.18490845 0.19199848 0.82754475 0.022669613 0.6182895 0.63736206 0.541255 0.74450064
0.45707303 0.053277194 0.2558964 0.85476 0.022179365 0.37069124 0.98135847 0.19315237
0.4867264 0.61564416 0.845772 0.6552321 0.34617347 0.5202803 0.5826643 0.8781022
0.18566144 0.7350441 0.9185348 0.34141618 0.5943391 0.41680437 0.27386105 0.24201149
0.166269 0.2676921 0.42038745 0.23337984 0.23826677 0.4581359 0.61382276 0.8880399
00000000: 42eb a53e fa62 ee3e db10 573f d874 563f
00000010: 668c 763f 5e5b ed3e b25d dd3e d8d3 7e3f
00000020: 1189 3d3f e49d 2e3f f82f e73d 58fc e53d
00000030: 05f7 013f 6dbe 153f 8966 0e3f 0867 823d
00000040: c462 423e b16e 0c3f d49e 5c3e e6cb 123f
00000050: 66e6 4b3f e0f3 993d 5095 643d 36d9 313f
00000060: 0696 4a3f d778 333f 103e 7e3f 8080 133d
00000070: e458 303f 859e 6f3f 0801 df3d c05b a73d
00000080: 0ea7 2b3f 407b 793c 409e c03c c0e1 b23d
00000090: 10ad 063d edae 583f 6755 283f a04f 483d
000000a0: 0cd0 a73e ba51 2c3f 500a fe3d 9092 6d3d
000000b0: 742f 483f 044e b53e 0c46 eb3e a4a2 773e
000000c0: d2b5 883e 2893 7f3f 04f6 163e cb7d 133f
000000d0: a0dd 7b3f 035a 323f de98 903e 7024 123f
000000e0: 820c 5c3f 3bc3 263f 8867 1b3e 9ef8 003f
000000f0: 09b5 233f dd74 203f ddb6 153f ce9a 393f
00000100: 28bf 163e fc5c 123e c1d9 6b3f ef3c 763f
00000110: 6bd5 763f 3818 703e 28cf 9d3d e450 ab3e
00000120: 44bb 6f3f 36fb c43e 2aef 783f b046 473e
00000130: 18fb d93e 232d 1c3f 3c9d 923e cc1f 533f
00000140: 5ab5 633f 5276 003f 2e88 f93e 1ead 513f
00000150: 6dd3 6b3f 307e 323d 5eaa 5f3f d458 413e
00000160: a458 3d3e 409b 443e f9d9 533f a0b5 b93c
00000170: 3848 1e3f 292a 233f b08f 0a3f 9897 3e3f
00000180: 7a05 ea3e 3039 5a3d da04 833e 8dd1 5a3f
00000190: 80b1 b53c 3ecb bd3e 4f3a 7b3f bcc9 453e
000001a0: 3434 f93e db9a 1d3f 8484 583f 4abd 273f
000001b0: a63d b13e 1731 053f 7d29 153f 4ecb 603f
000001c0: 081e 3e3e da2b 3c3f 1925 6b3f 1ace ae3e
000001d0: 9b26 183f 6267 d53e 8437 8c3e dcd1 773e
000001e0: 6c42 2a3e f00e 893e 063d d73e 20fb 6e3e
000001f0: 34fc 733e ca90 ea3e 7d23 1d3f 9556 633f

bn2.bias f4 [128]
0.0 0.0 0.0 0.0 0.0 0.0 0.0 0.0
0.0 0.0 0.0 0.0 0.0 0.0 0.0 0.0
0.0 0.0 0.0 0.0 0.0 0.0 0.0 0.0
0.0 0.0 0.0 0.0 0.0 0.0 0.0 0.0
0.0 0.0 0.0 0.0 0.0 0.0 0.0 0.0
0.0 0.0 0.0 0.0 0.0 0.0 0.0 0.0
0.0 0.0 0.0 0.0 0.0 0.0 0.0 0.0
0.0 0.0 0.0 0.0 0.0 0.0 0.0 0.0
0.0 0.0 0.0 0.0 0.0 0.0 0.0 0.0
0.0 0.0 0.0 0.0 0.0 0.0 0.0 0.0
0.0 0.0 0.0 0.0 0.0 0.0 0.0 0.0
0.0 0.0 0.0 0.0 0.0 0.0 0.0 0.0
0.0 0.0 0.0 0.0 0.0 0.0 0.0 0.0
0.0 0.0 0.0 0.0 0.0 0.0 0.0 0.0
0.0 0.0 0.0 0.0 0.0 0.0 0.0 0.0
0.0 0.0 0.0 0.0 0.0 0.0 0.0 0.0
00000000: 0000 0000 0000 0000 0000 0000 0000 0000
00000010: 0000 0000 0000 0000 0000 0000 0000 0000
00000020: 0000 0000 0000 0000 0000 0000 0000 0000
00000030: 0000 0000 0000 0000 0000 0000 0000 0000
00000040: 0000 0000 0000 0000 0000 0000 0000 0000
00000050: 0000 0000 0000 0000 0000 0000 0000 0000
00000060: 0000 0000 0000 0000 0000 0000 0000 0000
00000070: 0000 0000 0000 0000 0000 0000 0000 0000
00000080: 0000 0000 0000 0000 0000 0000 0000 0000
00000090: 0000 0000 0000 0000 0000 0000 0000 0000
000000a0: 0000 0000 0000 0000 0000 0000 0000 0000
000000b0: 0000 0000 0000 0000 0000 0000 0000 0000
000000c0: 0000 0000 0000 0000 0000 0000 0000 0000
000000d0: 0000 0000 0000 0000 0000 0000 0000 0000
000000e0: 0000 0000 0000 0000 0000 0000 0000 0000
000000f0: 0000 0000 0000 0000 0000 0000 0000 0000
00000100: 0000 0000 0000 0000 0000 0000 0000 0000
00000110: 0000 0000 0000 0000 0000 0000 0000 0000
00000120: 0000 0000 0000 0000 0000 0000 0000 0000
00000130: 0000 0000 0000 0000 0000 0000 0000 0000
00000140: 0000 0000 0000 0000 0000 0000 0000 0000
00000150: 0000 0000 0000 0000 0000 0000 0000 0000
00000160: 0000 0000 0000 0000 0000 0000 0000 0000
00000170: 0000 0000 0000 0000 0000 0000 0000 0000
00000180: 0000 0000 0000 0000 0000 0000 0000 0000
00000190: 0000 0000 0000 0000 0000 0000 0000 0000
000001a0: 0000 0000 0000 0000 0000 0000 0000 0000
000001b0: 0000 0000 0000 0000 0000 0000 0000 0000
000001c0: 0000 0000 0000 0000 0000 0000 0000 0000
000001d0: 0000 0000 0000 0000 0000 0000 0000 0000
000001e0: 0000 0000 0000 0000 0000 0000 0000 0000
000001f0: 0000 0000 0000 0000 0000 0000 0000 0000

bn2.running_mean f4 [128]
0.0 0.0 0.0 0.0 0.0 0.0 0.0 0.0
0.0 0.0 0.0 0.0 0.0 0.0 0.0 0.0
0.0 0.0 0.0 0.0 0.0 0.0 0.0 0.0
0.0 0.0 0.0 0.0 0.0 0.0 0.0 0.0
0.0 0.0 0.0 0.0 0.0 0.0 0.0 0.0
0.0 0.0 0.0 0.0 0.0 0.0 0.0 0.0
0.0 0.0 0.0 0.0 0.0 0.0 0.0 0.0
0.0 0.0 0.0 0.0 0.0 0.0 0.0 0.0
0.0 0.0 0.0 0.0 0.0 0.0 0.0 0.0
0.0 0.0 0.0 0.0 0.0 0.0 0.0 0.0
0.0 0.0 0.0 0.0 0.0 0.0 0.0 0.0
0.0 0.0 0.0 0.0 0.0 0.0 0.0 0.0
0.0 0.0 0.0 0.0 0.0 0.0 0.0 0.0
0.0 0.0 0.0 0.0 0.0 0.0 0.0 0.0
0.0 0.0 0.0 0.0 0.0 0.0 0.0 0.0
0.0 0.0 0.0 0.0 0.0 0.0 0.0 0.0
00000000: 0000 0000 0000 0000 0000 0000 0000 0000
00000010: 0000 0000 0000 0000 0000 0000 0000 0000
00000020: 0000 0000 0000 0000 0000 0000 0000 0000
00000030: 0000 0000 0000 0000 0000 0000 0000 0000
00000040: 0000 0000 0000 0000 0000 0000 0000 0000
00000050: 0000 0000 0000 0000 0000 0000 0000 0000
00000060: 0000 0000 0000 0000 0000 0000 0000 0000
00000070: 0000 0000 0000 0000 0000 0000 0000 0000
00000080: 0000 0000 0000 0000 0000 0000 0000 0000
00000090: 0000 0000 0000 0000 0000 0000 0000 0000
000000a0: 0000 0000 0000 0000 0000 0000 0000 0000
000000b0: 0000 0000 0000 0000 0000 0000 0000 0000
000000c0: 0000 0000 0000 0000 0000 0000 0000 0000
000000d0: 0000 0000 0000 0000 0000 0000 0000 0000
000000e0: 0000 0000 0000 0000 0000 0000 0000 0000
000000f0: 0000 0000 0000 0000 0000 0000 0000 0000
00000100: 0000 0000 0000 0000 0000 0000 0000 0000
00000110: 0000 0000 0000 0000 0000 0000 0000 0000
00000120: 0000 0000 0000 0000 0000 0000 0000 0000
00000130: 0000 0000 0000 0000 0000 0000 0000 0000
00000140: 0000 0000 0000 0000 0000 0000 0000 0000
00000150: 0000 0000 0000 0000 0000 0000 0000 0000
00000160: 0000 0000 0000 0000 0000 0000 0000 0000
00000170: 0000 0000 0000 0000 0000 0000 0000 0000
00000180: 0000 0000 0000 0000 0000 0000 0000 0000
00000190: 0000 0000 0000 0000 0000 0000 0000 0000
000001a0: 0000 0000 0000 0000 0000 0000 0000 0000
000001b0: 0000 0000 0000 0000 0000 0000 0000 0000
000001c0: 0000 0000 0000 0000 0000 0000 0000 0000
000001d0: 0000 0000 0000 0000 0000 0000 0000 0000
000001e0: 0000 0000 0000 0000 0000 0000 0000 0000
000001f0: 0000 0000 0000 0000 0000 0000 0000 0000

bn2.running_var f4 [128]
1.0 1.0 1.0 1.0 1.0 1.0 1.0 1.0
1.0 1.0 1.0 1.0 1.0 1.0 1.0 1.0
1.0 1.0 1.0 1.0 1.0 1.0 1.0 1.0
1.0 1.0 1.0 1.0 1.0 1.0 1.0 1.0
1.0 1.0 1.0 1.0 1.0 1.0 1.0 1.0
1.0 1.0 1.0 1.0 1.0 1.0 1.0 1.0
1.0 1.0 1.0 1.0 1.0 1.0 1.0 1.0
1.0 1.0 1.0 1.0 1.0 1.0 1.0 1.0
1.0 1.0 1.0 1.0 1.0 1.0 1.0 1.0
1.0 1.0 1.0 1.0 1.0 1.0 1.0 1.0
1.0 1.0 1.0 1.0 1.0 1.0 1.0 1.0
1.0 1.0 1.0 1.0 1.0 1.0 1.0 1.0
1.0 1.0 1.0 1.0 1.0 1.0 1.0 1.0
1.0 1.0 1.0 1.0 1.0 1.0 1.0 1.0
1.0 1.0 1.0 1.0 1.0 1.0 1.0 1.0
1.0 1.0 1.0 1.0 1.0 1.0 1.0 1.0
00000000: 0000 803f 0000 803f 0000 803f 0000 803f
00000010: 0000 803f 0000 803f 0000 803f 0000 803f
00000020: 0000 803f 0000 803f 0000 803f 0000 803f
00000030: 0000 803f 0000 803f 0000 803f 0000 803f
00000040: 0000 803f 0000 803f 0000 803f 0000 803f
00000050: 0000 803f 0000 803f 0000 803f 0000 803f
00000060: 0000 803f 0000 803f 0000 803f 0000 803f
00000070: 0000 803f 0000 803f 0000 803f 0000 803f
00000080: 0000 803f 0000 803f 0000 803f 0000 803f
00000090: 0000 803f 0000 803f 0000 803f 0000 803f
000000a0: 0000 803f 0000 803f 0000 803f 0000 803f
000000b0: 0000 803f 0000 803f 0000 803f 0000 803f
000000c0: 0000 803f 0000 803f 0000 803f 0000 803f
000000d0: 0000 803f 0000 803f 0000 803f 0000 803f
000000e0: 0000 803f 0000 803f 0000 803f 0000 803f
000000f0: 0000 803f 0000 803f 0000 803f 0000 803f
00000100: 0000 803f 0000 803f 0000 803f 0000 803f
00000110: 0000 803f 0000 803f 0000 803f 0000 803f
00000120: 0000 803f 0000 803f 0000 803f 0000 803f
00000130: 0000 803f 0000 803f 0000 803f 0000 803f
00000140: 0000 803f 0000 803f 0000 803f 0000 803f
00000150: 0000 803f 0000 803f 0000 803f 0000 803f
00000160: 0000 803f 0000 803f 0000 803f 0000 803f
00000170: 0000 803f 0000 803f 0000 803f 0000 803f
00000180: 0000 803f 0000 803f 0000 803f 0000 803f
00000190: 0000 803f 0000 803f 0000 803f 0000 803f
000001a0: 0000 803f 0000 803f 0000 803f 0000 803f
000001b0: 0000 803f 0000 803f 0000 803f 0000 803f
000001c0: 0000 803f 0000 803f 0000 803f 0000 803f
000001d0: 0000 803f 0000 803f 0000 803f 0000 803f
000001e0: 0000 803f 0000 803f 0000 803f 0000 803f
000001f0: 0000 803f 0000 803f 0000 803f 0000 803f
