checkpoint_critic_final.pth (torch_old, 91983 bytes, 13 tensors)

fcs1.weight f4 [128, 33]
00000000: f856 5ebd 6da9 83be 56dd c43d 4457 e5be
00000010: 7fee dbbc e877 923d a427 b83c 5572 943c
00000020: c038 593d 3720 b1bd 682c 473c 01ec 40bd
00000030: 0cd3 743d 87ab 453d 9e56 2f3e 20a3 5f3d
00000040: 9e0f 783e 3091 7f3e f00b 0dbe b86b 103f
00000050: 3ce3 663d f9e3 a0bd 7eb7 8abd a1a4 ddbc
00000060: 4876 823c 8dd5 89bd bd57 83bc 8edf d8bd
00000070: ec00 adbd 0ce7 0d3d df8f 903d 6a8a 86bd
00000080: c294 ddbc 61d3 f73b e31a e9bc b050 fc3c
00000090: 51ea 903d 583c 41be bf01 013e e8a2 933c
000000a0: 2375 573c f170 d7bc 9012 d1bb 91be bbbb
000000b0: 6c91 59bc 2f4c 343b 3ca8 3f3c ff28 ca3b
000000c0: 1f23 a2bc 05cd b33d 3f0e cd3d 80ab 863e
000000d0: 1508 b23c f57e afbb b3fb 5bbb 3ec9 c63c
000000e0: 2044 a73b 8c57 ffba 3a44 7a3b 2649 983c
000000f0: cd86 cc3d 963e 9c3d 6604 0f3d 3a4a 80bc
00000100: 2275 2f3d 9ed2 a7bf 69ab 813e b59d 013e
00000110: 181c 57bd 3495 15be eef6 c9bd 364a 38be
00000120: a205 23bd 06e3 783c ddce 8bbc 0b67 9e3d
00000130: 5b7b 053c 590d 413d ba20 cbbb 7664 92be
00000140: f403 4ebd 8fd6 723d c146 843d 3b90 02be
00000150: 0699 d6bc e919 7d3d 22b0 babc 84c0 f3bc
00000160: d278 1cbd 7b37 83bd 1eb2 1dbd 3686 813c
00000170: 87f6 163e e251 60bd 5408 6dbc 16eb 463d
00000180: bf73 923d e5ec ad3d 118e 5ebd 0f81 8b3d
00000190: 74ea 0d3d a9b6 d3bd 2068 133e c9f0 fabd
000001a0: b055 15be b7c2 66be a44b 2b3d 79c3 863d
000001b0: 8e16 7bbe 54be bd3c e4c6 55bb 70f0 8bbd
000001c0: 3e2c 9ebd 6941 353d 3034 ca3d 22cb 293d
000001d0: ceeb 443e fb18 03be c031 b3bd 887c 92bb
000001e0: 499f ae3c 4c27 dfbc 0368 4fbd 13a8 953d
000001f0: dde2 1f3e b4f7 d73d f571 683e 04a9 cb3d
00000200: 4077 983b e251 12be aa26 753d 1fc0 3b3f
00000210: c074 32bd 9d89 f4bd 74cb aebd 0ce9 cb3d
00000220: 8d89 7e3e e2c0 1dbe fda9 f0be 22d9 5c3d
00000230: a3f3 263e 2164 6ebe c6b5 653c 3ce6 b1bd
00000240: 9700 a5bc a13f f8bc bcb6 d03d 0ed0 05bd
00000250: ed5b 053f d78a 96bb b8d3 74be c2fc c03d
00000260: 36ec 07bd b5ea abbb 1f8e 553d b877 3a3e
00000270: 98fd 90bd 969c b83d 50e3 7a3d 4afb 643e
00000280: 74c2 403e edca 89bd 36f6 4bbe cb15 b13d
00000290: 391a fd3d 03ce d7bc 7def 9f3d b704 ad3b
000002a0: 1fa3 3f3f d0ce e5bd f87f 533e d5ff 633c
000002b0: 768b d53d 7906 f73c f5e8 543c 7c7c acba
000002c0: e626 80bd 6291 c63c baef 823d a0cd 4dbd
000002d0: 525d 05b9 01e3 4fbe 2cbb c8bd 504f e43e
000002e0: 3e46 b0be 336c 853c 9415 8b3d 436b 743c
000002f0: f50f bf3d e266 1a3b 5876 44bb 0d31 2dbd
00000300: 5884 193e bde3 99bc 72db 39bd fb36 58bd
00000310: ac03 89bc 2360 0dbf eb53 12be 6c8b a73c
00000320: a586 b8bd 247c a7be 283e cbbd 2bc2 f53b
00000330: abf6 b83d 3fac 04be 0579 15be 1861 1b3d
00000340: b5f0 b1bc 9ecd 473c c5ef 25bd 8138 bc3d
00000350: 958d 71bd a40a d6ba 678f 67be 4027 15bc
00000360: b23f 203f 1029 aebe d476 2e3b 467e 4fbc
00000370: 786e 123d 66c3 7ebc 5f22 6cb9 72ce 6d3d
00000380: f2b3 51bd cd07 673e 9b49 423e 1184 b43d
00000390: ead8 ccbd dea5 5d3d 6a63 52be 4a0a 03bb
000003a0: 00c6 b13d 7b22 983d ecae bfbd 628d e23d
000003b0: d7c0 18bf 3cb2 7abd ff0d e33a e362 d83c
000003c0: 84ba 19bd 8d28 58bc f280 453d 8efe e53c
000003d0: b0fa c33b 5c3e a5bd 6a53 b0bd ce5a acbe
000003e0: 30ba 193f 0fe3 a6bd 7e24 e53d 8d91 b53b
000003f0: 472c 4dbc cb19 b33c af87 183d 7c3b 6c3c
-0.05428216 -0.257152 0.09612529 -0.4479314 -0.026847122 0.071517766 0.02247984 0.018120924
0.053032637 -0.086487226 0.012156583 -0.04710007 0.059771582 0.048259284 0.17122886 0.054598927
0.24224707 0.24957728 -0.13774085 0.56414366 0.05636905 -0.07855982 -0.067732796 -0.02705604
0.015925542 -0.06730185 -0.016033048 -0.10589515 -0.084474415 0.03464417 0.07058691 -0.06569369
-0.027048472 0.00756304 -0.028455203 0.030800194 0.07075942 -0.18870676 0.12598322 0.018022016
0.013150486 -0.026298972 -0.0063803867 -0.0057295044 -0.0132793 0.002751123 0.011697825 0.006169438
-0.019792138 0.08779339 0.10012483 0.2630272 0.02173237 -0.0053557106 -0.0033566772 0.024265882
0.0051045567 -0.0019481047 0.003818764 0.018589567 0.09986649 0.07629125 0.034916304 -0.015660394
0.042836316 -1.311115 0.25326088 0.12657817 -0.052517027 -0.14607698 -0.09861551 -0.17997059
-0.039800294 0.015190845 -0.017066414 0.07734498 0.008147086 0.04713187 -0.0061989697 -0.2859227
-0.05029674 0.05928665 0.06458808 -0.12750332 -0.026196014 0.061792288 -0.022789065 -0.029754885
-0.03820116 -0.064070664 -0.038499944 0.015811067 0.1474248 -0.05476559 -0.014467318 0.04856404
0.07150983 0.0849245 -0.054334704 0.06811725 0.03464742 -0.10337574 0.1439519 -0.122529574
-0.14583468 -0.22535215 0.041820183 0.06580252 -0.24520323 0.023162045 -0.0032619769 -0.06832969
-0.07723282 0.044251833 0.09873235 0.04145349 0.19230577 -0.12802498 -0.087497234 -0.0044704117
0.021316187 -0.027240418 -0.050636303 0.07307448 0.15613885 0.105452925 0.22699721 0.099443465
0.0046528876 -0.14289048 0.059851326 0.7334003 -0.043568373 -0.1194031 -0.08534899 0.099565595
0.24857159 -0.1540561 -0.4700469 0.05391801 0.16303878 -0.23280384 0.014020389 -0.08686492
-0.020141883 -0.030303778 0.10191104 -0.03266912 0.5209339 -0.0045941877 -0.2390889 0.0942321
-0.033184253 -0.005246485 0.05213749 0.18209732 -0.07079619 0.090142414 0.06125194 0.22361484
0.18824178 -0.06728158 -0.19918141 0.08646735 0.12358517 -0.026343351 0.07809351 0.005280103
0.7485828 -0.11221087 0.20654285 0.013915976 0.10426991 0.030154454 0.012994994 -0.0013159658
-0.06257419 0.024239246 0.063933805 -0.050244927 -0.00012718633 -0.20301439 -0.09801325 0.4459176
-0.3442859 0.016286945 0.06791225 0.014918151 0.093292154 0.0023559858 -0.0029977765 -0.042283107
0.14991891 -0.018785352 -0.045375295 -0.05278681 -0.016725384 -0.5522482 -0.14289825 0.020452224
-0.090100564 -0.327119 -0.09923965 0.0074999533 0.09031423 -0.12956332 -0.14596947 0.037934393
-0.021721223 0.012195019 -0.040511865 0.09190465 -0.058972914 -0.0016330075 -0.22613297 -0.009103596
0.6259719 -0.34015703 0.002662112 -0.012664383 0.035749882 -0.015549516 -0.00022519518 0.05805821
-0.051197 0.2256157 0.18973391 0.08814252 -0.100023106 0.05411326 -0.20545736 -0.0019995146
0.08680344 0.07428452 -0.093595356 0.11062123 -0.5966925 -0.061205134 0.0017322897 0.02641434
-0.03753139 -0.013193262 0.048218675 0.028075483 0.005980812 -0.08068535 -0.0860966 -0.33663028
0.60049725 -0.08148777 0.11188601 0.0055410326 -0.012522764 0.021862885 0.037238773 0.014418479

fcs1.bias f4 [128]
00000000: 9add af3c 5dac 2ebe ed5b 0fbd 6d90 e2bd
00000010: 31ea 45be 9446 ffbd a860 6cbe 5ff4 9fbe
00000020: 0f1a 03be 36ea 84be 9d49 49bd 96ee 1b3d
00000030: f8eb 73be 5fb7 a0be 73b6 edbd b3ed 3e3e
00000040: 9f89 433e c694 5fbe dae8 a2be 6daa 34be
00000050: ed82 d4bc b94a acbb e378 a1be 2bba 8c3d
00000060: ab57 b5bd 5aa4 363d 78f5 fbbd 6558 e9bd
00000070: 8098 acbd 878b fbbb 4668 5fbd e0a3 56be
00000080: c3e2 73be e277 5ebe 76a5 3dbe fe90 febd
00000090: 3455 03be 79d3 60be 8cd1 d0bd cee5 20be
000000a0: e37e 163e 5697 06bd 17ac b0be e08e 85bd
000000b0: 0f37 b8bd e38b 293d 202b e7bd 216f 44bd
000000c0: 7138 81bd e3e1 86bc 1236 4abb 1313 3cbe
000000d0: 66bb 703d 0ccc fdbd 0100 393d fa77 efbd
000000e0: 024c 75bd 0a4d 673d 4257 dabd 09fd 8ebe
000000f0: 3545 3dbe 779f 443d fab3 6fbd 74b3 8ebe
00000100: 5971 f7bd 20a1 57bc ee94 cbbd 612f 9fbd
00000110: e5b8 12bd 59a8 93bd b349 b5bd eb81 263e
00000120: fd6a c73d b5d5 70b9 6cf6 39be 07e2 ec3c
00000130: f666 8cbd 9817 f4bd b2fb 51be 82b0 3f3d
00000140: 7803 78bd e3ec d63c 0a39 4cbd d45d 1fbe
00000150: d75f 95bc d4bb 443e d141 a83d 8050 7ebe
00000160: 5f1e 463e efa6 1bbd 6b51 bdbd 05f6 003d
00000170: 4e2b 5cbe c37b 3b3e 6802 85bd 597c 81bd
00000180: 75e0 eabe 2495 44bd 2555 aabe e9c0 16be
00000190: 0957 c1be 5a26 7fbd 8d20 a3bd 49b0 30be
000001a0: a4ae 57be 4fd7 c13c e68b 9e3d 8ca3 bd3d
000001b0: 247e 4d3e c2ea 92bd 25a2 413c cf36 b4be
000001c0: 274e 85bd 3556 52be db0f 57be ff03 01be
000001d0: eae2 edbd 427b 3bbe 7390 1abe 67a3 dfbd
000001e0: e043 7e3d 4ee8 0bbe 38b6 55be 96c8 27be
000001f0: 3e70 00be 4633 3abe aeca 90be d9db 2dbc
0.021467973 -0.17057939 -0.034999777 -0.11062703 -0.19327618 -0.124646336 -0.23083746 -0.31241128
-0.1280291 -0.2595994 -0.04914247 0.03806933 -0.23820484 -0.313899 -0.11607065 0.18645363
0.19095467 -0.21834096 -0.31818277 -0.17643137 -0.025941337 -0.005257931 -0.31537542 0.06871446
-0.08854612 0.04459033 -0.12302679 -0.11393813 -0.084275246 -0.007676545 -0.054542802 -0.20960951
-0.23816971 -0.21725419 -0.1852015 -0.12429999 -0.12825471 -0.2195567 -0.10196218 -0.15712664
0.14696841 -0.03285917 -0.34506294 -0.06521392 -0.089948766 0.041393172 -0.11287522 -0.047957543
-0.063095935 -0.016465133 -0.0030854982 -0.18366651 0.058772467 -0.123924345 0.04516602 -0.116928056
-0.05988694 0.056469955 -0.10661174 -0.27927426 -0.18483432 0.04800364 -0.05852125 -0.27871287
-0.12082166 -0.013160974 -0.099405155 -0.07772709 -0.03582086 -0.07209844 -0.08851948 0.16260497
0.09737203 -0.00022967796 -0.18160409 0.028916372 -0.06855576 -0.11918563 -0.2050617 0.04679919
-0.060550183 0.026236003 -0.049859084 -0.15563136 -0.018234177 0.19212276 0.082156785 -0.24835396
0.19347523 -0.038000997 -0.09244045 0.031484623 -0.21500894 0.1830893 -0.064945996 -0.063225456
-0.45874372 -0.047993794 -0.33268085 -0.14722027 -0.37761715 -0.062292434 -0.07965193 -0.17254747
-0.21062714 0.023662237 0.07741527 0.0925971 0.2006765 -0.07173683 0.011818443 -0.35198066
-0.06509047 -0.20540698 -0.21002142 -0.1259918 -0.11615546 -0.18308738 -0.15094166 -0.109198384
0.06207645 -0.13662836 -0.20870292 -0.16385111 -0.12542817 -0.18183622 -0.28279632 -0.010611498

fc2.weight f4 [128, 132]
00000000: 5217 f13d 13a9 6fbe 680e c4bc b418 a2bc
00000010: 6e1c 443c 881d a63c 3fb7 90bd d7b3 c9bc
00000020: 7f78 933d 42eb 803d fe97 453d 8288 5bbd
00000030: 47d0 28be ceaf 403e 023b 1abd 5481 8dbe
00000040: 132c 39be c45b 19bd ffdb 1dbe e683 5c3d
00000050: e791 733c abf5 e3bc 567a 8abe a0cd 0abe
00000060: 4f82 c73e a70c 52be 050c b7bd aa69 f9bd
00000070: e3e8 88ba 426a c23d 438b 09bf 7ed7 60bd
00000080: bb55 c33d 7e63 78be c662 83bd d281 0bbe
00000090: f041 9cbe 6417 4abc 8ef0 a9bd 9d35 82bd
000000a0: ec81 01bd cae4 f53d 562a 5d3c 314e 7dbb
000000b0: 5782 d23c 1a71 0abe 21cb 8abc cca8 9b3d
000000c0: aaff 8cbd 8af5 a83d 05f7 25bd 59a4 febd
000000d0: 812a 98bd f5e4 923c 3411 00be 960d 033e
000000e0: 8826 45bd 024b 9c3c f3a0 3b3c d25d 0dbd
000000f0: 0e45 2f3d 3b95 e43d 0c32 4e3e 5232 31be
00000100: 7306 f83d ee92 41bd 3b2e eabc 0192 b5bc
00000110: 507f 203e b73c 98bc 971c 203c 623e 3dbe
00000120: 6e51 bfbd fc88 1dbe 9670 a43d c746 283e
00000130: 8b06 043b f40d 5fbe b4e3 183e 746b 993d
00000140: e5a4 1ebd 55f1 073c 238b 233e 0bb2 843d
00000150: c942 19bd c75f b3bc 9880 0c3d e40d 97bb
00000160: 58c2 3fbe e146 f5bc 7fae 74bd b953 c5bc
00000170: be89 5dbd 93ca e53d 33f7 013e 7c76 93bd
00000180: d8a1 4c3e 6836 8dbd 7e4f debe c1b5 c3bc
00000190: de8e 6bbc a2ed fe3d 1c5f ec3d 3c9f 09bf
000001a0: 6ea9 183e 2672 45be df65 003e a3a7 8e3a
000001b0: e30d a7bd 3269 eabd 5354 6abd 230d e6bc
000001c0: cbd1 9ebe a7e5 cbba c7e9 cd3d edf0 f9bc
000001d0: 6cf1 d23d dbcf 7e3c a478 ad3c 4ac4 093e
000001e0: b3fb 15be cbbc 033e 1e60 4c3d c98f 223d
000001f0: 35c5 9e3d 855c e33b be65 c1bc e86e 15be
00000200: efe3 fcbb 9b01 c5bc 888f ca3b b8ba 3d3c
00000210: f850 503c f65c 81bc e911 ccbc 29e0 8fbe
00000220: 3f86 32be 1795 af3d fae0 153e 9ad8 b0bc
00000230: a39c d1bd 1ee1 14be c00b 61bd 44c4 c9bc
00000240: 23ee e73d 099d 67bd 196a 503d 1049 18bd
00000250: db5b a13c efad eabd d233 743c bb56 66be
00000260: 083f 143d 7f13 39be edcc ccbb e44d 2cbc
00000270: 1b6c 433e 0e73 73be 8ac4 3abe d6a5 cbbc
00000280: 0de4 1dbe 23ca ecbd 5e21 273e 993e 66bd
00000290: 1ae2 b2bd bec2 013d 08d0 07bd fd7d 9b3d
000002a0: 0843 0bbe ff9f 19be 9db2 79bd 6cdb 893d
000002b0: 7d00 d3bd 8db7 bb3d a111 47bd 9048 2a3e
000002c0: 7b8c 3c3d cfab 90bc 5d65 52bd 65ef 06bc
000002d0: 7b09 ac3c e238 50be ebba 6a3d cc94 01bd
000002e0: 6309 343c c1a9 06be c532 c53c 77a7 04bd
000002f0: 7546 183d 0dd1 0a3e 0483 c2bd dab8 0cbc
00000300: 556c bebd 242c a7bd 16e0 0d3e 8da3 043d
00000310: 3915 2b3e 6adc 463d 36aa 3e3e ae48 19be
00000320: 1624 e03c cb54 db3b 9897 3bbc 8352 90bd
00000330: 4712 49bc 1794 f7be 9a7c eabd 405b 12be
00000340: ce4f 89bd 5ad1 d1bd 9d74 6abd e3cb 55bd
00000350: 868b 183c df16 103b 062a 38bd 5005 d03c
00000360: 32d4 13be 826e 02be 8937 f63c a26d 2dbc
00000370: c499 0cbe 04c4 83bd 7f5f 12be c8ce efbd
00000380: 86d0 75ba 9035 e1bd 0a7f b3bb 8b07 43be
00000390: db9b bcbe bc59 4f3d e1db 7a3d 2a9d d0bd
000003a0: 8c11 18be 3fc2 2c3d 4131 4ebe a58b b9be
000003b0: 0eda f43d a2b3 053d fe64 283c 7e97 13bb
000003c0: 2ff6 043e ea94 61bc 02a4 97bd 27dd 1abe
000003d0: 27bd 35bd 88ba 27bd 6064 51bd ec4e 2abd
000003e0: 8aa0 893d e879 773c 6c57 c73c 2b58 06be
000003f0: 8eb6 47be 1b73 283e 20b2 a73d 9031 c6be
0.11772026 -0.2340434 -0.02393265 -0.01978717 0.011969669 0.020277753 -0.070662014 -0.024621887
0.07200717 0.06294872 0.048240654 -0.05359698 -0.16485702 0.18817064 -0.03765393 -0.27637732
-0.18083219 -0.03744103 -0.15415953 0.053836726 0.014866329 -0.027827105 -0.2704646 -0.13555002
0.38966605 -0.20512639 -0.089378394 -0.12178357 -0.0010445382 0.09492923 -0.5372812 -0.05489301
0.09537836 -0.24256703 -0.06415324 -0.13623741 -0.30519056 -0.012334678 -0.08297835 -0.06357882
-0.031618044 0.12006529 0.013498863 -0.0038651342 0.025696917 -0.13519707 -0.016942563 0.07600555
-0.068847016 0.08249958 -0.04051878 -0.124336906 -0.07429982 0.01793144 -0.12506562 0.12798151
-0.04813245 0.019078735 0.0114519475 -0.034513302 0.042790465 0.11161276 0.20136279 -0.17304352
0.12110605 -0.047259264 -0.028586498 -0.022164347 0.15673566 -0.018583639 0.009772441 -0.18480828
-0.09341703 -0.15384287 0.080292866 0.1643325 0.0020145501 -0.21782666 0.14930612 0.07491198
-0.038731474 0.008297284 0.15971045 0.064792715 -0.037417207 -0.021896256 0.034302324 -0.00460981
-0.1872648 -0.029941024 -0.059736725 -0.024087774 -0.05408644 0.112202786 0.12691955 -0.072003335
0.19983613 -0.06895143 -0.43420023 -0.023890378 -0.014377324 0.124476686 0.11541578 -0.537586
0.14908382 -0.19281825 0.1253886 0.00108837 -0.081569456 -0.11445846 -0.057209324 -0.028082436
-0.31019434 -0.0015556113 0.10054355 -0.03051039 0.10299954 0.015552486 0.02117569 0.13453785
-0.14646797 0.12864988 0.049896352 0.039687905 0.07752458 0.0069385194 -0.023608085 -0.14593089
-0.0077176015 -0.024048617 0.006181661 0.011580162 0.012714617 -0.015791398 -0.024910884 -0.28100708
-0.17434023 0.085733585 0.14636603 -0.021587659 -0.10234954 -0.14539 -0.054942846 -0.02462972
0.11324718 -0.056546245 0.050882433 -0.037179053 0.01969712 -0.114589565 0.014904933 -0.22494023
0.036192924 -0.18073843 -0.006250015 -0.010516617 0.19084208 -0.23774359 -0.18239036 -0.02485935
-0.15419026 -0.11561992 0.16321322 -0.05621204 -0.08734532 0.03167986 -0.03315738 0.0759239
-0.13599789 -0.1500244 -0.060961355 0.067313045 -0.103028275 0.09165869 -0.048600797 0.16629243
0.04603241 -0.01766005 -0.0513662 -0.008235787 0.021000614 -0.20334199 0.057307165 -0.031636044
0.010988566 -0.13150693 0.02407206 -0.03238627 0.037176568 0.13556309 -0.094976455 -0.008588994
-0.092980064 -0.08162716 0.13855013 0.032382537 0.16707315 0.048550047 0.18619618 -0.14969131
0.027360957 0.0066934577 -0.011449717 -0.07046988 -0.012272424 -0.4835517 -0.11449547 -0.14292622
-0.06704675 -0.10245009 -0.057240117 -0.052196395 0.009310609 0.0021986288 -0.04496195 0.025393158
-0.14436415 -0.12737468 0.030055778 -0.0105852205 -0.13730532 -0.064338714 -0.14294241 -0.11709362
-0.0009377081 -0.10996544 -0.0054777907 -0.19045846 -0.36837658 0.050622687 0.06124485 -0.10186227
-0.14850444 0.042177435 -0.20135976 -0.36239353 0.11955653 0.032642014 0.010277985 -0.0022520716
0.12984537 -0.013768414 -0.07404329 -0.15123425 -0.044369843 -0.040949374 -0.051121116 -0.041579172
0.067200735 0.015104748 0.024333678 -0.13119571 -0.19503233 0.16450159 0.081882715 -0.38709688

fc2.bias f4 [128]
00000000: 9360 01bd 0a45 1dbe 8f3c 5abe 0e71 883e
00000010: 06b1 02be 6c61 2dbe 115e 8dbe 4033 94be
00000020: c02c 38be 6937 29bd cb9f 393e 391e debd
00000030: db93 cd3d b27c 113e 4824 78be f530 8c3d
00000040: edae 9e3d 881c 34be 85d0 56be b0f7 353d
00000050: 5d19 a03e fcde 95be 34bc 74be a1ad 08be
00000060: 4d7c 663e 53ac b6be 6959 7fbe 332f c93e
00000070: 375d d53d b3f6 68be 69dd e0be 8cbd 053e
00000080: 1d4c dc3c 88ca b93e f8e1 15bd 0584 c93e
00000090: dd98 20be 029c 8cbe e7ec c2bd b395 86be
000000a0: 0f57 87be 352f ffbd 2c42 7f3d 4b2b 28be
000000b0: 1a30 fcbd abce 793e c11b 85be 989e acbe
000000c0: 1720 0f3e 32f1 43be 9015 a3be aad7 23be
000000d0: 48d2 ce3d b1af 27be a43e f2bc 3040 b8bd
000000e0: 184c 20bc 4803 debe 5ae0 bc3e 5a39 50ba
000000f0: ad49 82be a1ea 9dbd 59df 503d ed03 4dbe
00000100: 5c62 c63d 0a41 913c cc29 ae3e dceb aebe
00000110: fd6d 8dbe 11a8 91be 5e6c 5cbe 006e 29be
00000120: 965a 6bbe cdcf a23e 99ce 7abe dc87 19be
00000130: 0489 c93e 9a25 c43d ebb3 b13c b4a3 3ebe
00000140: 57db 7a3e 0742 89be 8e7f 4cbe 457d 903e
00000150: 2adf 83be 8330 a7be d0bf 92be 4d3a fdbd
00000160: e67e b73d be46 1b3e bfce 9cbd 0e2f 4abd
00000170: c700 02be 3a97 153e d0c6 9f3e 4fbf 053e
00000180: f27d 6ebc 97f2 843d f16b 2b3e 7f2c 95be
00000190: 8958 633e 6d60 823e 976e d83d 6a71 36bc
000001a0: a762 8abc 539a a0be ac92 84be b3d6 b0ba
000001b0: d147 e23e 41df adbd 21f1 a43c 8d57 71be
000001c0: 9df5 8ebe bd27 ecbd e547 9d3d 293a e7bd
000001d0: 4d08 60be 8669 95be 92c8 d43b 67a3 803e
000001e0: 4276 b93d 95f9 79bd 076e 853e 8f26 87be
000001f0: e163 6cbe 9567 cfbe 4e1c 83be 6d67 43be
-0.03158624 -0.15358368 -0.21312164 0.26648754 -0.12762842 -0.16931695 -0.2761083 -0.2894535
-0.17985821 -0.04131261 0.18127362 -0.10845608 0.10037967 0.14207724 -0.2423259 0.06845275
0.07748208 -0.17589009 -0.20977981 0.044425666 0.3126935 -0.29271686 -0.23899919 -0.13347484
0.22508354 -0.35678348 -0.24936451 0.39293823 0.1041817 -0.22750358 -0.43918923 0.13060588
0.026891762 0.36287332 -0.036592454 0.39358535 -0.15683313 -0.27462775 -0.09517842 -0.26286086
-0.26433608 -0.12460176 0.062318966 -0.16422765 -0.12313862 0.24395244 -0.25997737 -0.33714747
0.13977085 -0.19134977 -0.31852388 -0.16000238 0.10098702 -0.16375615 -0.029570885 -0.08996618
-0.009783767 -0.43361878 0.36889917 -0.00079431164 -0.25446835 -0.077107675 0.05099425 -0.20021029
0.09686729 0.017731208 0.34016263 -0.3416432 -0.27622977 -0.28448537 -0.21525714 -0.16545868
-0.22983775 0.31799164 -0.24492873 -0.14993232 0.39362347 0.095774844 0.021692237 -0.18617135
0.24497734 -0.26808187 -0.19970533 0.28220573 -0.25756198 -0.326542 -0.28661966 -0.123646356
0.08959751 0.15163705 -0.07656621 -0.04936128 -0.12695609 0.1460847 0.3120637 0.1306126
-0.014556395 0.06491583 0.16740395 -0.2913551 0.22201742 0.25464192 0.10567968 -0.011135438
-0.016892744 -0.3136774 -0.25893152 -0.001349172 0.44195417 -0.08489848 0.02013451 -0.23568554
-0.27921763 -0.11531017 0.076797284 -0.1129039 -0.21878166 -0.2918207 0.0064936364 0.25124666
0.09055759 -0.061029036 0.26060507 -0.26396605 -0.23084976 -0.40508714 -0.25607532 -0.19082423

fc3.weight f4 [1, 128]
00000000: 56ed 133e c757 b8bd fc14 e2bd a34a f63d
00000010: 849a 3c3e d3bc 33be 0969 39be 9094 d2be
00000020: eb63 473e 8fa1 5d3e 5227 f33d 9275 debd
00000030: 64d0 e13d 5ee0 ac3d 7e53 87be 2c3b 043e
00000040: ee41 e83d 7c5f 063e 5f53 71be b015 013e
00000050: 71a3 223e 034d 4ebe 9cd0 723e cb2c d7bd
00000060: 952e e93d 5a4e 8abe 38eb 33be c1fd ae3d
00000070: adfd b03d 458c 63be 33e1 aebe bf5c 3a3e
00000080: 12e7 f73d db7d 083e 86d7 003e 6e8a c13d
00000090: 8136 3abe 2fa2 91be 63e5 413e a516 22be
000000a0: bd6f 50be 6e67 413e eaff 1b3e 72fc 53be
000000b0: 095c 073e 0114 563e 5f24 30be d1f2 11be
000000c0: 1e57 333e 6043 51be 7fda 1dbe 7dc5 f2bd
000000d0: b21f 373e c6c0 21be 9efd 0e3e 39bb afbd
000000e0: 7893 243e f0b4 ebbe ce93 fe3d 0cde 0a3e
000000f0: 8925 e4bd 1cfe 293e ba0c c53d 7281 1abe
00000100: 919e 0d3e 6c9e 093e fdac e03d a36c 1abe
00000110: c050 65be 6ea0 eebd 4516 21be e19c acbd
00000120: 77ae 0cbe 08e1 0c3e 218f 4fbe 2c7c d5bd
00000130: e289 103e df05 cf3d 540d 963d a0a5 0dbe
00000140: 4135 223e 423b 90be dcf8 25be 06b4 db3d
00000150: 4021 2fbe 481e 1dbe ab8f 2dbf 927b 9dbd
00000160: 049d b43d b01c d13d 254d 19be 012e d03d
00000170: aca3 483e 9a8c 0b3e 928d 073e a5bf b53d
00000180: cbab 363e 5136 ac3d b5ac cb3d 1968 11bf
00000190: 3918 ab3d 5376 fe3d cf96 0f3e 3daf d93d
000001a0: 558e e73d b2c3 36be d102 bdbd d7c7 003e
000001b0: 2c01 f23d 1a66 dabd 8ed8 063e d65b 6b3e
000001c0: 9197 61be e8d1 aebd 1fc8 013e fd86 eebd
000001d0: 0d9a e6bd 72c7 47be 9bb5 103e 94e1 043e
000001e0: 0358 ed3d 9ab7 e63d be8c f23d 21e3 60be
000001f0: 2d62 21be 1a42 81be c268 b7bd 4391 f3bd
0.14446005 -0.09001117 -0.11039159 0.120259546 0.18418318 -0.175525 -0.18106474 -0.4112897
0.1947171 0.21643661 0.11872734 -0.108622685 0.110260755 0.08441232 -0.26430887 0.12913197
0.113407 0.13122362 -0.2356696 0.1260593 0.1588266 -0.20146565 0.2371239 -0.105065905
0.11385838 -0.27012902 -0.17570198 0.085444935 0.08642135 -0.22221477 -0.34156188 0.18199442
0.1210462 0.1332926 0.12582216 0.094502315 -0.18184854 -0.2844405 0.1893516 -0.1582895
-0.20355125 0.18887112 0.15234342 -0.20701769 0.13218702 0.20906068 -0.17201374 -0.14252783
0.17513701 -0.20435858 -0.15415381 -0.11854074 0.17883185 -0.15796193 0.13963935 -0.08580632
0.1607188 -0.46036482 0.12430535 0.13561267 -0.11139972 0.16600841 0.09621568 -0.15088442
0.1383002 0.1343934 0.10970495 -0.15080504 -0.22394085 -0.11651693 -0.15731151 -0.0842836
-0.13738428 0.13757718 -0.20269443 -0.104240745 0.14115098 0.10108542 0.07326761 -0.13832712
0.15840627 -0.2817021 -0.16208214 0.10727696 -0.17102528 -0.15343583 -0.67797345 -0.07689585
0.08819011 0.1021055 -0.14970835 0.101650245 0.19593686 0.13627854 0.13237599 0.08874444
0.17838971 0.084087975 0.099450506 -0.56799465 0.083542295 0.12424912 0.14022373 0.10629127
0.113064446 -0.1784809 -0.09229053 0.12576233 0.1181663 -0.106640056 0.13168547 0.22984251
-0.22030474 -0.0853613 0.12673996 -0.11646841 -0.112598516 -0.19509676 0.14131777 0.12976676
0.115890525 0.11265488 0.11843251 -0.21961643 -0.15760107 -0.25245744 -0.08955528 -0.11892941

bn1.weight f4 [128]
00000000: 5c11 d23e 27c8 883f d7a9 023f 6144 b63e
00000010: 7ae6 f03e 5347 183f c057 453f 1640 353f
00000020: b504 bd3e 660c 073f 3168 613f e8bd 123f
00000030: aef8 203f b1f7 853e 7f04 a93e d4f7 383f
00000040: 9a48 053f a0f1 163f ffb7 d23e 436b d13e
00000050: a989 e03e dd7e c03e ae89 0f3f 2de7 2d3f
00000060: 3ea2 b33e 5988 693e c495 243f a20c 393f
00000070: 216b f93e c118 403f 91b9 cd3e 4c28 193f
00000080: 2ffb 233f c80e e13e a9d3 a93e e806 753f
00000090: 4488 a43e bd22 393f 2c6c 193e 8e0e 4c3e
000000a0: 4472 223f d618 193f 212e c63e ab78 ba3e
000000b0: 00dd 193f 09ac 4c3e 10d3 b43e f851 033f
000000c0: 1238 d93e dbd9 e13e a47d 853e 501d 183f
000000d0: a59d 2d3f a050 cb3e de6c 063f 01a3 593f
000000e0: 5f49 163f 6edf c63e 0fb7 e73e c23c 633f
000000f0: 9317 033f 0be8 c83e 4721 603f 3f1d c03e
00000100: e65e 113f 7dc6 f73e f895 013f 1490 bd3e
00000110: c9d9 b73e 503a 423f 461b 8f3f 8453 263f
00000120: fb90 b73e b7a1 af3e 6162 173f 4313 213f
00000130: 4933 b53e 3648 443f 6884 c43e 6ae0 163f
00000140: 5692 f23e 3437 bf3e 000e 303f 4378 023f
00000150: 28eb 173f 3a76 e03e f517 1d3f cfd5 533f
00000160: ffa1 983e 5519 393f 4919 013f edbe d83e
00000170: c035 413f 87df 3c3f 51f1 8d3e a1d4 313f
00000180: b6e0 573f 1436 e63e 6a2b 0d3f 993e 003f
00000190: 80c4 d73e d1b9 2f3f 6286 273f 9270 853e
000001a0: aaa8 663f 7da7 4c3f 459d 693e aba7 d53e
000001b0: ccaa 433f 6df5 f43e b95d 043f d57e c93e
000001c0: f17f 0a3f 8ca3 503f 13dd 3d3f db0d cf3e
000001d0: 2c5e 413f bb47 483f 7f3a 003f e85c ba3e
000001e0: 4a1b f93e ccd0 ba3e 4732 b63e 0589 023f
000001f0: 76a4 823f 8db4 023f 1c28 a33e a8fa bf3e
0.4102887 1.0686082 0.51040405 0.35599044 0.4705084 0.5948383 0.7708702 0.7080091
0.36917654 0.52753294 0.8804961 0.57321024 0.62879455 0.26165536 0.33011243 0.72253156
0.52063906 0.5896244 0.41156003 0.40902147 0.43855026 0.3759679 0.5606946 0.6793087
0.35084718 0.22805919 0.64291024 0.722849 0.48714545 0.7503777 0.40180638 0.59827113
0.6405515 0.4395659 0.33169296 0.95713663 0.32135212 0.7231863 0.1498267 0.19927427
0.63455606 0.5980352 0.3870707 0.36420187 0.60102844 0.19987501 0.35317278 0.5129695
0.4242559 0.44111523 0.2607242 0.5941973 0.6781867 0.3970995 0.5250987 0.8501435
0.58705705 0.38842338 0.4525685 0.88764584 0.51207846 0.39239535 0.8755078 0.37522313
0.5678543 0.48393622 0.5061946 0.37023985 0.35908344 0.7587023 1.1180198 0.64971185
0.358528 0.34303066 0.5913449 0.62920016 0.3539069 0.76672685 0.38382268 0.5893618
0.4737727 0.37346804 0.6877136 0.50964755 0.59343195 0.438402 0.6136468 0.8274812
0.29811093 0.7230428 0.5042921 0.42333165 0.7547264 0.73778576 0.27723172 0.6946507
0.84327257 0.44963133 0.5514437 0.50095516 0.42142105 0.6864291 0.65439427 0.26062447
0.9010111 0.79943067 0.228139 0.41729483 0.7643249 0.47843495 0.5170551 0.39354578
0.54101473 0.8149955 0.7416546 0.40440258 0.7553432 0.7823445 0.5008926 0.36399007
0.48653632 0.36487424 0.35585234 0.50990325 1.020644 0.5105675 0.3186654 0.37495923

bn1.bias f4 [128]
00000000: 56a8 a63d 6b4f 723d f2ca fbbc fef2 453e
00000010: 7656 8e3b 5b65 573e 7399 f33d 9d27 1cbd
00000020: e0a3 1f3d c0f1 ef3d 63ca ea3c 5589 a23d
00000030: 0583 343e d34e 5abe d57a 7bbe 58b8 ef3d
00000040: ffe4 9d3d be32 1bbe a863 0abe a7e8 dd3b
00000050: a60f 0dbd 31c9 5abe 42b1 963e dd2e 323e
00000060: 93d3 5c3d 98b2 d63e 7477 203e aae9 233e
00000070: f671 043e 3e57 f73d 94fa 5b3d 441f 433e
00000080: 1502 54be a841 183e c4a6 cbbd 5f66 4abb
00000090: 8d3a dabd 6703 503c 2bc7 87be 2d79 4f3e
000000a0: 99a2 653c 84d5 253c 51d6 d63c 1e50 98bc
000000b0: a267 883d 47fa 2a3e 7801 ce3c 6cf6 e13e
000000c0: 0300 1d3e 6c7e bbbd 2cdd 863d aac6 6a3e
000000d0: 1556 f73d 82e2 4d3e 6d54 01bd 0c6c 1b3e
000000e0: 2e9b 073e fe3c 9bbc c0df 1dbd 2fd3 44bb
000000f0: e6e7 aabc f714 ff3d 2902 96bd 1d5d d0bd
00000100: 4fa7 fb3b 485c ecbd b432 8f3e 6b5c 313e
00000110: 012e d8bd 0dc9 0d3e 4643 9a3e 67c8 173c
00000120: d743 803e 7d3d 583e 5b61 f13d 0e6e a4bd
00000130: 0065 123e 879c c03d b880 a5bc bd16 3ebc
00000140: 1460 36be a23e 9dbd 7899 043e 8dd9 84bd
00000150: 1cbf 683e 3d60 9b3c d41e a23d da05 553e
00000160: ba13 203e 4a42 1c3c a327 53bd 2872 4b3e
00000170: a65b 963c f996 c0bd 59a0 e3bd 199a 833e
00000180: 7941 153e 507f 5cbd b8c0 ecbd 5118 99bd
00000190: 9778 333e 5ad5 363e 1fa2 093e 642f d03d
000001a0: c97d afbd 3b25 e0bc 2e5e c3bd 5eff c5bc
000001b0: 507c 9cbd e251 edbd 59e1 3bbd ab5b 513e
000001c0: 44c3 373e 7277 b4bd 6469 3a3b 50d4 9c3d
000001d0: c5bc 333d 9011 6a3e 801d 0b3e a680 783a
000001e0: d312 5a3e fd0e 22bd 0bd6 37bd fac0 073e
000001f0: d851 443d ff61 c13d e351 cbbc 7cde 04be
0.08137576 0.05915777 -0.03073642 0.19330975 0.004343803 0.21034758 0.118945025 -0.038123716
0.038974643 0.11716032 0.028660959 0.0793635 0.17628105 -0.21319132 -0.24558575 0.11705083
0.07709693 -0.15156075 -0.13514578 0.006772119 -0.03443875 -0.21365811 0.29432112 0.1740069
0.05391271 0.4193313 0.15670568 0.16007105 0.12934098 0.12077187 0.053705767 0.19054896
-0.20703919 0.14868796 -0.099439174 -0.0030883772 -0.10655699 0.012696124 -0.2651914 0.20261069
0.014015817 0.010121707 0.02622524 -0.01859289 0.066603914 0.16697036 0.025147185 0.44133317
0.15332036 -0.091549724 0.06585154 0.22927347 0.12076966 0.20105937 -0.031574655 0.15177935
0.1324279 -0.018949982 -0.038543463 -0.0030033102 -0.02086253 0.124551706 -0.07324631 -0.1017401
0.007679857 -0.11541039 0.2796837 0.17320411 -0.105556495 0.13846226 0.3012945 0.009264088
0.25051758 0.21117206 0.11786147 -0.08028804 0.14296341 0.09404855 -0.02020298 -0.011602101
-0.17810088 -0.07677962 0.12949169 -0.06486807 0.22729152 0.018966788 0.07916036 0.20803013
0.15632525 0.009537289 -0.051551472 0.19867766 0.018354248 -0.09403796 -0.11114568 0.25703505
0.14575757 -0.053832352 -0.11560196 -0.07475341 0.1752647 0.17854825 0.1344075 0.10165289
-0.085689135 -0.027361503 -0.09539448 -0.02416962 -0.07640898 -0.115878835 -0.045869205 0.20445125
0.17945582 -0.08811845 0.0028444165 0.07657683 0.043881197 0.22858262 0.13585472 0.00094796193
0.21296243 -0.039565075 -0.04488186 0.13257208 0.047929615 0.094425194 -0.02481932 -0.12975496

bn1.running_mean f4 [128]
00000000: 6b0b dc3d a263 aa3e 5e0a 673d c5f2 363e
00000010: 15cd 063e 629c 073f 046d 5e3e c897 5d3d
00000020: 8d0c 2b3d b735 983d df09 273e 1b71 c03e
00000030: 8b81 163e 2bec 243e bed5 093f 503e e73e
00000040: 97f5 a03e 97d8 c03d 0a80 833d 1eef fd3d
00000050: db37 bd3e 1125 c33d 8482 073e aac5 4c3e
00000060: 5725 ac3d c841 0d3f 24ed 353f 02cd bb3e
00000070: a9d6 c23d 8ab4 9f3e 541b 733e fcb1 313e
00000080: ec9e 063e 9258 f43d 6c40 e83d dda7 253e
00000090: 7518 293e c2c6 533e 3088 eb3d 6d9f ec3e
000000a0: b20c 913e 430f a53e 3b55 203e 2a83 9a3e
000000b0: a850 503e 87c2 213e 2e18 153e f1cc e83e
000000c0: 8080 dc3e 081f 613e 171d 083e 0842 2c3e
000000d0: 20aa e33d 7cea 093f a76e dc3d 58bf 4d3d
000000e0: ec02 093e b4d3 da3e e296 743e c67a 2b3e
000000f0: e752 f73e c52d 2f3e e4a7 963e 4448 cf3d
00000100: 26e6 573e da25 353e 8c77 f33e 9737 fa3d
00000110: 822b 693e d168 023f 91e2 9d3e 81f2 903e
00000120: 7275 4a3e 9718 413e c142 bd3d 784b 6a3d
00000130: d836 a33e c0ec da3e 75e9 3e3e 59a1 153e
00000140: 6497 a63e 5a30 363d 816a 923e f157 b03e
00000150: 09c6 e53e 1587 a23e 7f55 db3d 3fba c43e
00000160: 0a52 173f e92e 1a3e 83ae 803e 7fd6 623e
00000170: 4c00 ca3d a18e 7f3e 35f1 e63d dcea 143f
00000180: 65a0 9e3d 8c07 e83d 6c6d 993d 89de d83d
00000190: 26cb 8e3e 66e5 333e 29f6 a93d 8531 bf3d
000001a0: 1d01 173e 7c41 e43e 0a2a 8c3d 7be0 b23e
000001b0: 5482 b13e 1b05 a33c 8d88 303e 292e bd3c
000001c0: 3194 f33d 0216 183e 90e9 833d 3387 3a3f
000001d0: 9b38 b03e d55f 013e 5113 8d3d 3fd1 2f3e
000001e0: 5a52 a53e 0726 143d 5cf2 783d f211 d03d
000001f0: 1e36 403e 6962 f33d d616 083d e71b 193e
0.10744365 0.3327914 0.05640637 0.17866047 0.1316417 0.52972996 0.21721274 0.054099828
0.041760016 0.0743212 0.1631236 0.37586293 0.14697854 0.16105716 0.5384177 0.45164728
0.3143737 0.09416311 0.06420906 0.123991236 0.36956677 0.09528554 0.13233382 0.19997278
0.084055595 0.551785 0.7106497 0.36679846 0.095135994 0.31192428 0.23740894 0.17353052
0.13146561 0.11930956 0.113404125 0.16177316 0.16513236 0.20681289 0.11500585 0.46215382
0.28329998 0.32238206 0.15657513 0.30178195 0.20343268 0.15796863 0.14560005 0.45468858
0.43066788 0.21984494 0.13292347 0.16822064 0.11116433 0.5387342 0.10763293 0.050231308
0.13380021 0.42739642 0.23885682 0.16746053 0.48305437 0.17107303 0.29424965 0.101212054
0.21083888 0.1769022 0.47552145 0.12217634 0.22770503 0.5094119 0.3083692 0.28310016
0.19771364 0.18857037 0.09241248 0.05720088 0.3187778 0.4275875 0.18643744 0.1461233
0.32537377 0.044479705 0.2859688 0.34442094 0.4487765 0.31743684 0.107096665 0.38423344
0.59109557 0.15056957 0.25133142 0.22152136 0.09863338 0.24956752 0.11276475 0.58170867
0.077454366 0.113295645 0.07491574 0.1058932 0.27889365 0.17567977 0.082989044 0.09335617
0.14746518 0.4458121 0.06843956 0.3493689 0.34669745 0.019899895 0.1723959 0.0230933
0.118935 0.14852145 0.06441033 0.7286255 0.34418187 0.12634213 0.0688845 0.17169665
0.32289392 0.03616908 0.060778007 0.10159673 0.18770644 0.118840046 0.033224903 0.1495205

bn1.running_var f4 [128]
00000000: b367 763d f8ba 5f3e 97a7 ef3c 7a6b d43d
00000010: a831 f33d daf3 3f3e 4388 163e 40d6 e13c
00000020: d474 bc3c 9e70 043d e42f b23d 8548 ac3e
00000030: 49e4 7f3d e7bf e03d 96e4 d43e 5592 753e
00000040: f4ff a33e 46bb 2e3d 8141 cd3c d005 763d
00000050: eee0 223e 4799 ad3d 3760 933d 8284 e73d
00000060: 927e 783d f267 cb3e 2d8b 483f 22d6 5c3e
00000070: 1d8c 973d d4ab f13d 973b 533e d695 073e
00000080: 5eca 933d e9d1 8f3d 79cc 8d3d deb7 cb3d
00000090: a285 0b3e 4802 053e 9435 953d ff31 b03e
000000a0: 9e20 513e 22da 383e b743 bd3d f64a 2e3e
000000b0: 52b3 163e 6528 f23d cb12 b53d dacd 6a3e
000000c0: bcfc 3a3e f06f d93d f113 823d 11d3 ba3d
000000d0: d004 633d 369b cf3e 3785 bf3c 0119 d43c
000000e0: 0a4a 983d b12d b93e a285 bf3d 377e c93d
000000f0: 80bb 1d3f a2f8 ba3d 5a98 5c3e 9b69 763d
00000100: 4aaa 173e abc7 d63d 0e14 c73e cd8d fa3d
00000110: 833e 0a3e b6e0 533e 4e77 283e 698a 1b3e
00000120: 39ef cc3d 186c ee3d 52f6 223d 85b9 063d
00000130: 1dee 733e ecae 923e 151b ec3d eb33 ad3d
00000140: 3cb9 863e 6cd2 1e3d 9752 4d3e a54e bc3e
00000150: 4837 893e 528c 2f3e 34ed 3d3d 23c0 bf3e
00000160: 87de 753e 4f30 993d 4c91 0f3e efca a43d
00000170: 66c0 6b3d c4ad ea3d 3205 813d 189f b33e
00000180: 17d6 213d 1442 523d ed6a 293d 4b81 583d
00000190: e1bd 423e 1bcb b83d b850 313d a254 a13d
000001a0: b4c8 ca3d e560 763e a69a 713d 1da8 a03e
000001b0: dca4 553e 6c21 253c 9cf8 c13d c6e8 443c
000001c0: 5222 9b3d b2cf df3d d269 bd3c ae13 673e
000001d0: 6054 983e 8a7a a53d 159a 143d ba61 df3d
000001e0: c233 f53d c096 a83c 4acd 773d cc1c 4a3d
000001f0: 589c 0b3e 47ae b13d 6dda 863c f511 413d
0.06015749 0.21848667 0.029254718 0.10372062 0.118747056 0.18745366 0.14700417 0.027567983
0.023004927 0.032333963 0.08700541 0.33649078 0.06247357 0.109741025 0.41580647 0.23981602
0.32031214 0.042659067 0.025055649 0.060064137 0.15906116 0.08476501 0.07196086 0.11304571
0.06066758 0.3972774 0.78337365 0.2156606 0.07399771 0.11800352 0.206282 0.13240752
0.07216333 0.07022459 0.06923766 0.09947179 0.13625196 0.12989151 0.0728561 0.34413144
0.20422599 0.18051961 0.09241431 0.17020783 0.14716843 0.11824111 0.08841475 0.22930089
0.18260473 0.106170535 0.0635146 0.09122289 0.05542451 0.40548104 0.023378951 0.025890829
0.07435997 0.36167672 0.0935166 0.09838527 0.6161423 0.09129454 0.21542493 0.060159307
0.14811054 0.104873024 0.38882488 0.122340776 0.13500409 0.20691189 0.16451761 0.15189518
0.100065656 0.11641711 0.03978569 0.03289177 0.23821302 0.2864908 0.11528603 0.08457168
0.26313198 0.038774893 0.20051037 0.3677875 0.2679999 0.17143372 0.046368793 0.37451276
0.24010669 0.07479917 0.1402027 0.08046519 0.057556532 0.114589244 0.06299819 0.35082316
0.039510813 0.05133255 0.041361738 0.05285768 0.19017746 0.09023114 0.04328987 0.078774706
0.09901562 0.240604 0.058985375 0.3137826 0.2086367 0.010078769 0.094712466 0.012018388
0.075749055 0.109282866 0.023121748 0.22566101 0.29751873 0.08080013 0.036279757 0.10907312
0.11972763 0.020579696 0.060498513 0.04934387 0.13633859 0.08675819 0.016461575 0.047136266

bn2.weight f4 [128]
00000000: ca90 ea3e 7d23 1d3f 9556 633f a187 323f
00000010: 3078 173d d1ab 313f 00c2 be3a eb51 623f
00000020: 7042 d93d 6421 5b3f 9202 373f c885 a93d
00000030: b9bb 093f a992 303f 12ad 483f dc48 aa3e
00000040: 96f4 693f 6891 503f 50a9 0a3e f48c 0a3e
00000050: 6e7f 593f 7886 a13e 3eb8 4a3f 5ab6 f53e
00000060: 0067 de3e a776 613f dc61 e33e 1041 103e
00000070: d097 0c3e 0ea2 1a3f f2e1 ba3e 18b5 983e
00000080: 0b65 193f 884b 723e 1071 9a3e 0936 0d3f
00000090: 7690 d43e 8a74 463f 7680 f33e d62d 7c3f
000000a0: 5a63 4c3f 6268 113f 6e3a 633f dc7c 523e
000000b0: e7b3 1e3f a8cf e23e a0b8 e03d 68bc 613f
000000c0: cc32 ce3e bba1 583f 1647 de3e 1993 463f
000000d0: 00fa 8d3c 50a5 3e3f 6c15 ca3e d2b0 143f
000000e0: 3273 1d3f 7494 a63e 0e5b 123f 6000 173f
000000f0: 4479 803e 80f3 423d 944f 1f3f 54ad 463f
00000100: 3247 a43e af01 7c3f 4c2d a13e 922d 7b3f
00000110: 7082 643e 6708 2f3f 6b2e 593f 3e9c 103f
00000120: f850 133f 424a b03e e191 473f 477f 743f
00000130: 73f2 493f 875a 353f 4283 683f 90b6 0a3d
00000140: d717 3e3f 80dd 253e 606a b83d 5a52 d13e
00000150: 4ad8 f83e d683 c83e f078 233e 0e6d 4d3f
00000160: 985b 993d 207e 0c3e 181d 183f bed3 3b3f
00000170: 373f 5a3f 875a 4a3f 3460 063f 3285 4f3f
00000180: 84f3 423f 9b47 693f 10fb f33d 2a35 233f
00000190: 24fc 8e3e e548 403f b082 a53e f8b1 083e
000001a0: 0564 733f 7197 7c3f 5181 663f 1464 7c3e
000001b0: 3cf6 513f e8a0 4e3e 9621 143f 4ac1 163f
000001c0: e468 fb3e 7464 303f 9481 1d3f b0f9 353d
000001d0: 2f08 503f 7437 893e 404f 0f3d 7485 973e
000001e0: fba1 463f 2df5 2e3f 20f5 0a3e 067d 573f
000001f0: 8022 723d d506 603f 8cd2 523e 7625 ad3e
0.4581359 0.61382276 0.8880399 0.69738203 0.036979854 0.69402796 0.0014553666 0.88406247
0.10608375 0.85597825 0.71488297 0.0827747 0.5380207 0.68973786 0.78389084 0.33258712
0.91388834 0.8147187 0.1354115 0.13530332 0.8496007 0.31547904 0.7918738 0.47990686
0.43437958 0.88071674 0.44410598 0.1408732 0.13729787 0.60403526 0.36500508 0.29825664
0.59919804 0.23661625 0.30164385 0.55160576 0.41516465 0.77521574 0.47558945 0.9850744
0.798391 0.567999 0.8876103 0.20555443 0.6199326 0.44299054 0.109727144 0.8817811
0.4027313 0.8462178 0.4341361 0.77568203 0.017331123 0.74470997 0.3946947 0.58082306
0.615039 0.32535136 0.5717019 0.5898495 0.25092518 0.0475955 0.622308 0.7760823
0.32085568 0.9844007 0.3147987 0.9811641 0.22315383 0.68372196 0.84836453 0.56488407
0.57545424 0.34431654 0.7795697 0.9550671 0.78885573 0.7084126 0.90825284 0.03386551
0.74255127 0.16197777 0.090046644 0.40883142 0.48602515 0.39163083 0.15964103 0.8024453
0.07488173 0.13719988 0.59419394 0.7336997 0.8525271 0.79044384 0.52490544 0.81062615
0.76152825 0.91124886 0.11913121 0.63752997 0.27926743 0.7511123 0.3232627 0.1334914
0.9507449 0.9866858 0.9004107 0.24647552 0.8201635 0.20178568 0.5786375 0.58888686
0.49103463 0.6890328 0.61525846 0.044427574 0.8126249 0.2680012 0.034987688 0.29594004
0.7759091 0.6834286 0.1357007 0.84175146 0.059114933 0.87510425 0.2058813 0.33817643

bn2.bias f4 [128]
00000000: 0000 0000 0000 0000 0000 0000 0000 0000
00000010: 0000 0000 0000 0000 0000 0000 0000 0000
00000020: 0000 0000 0000 0000 0000 0000 0000 0000
00000030: 0000 0000 0000 0000 0000 0000 0000 0000
00000040: 0000 0000 0000 0000 0000 0000 0000 0000
00000050: 0000 0000 0000 0000 0000 0000 0000 0000
00000060: 0000 0000 0000 0000 0000 0000 0000 0000
00000070: 0000 0000 0000 0000 0000 0000 0000 0000
00000080: 0000 0000 0000 0000 0000 0000 0000 0000
00000090: 0000 0000 0000 0000 0000 0000 0000 0000
000000a0: 0000 0000 0000 0000 0000 0000 0000 0000
000000b0: 0000 0000 0000 0000 0000 0000 0000 0000
000000c0: 0000 0000 0000 0000 0000 0000 0000 0000
000000d0: 0000 0000 0000 0000 0000 0000 0000 0000
000000e0: 0000 0000 0000 0000 0000 0000 0000 0000
000000f0: 0000 0000 0000 0000 0000 0000 0000 0000
00000100: 0000 0000 0000 0000 0000 0000 0000 0000
00000110: 0000 0000 0000 0000 0000 0000 0000 0000
00000120: 0000 0000 0000 0000 0000 0000 0000 0000
00000130: 0000 0000 0000 0000 0000 0000 0000 0000
00000140: 0000 0000 0000 0000 0000 0000 0000 0000
00000150: 0000 0000 0000 0000 0000 0000 0000 0000
00000160: 0000 0000 0000 0000 0000 0000 0000 0000
00000170: 0000 0000 0000 0000 0000 0000 0000 0000
00000180: 0000 0000 0000 0000 0000 0000 0000 0000
00000190: 0000 0000 0000 0000 0000 0000 0000 0000
000001a0: 0000 0000 0000 0000 0000 0000 0000 0000
000001b0: 0000 0000 0000 0000 0000 0000 0000 0000
000001c0: 0000 0000 0000 0000 0000 0000 0000 0000
000001d0: 0000 0000 0000 0000 0000 0000 0000 0000
000001e0: 0000 0000 0000 0000 0000 0000 0000 0000
000001f0: 0000 0000 0000 0000 0000 0000 0000 0000
0.0 0.0 0.0 0.0 0.0 0.0 0.0 0.0
0.0 0.0 0.0 0.0 0.0 0.0 0.0 0.0
0.0 0.0 0.0 0.0 0.0 0.0 0.0 0.0
0.0 0.0 0.0 0.0 0.0 0.0 0.0 0.0
0.0 0.0 0.0 0.0 0.0 0.0 0.0 0.0
0.0 0.0 0.0 0.0 0.0 0.0 0.0 0.0
0.0 0.0 0.0 0.0 0.0 0.0 0.0 0.0
0.0 0.0 0.0 0.0 0.0 0.0 0.0 0.0
0.0 0.0 0.0 0.0 0.0 0.0 0.0 0.0
0.0 0.0 0.0 0.0 0.0 0.0 0.0 0.0
0.0 0.0 0.0 0.0 0.0 0.0 0.0 0.0
0.0 0.0 0.0 0.0 0.0 0.0 0.0 0.0
0.0 0.0 0.0 0.0 0.0 0.0 0.0 0.0
0.0 0.0 0.0 0.0 0.0 0.0 0.0 0.0
0.0 0.0 0.0 0.0 0.0 0.0 0.0 0.0
0.0 0.0 0.0 0.0 0.0 0.0 0.0 0.0

bn2.running_mean f4 [128]
00000000: 0000 0000 0000 0000 0000 0000 0000 0000
00000010: 0000 0000 0000 0000 0000 0000 0000 0000
00000020: 0000 0000 0000 0000 0000 0000 0000 0000
00000030: 0000 0000 0000 0000 0000 0000 0000 0000
00000040: 0000 0000 0000 0000 0000 0000 0000 0000
00000050: 0000 0000 0000 0000 0000 0000 0000 0000
00000060: 0000 0000 0000 0000 0000 0000 0000 0000
00000070: 0000 0000 0000 0000 0000 0000 0000 0000
00000080: 0000 0000 0000 0000 0000 0000 0000 0000
00000090: 0000 0000 0000 0000 0000 0000 0000 0000
000000a0: 0000 0000 0000 0000 0000 0000 0000 0000
000000b0: 0000 0000 0000 0000 0000 0000 0000 0000
000000c0: 0000 0000 0000 0000 0000 0000 0000 0000
000000d0: 0000 0000 0000 0000 0000 0000 0000 0000
000000e0: 0000 0000 0000 0000 0000 0000 0000 0000
000000f0: 0000 0000 0000 0000 0000 0000 0000 0000
00000100: 0000 0000 0000 0000 0000 0000 0000 0000
00000110: 0000 0000 0000 0000 0000 0000 0000 0000
00000120: 0000 0000 0000 0000 0000 0000 0000 0000
00000130: 0000 0000 0000 0000 0000 0000 0000 0000
00000140: 0000 0000 0000 0000 0000 0000 0000 0000
00000150: 0000 0000 0000 0000 0000 0000 0000 0000
00000160: 0000 0000 0000 0000 0000 0000 0000 0000
00000170: 0000 0000 0000 0000 0000 0000 0000 0000
00000180: 0000 0000 0000 0000 0000 0000 0000 0000
00000190: 0000 0000 0000 0000 0000 0000 0000 0000
000001a0: 0000 0000 0000 0000 0000 0000 0000 0000
000001b0: 0000 0000 0000 0000 0000 0000 0000 0000
000001c0: 0000 0000 0000 0000 0000 0000 0000 0000
000001d0: 0000 0000 0000 0000 0000 0000 0000 0000
000001e0: 0000 0000 0000 0000 0000 0000 0000 0000
000001f0: 0000 0000 0000 0000 0000 0000 0000 0000
0.0 0.0 0.0 0.0 0.0 0.0 0.0 0.0
0.0 0.0 0.0 0.0 0.0 0.0 0.0 0.0
0.0 0.0 0.0 0.0 0.0 0.0 0.0 0.0
0.0 0.0 0.0 0.0 0.0 0.0 0.0 0.0
0.0 0.0 0.0 0.0 0.0 0.0 0.0 0.0
0.0 0.0 0.0 0.0 0.0 0.0 0.0 0.0
0.0 0.0 0.0 0.0 0.0 0.0 0.0 0.0
0.0 0.0 0.0 0.0 0.0 0.0 0.0 0.0
0.0 0.0 0.0 0.0 0.0 0.0 0.0 0.0
0.0 0.0 0.0 0.0 0.0 0.0 0.0 0.0
0.0 0.0 0.0 0.0 0.0 0.0 0.0 0.0
0.0 0.0 0.0 0.0 0.0 0.0 0.0 0.0
0.0 0.0 0.0 0.0 0.0 0.0 0.0 0.0
0.0 0.0 0.0 0.0 0.0 0.0 0.0 0.0
0.0 0.0 0.0 0.0 0.0 0.0 0.0 0.0
0.0 0.0 0.0 0.0 0.0 0.0 0.0 0.0

bn2.running_var f4 [128]
00000000: 0000 803f 0000 803f 0000 803f 0000 803f
00000010: 0000 803f 0000 803f 0000 803f 0000 803f
00000020: 0000 803f 0000 803f 0000 803f 0000 803f
00000030: 0000 803f 0000 803f 0000 803f 0000 803f
00000040: 0000 803f 0000 803f 0000 803f 0000 803f
00000050: 0000 803f 0000 803f 0000 803f 0000 803f
00000060: 0000 803f 0000 803f 0000 803f 0000 803f
00000070: 0000 803f 0000 803f 0000 803f 0000 803f
00000080: 0000 803f 0000 803f 0000 803f 0000 803f
00000090: 0000 803f 0000 803f 0000 803f 0000 803f
000000a0: 0000 803f 0000 803f 0000 803f 0000 803f
000000b0: 0000 803f 0000 803f 0000 803f 0000 803f
000000c0: 0000 803f 0000 803f 0000 803f 0000 803f
000000d0: 0000 803f 0000 803f 0000 803f 0000 803f
000000e0: 0000 803f 0000 803f 0000 803f 0000 803f
000000f0: 0000 803f 0000 803f 0000 803f 0000 803f
00000100: 0000 803f 0000 803f 0000 803f 0000 803f
00000110: 0000 803f 0000 803f 0000 803f 0000 803f
00000120: 0000 803f 0000 803f 0000 803f 0000 803f
00000130: 0000 803f 0000 803f 0000 803f 0000 803f
00000140: 0000 803f 0000 803f 0000 803f 0000 803f
00000150: 0000 803f 0000 803f 0000 803f 0000 803f
00000160: 0000 803f 0000 803f 0000 803f 0000 803f
00000170: 0000 803f 0000 803f 0000 803f 0000 803f
00000180: 0000 803f 0000 803f 0000 803f 0000 803f
00000190: 0000 803f 0000 803f 0000 803f 0000 803f
000001a0: 0000 803f 0000 803f 0000 803f 0000 803f
000001b0: 0000 803f 0000 803f 0000 803f 0000 803f
000001c0: 0000 803f 0000 803f 0000 803f 0000 803f
000001d0: 0000 803f 0000 803f 0000 803f 0000 803f
000001e0: 0000 803f 0000 803f 0000 803f 0000 803f
000001f0: 0000 803f 0000 803f 0000 803f 0000 803f
1.0 1.0 1.0 1.0 1.0 1.0 1.0 1.0
1.0 1.0 1.0 1.0 1.0 1.0 1.0 1.0
1.0 1.0 1.0 1.0 1.0 1.0 1.0 1.0
1.0 1.0 1.0 1.0 1.0 1.0 1.0 1.0
1.0 1.0 1.0 1.0 1.0 1.0 1.0 1.0
1.0 1.0 1.0 1.0 1.0 1.0 1.0 1.0
1.0 1.0 1.0 1.0 1.0 1.0 1.0 1.0
1.0 1.0 1.0 1.0 1.0 1.0 1.0 1.0
1.0 1.0 1.0 1.0 1.0 1.0 1.0 1.0
1.0 1.0 1.0 1.0 1.0 1.0 1.0 1.0
1.0 1.0 1.0 1.0 1.0 1.0 1.0 1.0
1.0 1.0 1.0 1.0 1.0 1.0 1.0 1.0
1.0 1.0 1.0 1.0 1.0 1.0 1.0 1.0
1.0 1.0 1.0 1.0 1.0 1.0 1.0 1.0
1.0 1.0 1.0 1.0 1.0 1.0 1.0 1.0
1.0 1.0 1.0 1.0 1.0 1.0 1.0 1.0
